inputs/examples/workloads/3DUnet_inferred.onnx (onnx, 65141 bytes, 38 tensors)

conv_blocks_context.0.blocks.0.conv.bias f4 [32]
0	0x37807c06	1.5316542e-05
1	0x37bef612	2.276435e-05
2	0xb72a7556	-1.0160109e-05
3	0xb61a36ec	-2.2979757e-06
4	0x37175856	9.020869e-06
5	0x35fecaa9	1.8983457e-06
6	0x37a5fbba	1.9786752e-05
7	0x391fa94c	0.0001522649
8	0xb6bf4aad	-5.700937e-06
9	0x36a0c2ac	4.7910344e-06
10	0xb6cd1272	-6.1116234e-06
11	0x3711a406	8.680863e-06
12	0xb72c4422	-1.0267862e-05
13	0x370da691	8.443037e-06
14	0x368aaf1e	4.133107e-06
15	0x349bcded	2.902083e-07
16	0x38a743fa	7.975842e-05
17	0x383b8e1e	4.471663e-05
18	0x393e06f4	0.00018122402
19	0x36071f6a	2.0134853e-06
20	0x37180a07	9.062241e-06
21	0xb4140203	-1.3784306e-07
22	0x37ef0d1c	2.8497125e-05
23	0xb4ce1bed	-3.839081e-07
24	0x366a727b	3.4935354e-06
25	0x37fdae59	3.0241137e-05
26	0xb5d8420c	-1.6112476e-06
27	0x36153287	2.223214e-06
28	0x36560350	3.1890413e-06
29	0xb6b12d60	-5.2802934e-06
30	0x383908d2	4.411565e-05
31	0xb641e62e	-2.8893223e-06

conv_blocks_context.0.blocks.0.conv.weight f4 [32, 4, 3, 3, 3]
0	0x07120608	1.0985592e-34
1	0x6f747970	7.566115e+28
2	0x1a686372	4.8056807e-23
3	0x342e3103	1.6222843e-07
4	0x0282ee3a	1.9238519e-37
5	0x0a01d70a	6.2515684e-33
6	0x706e6905	2.9513757e+29
7	0x2a0a7475	1.2297266e-13
8	0x766e6f63	1.2090096e+33
9	0x6f6c625f	7.3157386e+28
10	0x5f736b63	1.7540222e+19
11	0x746e6f63	7.55631e+31
12	0x2e747865	5.558611e-11
13	0x6c622e30	1.0937414e+27
14	0x736b636f	1.8649391e+31
15	0x632e302e	3.2132052e+21
16	0x2e766e6f	5.603201e-11
17	0x67696577	1.1021831e+24
18	0x280a7468	7.6857805e-15
19	0x766e6f63	1.2090096e+33
20	0x6f6c625f	7.3157386e+28
21	0x5f736b63	1.7540222e+19
22	0x746e6f63	7.55631e+31
23	0x2e747865	5.558611e-11
24	0x6c622e30	1.0937414e+27
25	0x736b636f	1.8649391e+31
26	0x632e302e	3.2132052e+21
27	0x2e766e6f	5.603201e-11
28	0x73616962	1.7858951e+31
29	0x39390212	0.00017643746
30	0x6f43061a	6.0356953e+28
31	0x305f766e	8.1295226e-10
32	0x6f430422	6.0354573e+28
33	0x142a766e	8.606163e-27
34	0x6964090a	1.7229861e+25
35	0x6974616c	1.8464873e+25
36	0x40736e6f	3.8036153
37	0x40014001	2.0195315
38	0x0701a001	9.751902e-35
39	0x050a0c2a	6.490963e-36
40	0x756f7267	3.0353499e+32
41	0xa0011870	-1.0934811e-19
42	0x172a0201	5.493249e-25
43	0x656b0c0a	6.937364e+22
44	0x6c656e72	1.1094623e+27
45	0x6168735f	2.6799737e+20
46	0x03406570	5.6540173e-37
47	0x03400340	5.642746e-37
48	0x2a0701a0	1.1990972e-13
49	0x70040a15	1.6345684e+29
50	0x40736461	3.8030016
51	0x40014001	2.0195315
52	0x40014001	2.0195315
53	0xa0014001	-1.0947902e-19
54	0x122a0701	5.3651175e-28
55	0x7473070a	7.701849e+31
56	0x65646972	6.7415293e+22
57	0x40014073	2.0195587
58	0xa0014001	-1.0947902e-19
59	0xaa0a0701	-1.2259292e-13
60	0x39020a01	0.00012401493
61	0x632e0a39	3.21047e+21
62	0x5f766e6f	1.7757252e+19
63	0x636f6c62	4.4165816e+21
64	0x635f736b	4.1219407e+21
65	0x65746e6f	7.214341e+22
66	0x302e7478	6.3466343e-10
67	0x6f6c622e	7.3157154e+28
68	0x2e736b63	5.534718e-11
69	0x6e692e30	1.8041461e+28
70	0x6f6e7473	7.379821e+28
71	0x772e6d72	3.5378104e+33
72	0x68676965	4.3712434e+24
73	0x632c0a74	3.1735932e+21
74	0x5f766e6f	1.7757252e+19
75	0x636f6c62	4.4165816e+21
76	0x635f736b	4.1219407e+21
77	0x65746e6f	7.214341e+22
78	0x302e7478	6.3466343e-10
79	0x6f6c622e	7.3157154e+28
80	0x2e736b63	5.534718e-11
81	0x6e692e30	1.8041461e+28
82	0x6f6e7473	7.379821e+28
83	0x622e6d72	8.0440496e+20
84	0x12736169	7.6797347e-28
85	0x30303103	6.4098077e-10
86	0x6e49171a	1.5558604e+28
87	0x6e617473	1.7443726e+28
88	0x6f4e6563	6.387648e+28
89	0x6c616d72	1.0901006e+27
90	0x74617a69	7.1456883e+31
91	0x5f6e6f69	1.7181067e+19
92	0x49152231	610851.06
93	0x6174736e	2.818327e+20
94	0x4e65636e	9.621247e+08
95	0x616d726f	2.7375776e+20
96	0x617a696c	2.8870515e+20
97	0x6e6f6974	1.85236e+28
98	0x070a112a	1.038701e-34
99	0x69737065	1.8393734e+25
100	0x156e6f6c	4.8151614e-26
101	0x3727c5ac	1e-05
102	0x0a0101a0	6.21143e-33
103	0x31030a33	1.9068807e-09
104	0x03123030	4.296086e-37
105	0x1a313031	3.664167e-23
106	0x61654c0b	2.643615e+20
107	0x6552796b	6.2121045e+22
108	0x325f756c	1.3007007e-08
109	0x654c0922	6.02207e+22
110	0x52796b61	2.678121e+11
111	0x2a756c65	2.1797978e-13
112	0x61050a0f	1.5338386e+20
113	0x6168706c	2.679841e+20
114	0x23d70a15	2.3314617e-17
115	0x0101a03c	2.380852e-38
116	0x0a01d60a	6.25138e-33
117	0x31303103	2.563923e-09
118	0x6f632a0a	7.030392e+28
119	0x625f766e	1.0305394e+21
120	0x6b636f6c	2.7495234e+26
121	0x6f635f73	7.036849e+28
122	0x7865746e	1.8615585e+34
123	0x2e302e74	4.0059026e-11
124	0x636f6c62	4.4165816e+21
125	0x312e736b	2.538594e-09
126	0x6e6f632e	1.8521705e+28
127	0x65772e76	7.29551e+22
128	0x74686769	7.365175e+31
129	0x6f63280a	7.03015e+28
130	0x625f766e	1.0305394e+21
131	0x6b636f6c	2.7495234e+26
132	0x6f635f73	7.036849e+28
133	0x7865746e	1.8615585e+34
134	0x2e302e74	4.0059026e-11
135	0x636f6c62	4.4165816e+21
136	0x312e736b	2.538594e-09
137	0x6e6f632e	1.8521705e+28
138	0x69622e76	1.708979e+25
139	0x03127361	4.3037992e-37
140	0x1a323031	3.6848466e-23
141	0x6e6f4306	1.8511986e+28
142	0x22335f76	2.430956e-18
143	0x6e6f4304	1.8511984e+28
144	0x0a142a76	7.133927e-33
145	0x6c696409	1.1286085e+27
146	0x6f697461	7.22507e+28
147	0x0140736e	3.5347647e-38
148	0x01400140	3.5265727e-38
149	0x2a0701a0	1.1990972e-13
150	0x67050a0c	6.282601e+23
151	0x70756f72	3.0383423e+29
152	0x01a00118	5.8776287e-38
153	0x0a172a02	7.278286e-33
154	0x72656b0c	4.5440947e+30
155	0x5f6c656e	1.7034142e+19
156	0x70616873	2.790416e+29
157	0x40034065	2.0508053
158	0xa0034003	-1.1117311e-19
159	0x152a0701	3.4336752e-26
160	0x6170040a	2.7671935e+20
161	0x01407364	3.534762e-38
162	0x01400140	3.5265727e-38
163	0x01400140	3.5265727e-38
164	0x01a00140	5.877651e-38
165	0x0a122a07	7.037549e-33
166	0x72747307	4.8418177e+30
167	0x73656469	1.8174325e+31
168	0x01400140	3.5265727e-38
169	0x01a00140	5.877651e-38
170	0x01ab0a07	6.282987e-38
171	0x3031030a	6.4396544e-10
172	0x632e0a32	3.210468e+21
173	0x5f766e6f	1.7757252e+19
174	0x636f6c62	4.4165816e+21
175	0x635f736b	4.1219407e+21
176	0x65746e6f	7.214341e+22
177	0x302e7478	6.3466343e-10
178	0x6f6c622e	7.3157154e+28
179	0x2e736b63	5.534718e-11
180	0x6e692e31	1.8041462e+28
181	0x6f6e7473	7.379821e+28
182	0x772e6d72	3.5378104e+33
183	0x68676965	4.3712434e+24
184	0x632c0a74	3.1735932e+21
185	0x5f766e6f	1.7757252e+19
186	0x636f6c62	4.4165816e+21
187	0x635f736b	4.1219407e+21
188	0x65746e6f	7.214341e+22
189	0x302e7478	6.3466343e-10
190	0x6f6c622e	7.3157154e+28
191	0x2e736b63	5.534718e-11
192	0x6e692e31	1.8041462e+28
193	0x6f6e7473	7.379821e+28
194	0x622e6d72	8.0440496e+20
195	0x12736169	7.6797347e-28
196	0x33303103	4.102277e-08
197	0x6e49171a	1.5558604e+28
198	0x6e617473	1.7443726e+28
199	0x6f4e6563	6.387648e+28
200	0x6c616d72	1.0901006e+27
201	0x74617a69	7.1456883e+31
202	0x5f6e6f69	1.7181067e+19
203	0x49152234	610851.25
204	0x6174736e	2.818327e+20
205	0x4e65636e	9.621247e+08
206	0x616d726f	2.7375776e+20
207	0x617a696c	2.8870515e+20
208	0x6e6f6974	1.85236e+28
209	0x070a112a	1.038701e-34
210	0x69737065	1.8393734e+25
211	0x156e6f6c	4.8151614e-26
212	0x3727c5ac	1e-05
213	0x0a0101a0	6.21143e-33
214	0x31030a33	1.9068807e-09
215	0x03123330	4.2964304e-37
216	0x1a343031	3.7262056e-23
217	0x61654c0b	2.643615e+20
218	0x6552796b	6.2121045e+22
219	0x355f756c	8.3244845e-07
220	0x654c0922	6.02207e+22
221	0x52796b61	2.678121e+11
222	0x2a756c65	2.1797978e-13
223	0x61050a0f	1.5338386e+20
224	0x6168706c	2.679841e+20
225	0x23d70a15	2.3314617e-17
226	0x0101a03c	2.380852e-38
227	0x0a01d60a	6.25138e-33
228	0x34303103	1.6409108e-07
229	0x6f632a0a	7.030392e+28
230	0x625f766e	1.0305394e+21
231	0x6b636f6c	2.7495234e+26
232	0x6f635f73	7.036849e+28
233	0x7865746e	1.8615585e+34
234	0x2e312e74	4.02864e-11
235	0x636f6c62	4.4165816e+21
236	0x302e736b	6.346485e-10
237	0x6e6f632e	1.8521705e+28
238	0x65772e76	7.29551e+22
239	0x74686769	7.365175e+31
240	0x6f63280a	7.03015e+28
241	0x625f766e	1.0305394e+21
242	0x6b636f6c	2.7495234e+26
243	0x6f635f73	7.036849e+28
244	0x7865746e	1.8615585e+34
245	0x2e312e74	4.02864e-11
246	0x636f6c62	4.4165816e+21
247	0x302e736b	6.346485e-10
248	0x6e6f632e	1.8521705e+28
249	0x69622e76	1.708979e+25
250	0x03127361	4.3037992e-37
251	0x1a353031	3.746885e-23
252	0x6e6f4306	1.8511986e+28
253	0x22365f76	2.4716136e-18
254	0x6e6f4304	1.8511984e+28
255	0x0a142a76	7.133927e-33

conv_blocks_context.0.blocks.0.instnorm.bias f4 [32]
0	0x3d40a381	0.04703093
1	0x3db8ca08	0.090229094
2	0xbedefb8f	-0.435513
3	0x3dab443c	0.08362624
4	0xbd377e38	-0.044798106
5	0x3ed0c184	0.4077264
6	0x3c824def	0.015906302
7	0xbebe90d8	-0.37219882
8	0xbd1b5601	-0.037923817
9	0xbc08e9c0	-0.008356512
10	0xbf081afb	-0.5316617
11	0x3f85e076	1.0459125
12	0xbeae2e84	-0.34019864
13	0xbc087d3e	-0.008330641
14	0xbcf4a37c	-0.029863112
15	0x3e1ca840	0.15298557
16	0xbedfb50f	-0.43692824
17	0xbe78c252	-0.24292877
18	0xbf252332	-0.6450683
19	0x3e5d3633	0.21602707
20	0x3ed66ffd	0.41882315
21	0x3f32bf67	0.69823307
22	0x3fc5cb0a	1.5452588
23	0x3e499290	0.19684815
24	0x3ebd3940	0.3695774
25	0xbbb049c8	-0.005379889
26	0x3f3503fb	0.707092
27	0x3f41ecda	0.7575203
28	0x3ed8130d	0.42202035
29	0xbc1acdaa	-0.009448448
30	0xbea31245	-0.31849876
31	0x3f704758	0.9385886

conv_blocks_context.0.blocks.0.instnorm.weight f4 [32]
0	0x3ec60698	0.38676906
1	0x3ef2b91f	0.4740686
2	0x3f1e6fea	0.6188952
3	0x3ea3babd	0.31978408
4	0x3ea5f49a	0.3241318
5	0x3eb24549	0.34818485
6	0x3ecefbaa	0.4042638
7	0x3ee052f0	0.43813276
8	0x3e8232e0	0.2542944
9	0x3e8dc7d0	0.27691507
10	0x3f0e5ab9	0.5560718
11	0x3ec0b1ef	0.37635753
12	0x3e9e87f2	0.30963093
13	0x3ed5430b	0.41652712
14	0x3edc1bc5	0.42989936
15	0x3e999577	0.29996845
16	0x3e923536	0.28556222
17	0x3eb2a582	0.34891897
18	0x3f11eb8e	0.5700005
19	0x3e7a7879	0.24460019
20	0x3e81aebf	0.25328633
21	0x3e795f4e	0.24352762
22	0x3ee94fde	0.45568746
23	0x3e9623ae	0.29324096
24	0x3e9f085d	0.31061068
25	0x3edb0f83	0.42785272
26	0x3e9c4c83	0.30527124
27	0x3e648e2e	0.22319862
28	0x3e6a25b6	0.22865948
29	0x3e9dcf7e	0.30822366
30	0x3e8b6d04	0.2723161
31	0x3e8ec8e0	0.2788763

conv_blocks_context.0.blocks.1.conv.bias f4 [32]
0	0x379a2e82	1.8379887e-05
1	0xb8266097	-3.966744e-05
2	0xb86d3aa4	-5.6559817e-05
3	0x360a875f	2.0642399e-06
4	0x3976269f	0.00023474776
5	0x3a091038	0.0005228552
6	0xb641be13	-2.8869879e-06
7	0xb6ad7759	-5.1696957e-06
8	0x398f3f09	0.0002732205
9	0x34460c8c	1.8444752e-07
10	0x378ba27a	1.664575e-05
11	0x399116ab	0.00027673444
12	0x362dca63	2.5896813e-06
13	0x3582d957	9.749009e-07
14	0x37baef06	2.2284232e-05
15	0x3791a88c	1.7363833e-05
16	0xba3bbad1	-0.00071613217
17	0xb64619f3	-2.9519404e-06
18	0x37911ae9	1.7297878e-05
19	0x372cec0a	1.0306956e-05
20	0xb6f5b2b2	-7.322372e-06
21	0x37a90ec1	2.015324e-05
22	0xb6aff868	-5.2443247e-06
23	0x370fd4a6	8.572975e-06
24	0x34995311	2.855891e-07
25	0xb88af415	-6.6258166e-05
26	0xb773b334	-1.4525653e-05
27	0xb9f333bb	-0.00046387114
28	0xb79ffdaa	-1.9072399e-05
29	0x38747869	5.8286274e-05
30	0x381fd0dc	3.810307e-05
31	0xb721cbff	-9.643844e-06

conv_blocks_context.0.blocks.1.instnorm.bias f4 [32]
0	0xbea5faa0	-0.32417774
1	0x3f8a7ce3	1.0819362
2	0x3f6dec39	0.9293857
3	0x3e3239f8	0.17404926
4	0xbec07b1d	-0.37593928
5	0x3e508e6b	0.20366828
6	0xbd226dbe	-0.03965544
7	0x3e4758bf	0.19467448
8	0xbe8ae868	-0.27130437
9	0x3de00390	0.109381795
10	0xbef92574	-0.48661387
11	0xbe701fef	-0.23449682
12	0x3cd871a0	0.026421368
13	0xbdbc8774	-0.09205523
14	0xbea2e751	-0.31817105
15	0x3e21bc2b	0.15794437
16	0xbf0963d4	-0.5366795
17	0x3e1a9724	0.15096718
18	0x3e065690	0.13118958
19	0xbf244cd7	-0.6417975
20	0xbe2f4262	-0.17115167
21	0xbe6eb3fb	-0.23310845
22	0xbeac3c7f	-0.33639905
23	0x3d9ce2ba	0.07660432
24	0x3e08f0b8	0.13373077
25	0x3f3a499e	0.7276858
26	0x3e3eef8c	0.18646067
27	0xbf038855	-0.513799
28	0x3e99835c	0.29983032
29	0xbdc2d8c4	-0.09514001
30	0xbf3ba471	-0.7329779
31	0x3ea3e79a	0.32012635

conv_blocks_context.0.blocks.1.instnorm.weight f4 [32]
0	0x3e9b985c	0.30389678
1	0x3ee6c825	0.45074573
2	0x3ec6ac9b	0.38803563
3	0x3edfe6e4	0.43730843
4	0x3f10f37e	0.5662154
5	0x3e91cc14	0.28476012
6	0x3eb17941	0.34662822
7	0x3ee87f54	0.45409644
8	0x3eba68d1	0.36408094
9	0x3ed6a5c9	0.4192336
10	0x3ef459c3	0.47724733
11	0x3ec91301	0.3927231
12	0x3eba3dda	0.36375314
13	0x3efac502	0.4897843
14	0x3ede5daa	0.43430835
15	0x3eaede3e	0.34153932
16	0x3e9db526	0.30802268
17	0x3f1ba33f	0.6079597
18	0x3ed06164	0.40699303
19	0x3f10a2be	0.56498325
20	0x3ebbe59f	0.36698624
21	0x3ee1f70b	0.4413379
22	0x3eb51e5b	0.35374722
23	0x3ede8564	0.43461144
24	0x3f1f2851	0.6217089
25	0x3e82339b	0.25429997
26	0x3eb958dc	0.36200607
27	0x3eb6e8a5	0.3572437
28	0x3ebdcc4e	0.37069935
29	0x3ee8ae72	0.4544559
30	0x3e8b2af4	0.27181208
31	0x3e94724d	0.28993455

conv_blocks_context.1.blocks.0.conv.bias f4 [64]
0	0xb6b08166	-5.2602727e-06
1	0xb710224a	-8.591052e-06
2	0x3777099c	1.4724585e-05
3	0x34f0b738	4.4836793e-07
4	0x35a2d1e8	1.2131031e-06
5	0xb3fe4abd	-1.18413915e-07
6	0x361f9ac8	2.378294e-06
7	0x353ee724	7.111687e-07
8	0xb50d3bdd	-5.2613706e-07
9	0x3393d377	6.883686e-08
10	0xb5c9799e	-1.5011062e-06
11	0x34902f2e	2.6856418e-07
12	0x35028d21	4.8634143e-07
13	0x34ff5696	4.756045e-07
14	0x35665fe0	8.5821193e-07
15	0xb53cb33f	-7.0296295e-07
16	0x3605c33a	1.9932181e-06
17	0x355f2920	8.313382e-07
18	0xb69170eb	-4.334482e-06
19	0x35e80d0b	1.7289143e-06
20	0xb5d58ea8	-1.5911255e-06
21	0xb67e110e	-3.7858877e-06
22	0xb5799583	-9.2977297e-07
23	0xb6c1569b	-5.7619304e-06
24	0xb56a3ce5	-8.7260406e-07
25	0x355eab28	8.295051e-07
26	0xb61d55fe	-2.3444877e-06
27	0xb7152adc	-8.891071e-06
28	0x35f47852	1.8214434e-06
29	0xb690a788	-4.3110376e-06
30	0xb5e31029	-1.6917521e-06
31	0xb61ab42c	-2.3052662e-06
32	0xb55dc612	-8.2617146e-07
33	0x353f1708	7.118656e-07
34	0xb5f0adc7	-1.7931969e-06
35	0x3654c890	3.1707204e-06
36	0xb58c3cdf	-1.0448529e-06
37	0x3638f64d	2.7561503e-06
38	0x36afdde0	5.241236e-06
39	0x358c92db	1.0473553e-06
40	0xb51c02aa	-5.8118405e-07
41	0xb57f331d	-9.506928e-07
42	0xb5fb1a1d	-1.8708557e-06
43	0x3490a6ef	2.694355e-07
44	0x35f6d6b4	1.8390915e-06
45	0xb70a844b	-8.256243e-06
46	0xb4b668d6	-3.397642e-07
47	0x36a46002	4.8987577e-06
48	0xb60b7d37	-2.0785499e-06
49	0x36c506c2	5.871844e-06
50	0xb5b625e4	-1.3571084e-06
51	0xb599ae8c	-1.1450188e-06
52	0xb4c38c7f	-3.6423805e-07
53	0xb3e14afa	-1.0491017e-07
54	0xb6de2a88	-6.621067e-06
55	0xb79fe4ae	-1.9060764e-05
56	0xb66e5efa	-3.5520047e-06
57	0xb622fa21	-2.4285475e-06
58	0x320db1e8	8.247731e-09
59	0x36992444	4.563977e-06
60	0xb5b7073d	-1.3636669e-06
61	0xb557b147	-8.0351714e-07
62	0xb54db1c6	-7.6627146e-07
63	0x33dd7d6f	1.0313931e-07

conv_blocks_context.1.blocks.0.instnorm.bias f4 [64]
0	0xba2a1677	-0.0006488333
1	0xbd0ba271	-0.034090463
2	0xbe130431	-0.14357068
3	0xbec984cd	-0.3935913
4	0x39eecce2	0.00045547547
5	0x3e7af85e	0.24508807
6	0xbbd9a407	-0.006641868
7	0xbdc19ff4	-0.09454337
8	0xbcb6daad	-0.02232107
9	0x3d51fbe6	0.05126562
10	0x3e273b92	0.16331318
11	0xbdc52aa4	-0.09627274
12	0xbe27519e	-0.16339728
13	0xbe15ae9f	-0.14617394
14	0x3de4e10c	0.11175737
15	0xbef6e022	-0.48217875
16	0xbe41385b	-0.18869154
17	0xbc24aaf2	-0.010050522
18	0x3d7c115a	0.061539985
19	0x3eb89521	0.36051276
20	0x3f07ab0b	0.52995366
21	0x3d46b619	0.048513506
22	0x3e834645	0.2563955
23	0xbefd4f7d	-0.49474707
24	0xbd751d87	-0.059842613
25	0x3e90b877	0.28265736
26	0xba832c68	-0.0010007741
27	0x3f44b6ef	0.76841635
28	0xbeb0302d	-0.34411755
29	0x3edba2b0	0.42897558
30	0xbd9499a8	-0.0725587
31	0xbe1461f5	-0.14490493
32	0x3e6ef9bf	0.23337458
33	0xbc62a160	-0.01383242
34	0x3dfca94b	0.123369776
35	0xbd91a41a	-0.07111378
36	0x3ee61532	0.44938046
37	0x3eb8da11	0.3610387
38	0x3f0b4aed	0.544112
39	0x3e1be928	0.15225661
40	0xbd3c7b47	-0.046016004
41	0x3dd1e637	0.10248988
42	0xbe27cf50	-0.16387677
43	0xbe100f48	-0.1406833
44	0xbeae9114	-0.3409506
45	0x3e91df3e	0.28490633
46	0xbe249ab8	-0.16074646
47	0x3e12a9a7	0.1432253
48	0xbe31e935	-0.17374118
49	0x3e146636	0.14492115
50	0xbcb05738	-0.021525964
51	0x3d0f5574	0.034993604
52	0x3e19fc1f	0.15037583
53	0xbe88c11a	-0.26709825
54	0xbe79ab24	-0.24381691
55	0xbf000ceb	-0.5001971
56	0xbe2d64a5	-0.16932924
57	0xbe417486	-0.18892106
58	0x3c844ae8	0.016149
59	0xbb5bb1ce	-0.0033522728
60	0xbd6d7ac3	-0.057978403
61	0xbdb5a819	-0.08869953
62	0x3e94a95f	0.2903547
63	0xbeb2a8ff	-0.3489456

conv_blocks_context.1.blocks.0.instnorm.weight f4 [64]
0	0x3e86a0b3	0.2629448
1	0x3e889350	0.2667489
2	0x3e93de3c	0.2888049
3	0x3e56ce3f	0.20977114
4	0x3ef81a50	0.48457575
5	0x3e95e598	0.2927673
6	0x3e6fc1ca	0.23413768
7	0x3ed50dd3	0.4161211
8	0x3ef62e03	0.4808198
9	0x3ea03d75	0.31296888
10	0x3eb14cf4	0.34629023
11	0x3f0c0523	0.5469534
12	0x3e4f4c7d	0.20244022
13	0x3e931dd2	0.2873369
14	0x3f098525	0.5371879
15	0x3e96a874	0.29425395
16	0x3ef86eb8	0.48521972
17	0x3ed2b30a	0.4115222
18	0x3e8b7010	0.27233934
19	0x3e89367e	0.26799387
20	0x3e856665	0.26054683
21	0x3ec481c0	0.3838024
22	0x3e3e808c	0.18603724
23	0x3ec790bc	0.3897761
24	0x3ee2ad8e	0.44273037
25	0x3e45f3f9	0.1933135
26	0x3ee166c3	0.44023713
27	0x3e792984	0.24332243
28	0x3eab31a9	0.33436325
29	0x3e9cfa26	0.30659598
30	0x3e8b4870	0.27203703
31	0x3ea3fbcc	0.32028043
32	0x3eb739ba	0.3578623
33	0x3ed6ec14	0.41976988
34	0x3e94a374	0.29030955
35	0x3f064d96	0.52462137
36	0x3e6045c1	0.21901609
37	0x3ec049a3	0.3755618
38	0x3e914866	0.28375548
39	0x3e8ff460	0.2811613
40	0x3e88549d	0.26627055
41	0x3e983602	0.29728705
42	0x3e5a7d13	0.21336775
43	0x3e8b23c4	0.27175725
44	0x3ed490b3	0.41516647
45	0x3edef894	0.43549025
46	0x3ed86bf9	0.42269877
47	0x3ecc3eac	0.39891565
48	0x3ee54c28	0.44784665
49	0x3ec34f9d	0.38146678
50	0x3e90a9f8	0.28254676
51	0x3e9a3546	0.3011877
52	0x3ecd5dda	0.40110666
53	0x3eae419d	0.34034434
54	0x3e53ca36	0.20682606
55	0x3e5cd787	0.21566592
56	0x3eb8a98c	0.36066854
57	0x3e9e837a	0.30959684
58	0x3eeb02d4	0.45900595
59	0x3ee7d82c	0.45282114
60	0x3ea5bf4e	0.32372516
61	0x3edc464d	0.43022385
62	0x3e69c375	0.22828467
63	0x3ea7d3fb	0.32778916

conv_blocks_context.1.blocks.1.conv.bias f4 [64]
0	0x35e6433a	1.7155901e-06
1	0x36186955	2.2711076e-06
2	0xb5b15b6d	-1.3214136e-06
3	0xb618e689	-2.2783954e-06
4	0x3416c4e3	1.4041466e-07
5	0xb5eaae18	-1.7485027e-06
6	0xb675eb5a	-3.6644838e-06
7	0x353157f9	6.6065655e-07
8	0x35f8093d	1.8480129e-06
9	0xb60944cb	-2.0454634e-06
10	0x3506a6c2	5.0161555e-07
11	0xb6b601c9	-5.4242305e-06
12	0x36ce7d03	6.1538317e-06
13	0x366fa997	3.571249e-06
14	0x350a63d5	5.155428e-07
15	0x36ebd990	7.0288734e-06
16	0x35ad156b	1.2895738e-06
17	0xb5170c24	-5.626955e-07
18	0x35119bdd	5.424352e-07
19	0xb619e450	-2.2931672e-06
20	0xb53d015a	-7.0409953e-07
21	0xb6585429	-3.2235496e-06
22	0xb525003a	-6.146762e-07
23	0xb43bb8d5	-1.7482974e-07
24	0xb6eb0dce	-7.005153e-06
25	0x3639bae2	2.7675928e-06
26	0xb52f54f0	-6.531618e-07
27	0xb75b3972	-1.3066792e-05
28	0xb632573d	-2.6574846e-06
29	0xb613a7e1	-2.2002425e-06
30	0xb7338cc6	-1.0702008e-05
31	0x37000982	7.631608e-06
32	0xb5c4dd99	-1.4667631e-06
33	0xb5cd1e10	-1.528244e-06
34	0xb63dc4bf	-2.8277716e-06
35	0xb5f8db39	-1.8541242e-06
36	0xb5c195cd	-1.4423218e-06
37	0x34e3e82f	4.245098e-07
38	0x35b5ef26	1.3555152e-06
39	0xb65962fd	-3.2393139e-06
40	0x35c2028f	1.4454871e-06
41	0xb4185c19	-1.4189608e-07
42	0x36a940db	5.0441427e-06
43	0x36c8e6f2	5.98735e-06
44	0xb5cb9b19	-1.5169818e-06
45	0xb5a2dbbc	-1.2133892e-06
46	0x350cf232	5.2506505e-07
47	0xb691409c	-4.3288583e-06
48	0x3521e02b	6.030338e-07
49	0x35e1a0c8	1.68106e-06
50	0x35ceba05	1.5402335e-06
51	0x34cd9bf9	3.829771e-07
52	0x35082d29	5.0729665e-07
53	0xb549ec5f	-7.52223e-07
54	0x36940302	4.411094e-06
55	0x3518b413	5.6886455e-07
56	0x35770209	9.201763e-07
57	0xb6b449bc	-5.373002e-06
58	0x357e869b	9.481825e-07
59	0xb6bdd1b3	-5.657051e-06
60	0x3602e379	1.9503916e-06
61	0x35e3da7a	1.6976403e-06
62	0x366ed625	3.5589412e-06
63	0xb590dc02	-1.0792867e-06

conv_blocks_context.1.blocks.1.instnorm.bias f4 [64]
0	0xbc035aae	-0.008017225
1	0x3e805724	0.25066483
2	0x3e1343fb	0.14381401
3	0x3e4e744e	0.20161554
4	0xbe989cbf	-0.29807088
5	0x3db0428b	0.08606442
6	0xbbdb013e	-0.0066834977
7	0x3e7921ad	0.24329253
8	0xbc60baca	-0.013716409
9	0xbec32b70	-0.38119078
10	0xbdfc9fe5	-0.12335185
11	0x3d1e85bd	0.03870176
12	0x3f1cfa0d	0.6131905
13	0x3e0a17b7	0.13485609
14	0xbe41a4fd	-0.18910594
15	0x3da838a2	0.08213927
16	0xbc54236d	-0.012947899
17	0xbe6fbfcb	-0.23413007
18	0xbeb554fe	-0.35416406
19	0xbddf74fe	-0.10910986
20	0xbde6b3dd	-0.11264775
21	0xbe67dc17	-0.22642551
22	0x3db1df20	0.08685136
23	0x3dc2efe7	0.09518414
24	0x3e1a26ed	0.15053912
25	0xbec0bc7f	-0.3764381
26	0xbacf755c	-0.0015827822
27	0xbea65578	-0.32487082
28	0xbe9a0287	-0.30080053
29	0x3da4b5d8	0.080424964
30	0xbe320376	-0.17384133
31	0xbec5ba92	-0.38618904
32	0x3d4a1f8d	0.049346495
33	0x3e82cb11	0.25545552
34	0xbe1691e2	-0.14704087
35	0xbb50f602	-0.0031884913
36	0xbebefed9	-0.37303808
37	0xbd9a507a	-0.07534881
38	0xbb48288f	-0.0030541753
39	0x3eae55b6	0.34049767
40	0x3eab644e	0.33474964
41	0xbe8bd3e3	-0.27310094
42	0xbdbefcc4	-0.09325555
43	0xbe3fa62d	-0.18715735
44	0xbc5eaabc	-0.013590511
45	0xbea7df61	-0.32787612
46	0xbe7d2119	-0.24719657
47	0xbeeff678	-0.46867728
48	0x3e26b93b	0.16281597
49	0x3c9b2598	0.018938825
50	0x3af949b7	0.0019019161
51	0x3e85bf26	0.26122397
52	0xbe11697e	-0.14200398
53	0xbe856f78	-0.26061606
54	0xbec7fb38	-0.39058852
55	0xbe4160e6	-0.1888462
56	0xbe2dae20	-0.16960955
57	0xbed03a24	-0.40669358
58	0xbed071a7	-0.4071171
59	0xbe507c94	-0.20360023
60	0xbbcae37a	-0.006191668
61	0x3d6a052f	0.05713385
62	0xbe1f9362	-0.15583566
63	0x3d0e2ee3	0.034712683

conv_blocks_context.1.blocks.1.instnorm.weight f4 [64]
0	0x3efe3fb6	0.49657983
1	0x3e7e7b35	0.24851687
2	0x3e84d175	0.25941053
3	0x3e7b2fac	0.24529904
4	0x3e89b7a2	0.26897913
5	0x3e8e3162	0.2777205
6	0x3ee5f6ec	0.4491495
7	0x3e5d6e5c	0.2162413
8	0x3eb728e4	0.35773385
9	0x3ecffeb1	0.40624002
10	0x3f131974	0.57460713
11	0x3eaff01f	0.34362885
12	0x3e977f96	0.29589528
13	0x3ed72715	0.42022005
14	0x3eb0251c	0.34403312
15	0x3ecab42c	0.39590585
16	0x3ebb3ba5	0.36568943
17	0x3e8db90d	0.27680245
18	0x3ebc47cb	0.36773524
19	0x3f06d2eb	0.52665585
20	0x3ebd33dd	0.3695363
21	0x3ea235ea	0.31681758
22	0x3ea72747	0.32647154
23	0x3ea9f86b	0.3319734
24	0x3efe235c	0.49636352
25	0x3e5d0b71	0.21586396
26	0x3e9c7ad2	0.30562454
27	0x3e84c853	0.25934085
28	0x3f0242ee	0.50883377
29	0x3e9067e3	0.2820426
30	0x3ebab7a8	0.36468244
31	0x3ebd722f	0.37001178
32	0x3ead2703	0.33818826
33	0x3e9a11f6	0.30091828
34	0x3ee0db94	0.43917525
35	0x3e997613	0.29972896
36	0x3e69d815	0.22836335
37	0x3e8cd96d	0.27509633
38	0x3ef9246f	0.4866061
39	0x3ea7ca6c	0.32771623
40	0x3e6ab2f4	0.22919828
41	0x3e8e1fe8	0.27758718
42	0x3f128532	0.5723449
43	0x3e9c75b4	0.3055855
44	0x3eccb1be	0.39979357
45	0x3ec4d741	0.38445476
46	0x3e8ecf5e	0.27892584
47	0x3e7f9649	0.24959673
48	0x3eb54e7b	0.35411438
49	0x3ea69bf7	0.32540867
50	0x3e934a6a	0.2876771
51	0x3ec33519	0.38126448
52	0x3ebe7132	0.37195736
53	0x3ec6d959	0.38837698
54	0x3e8f5d29	0.28000763
55	0x3e995859	0.29950216
56	0x3eab7075	0.33484235
57	0x3ed2a485	0.41141143
58	0x3eb0e5fd	0.34550467
59	0x3ec4cc5a	0.38437158
60	0x3ed3cf4e	0.41369098
61	0x3ef61033	0.48059234
62	0x3eb14359	0.34621695
63	0x3eddc7ff	0.43316647

conv_blocks_context.2.blocks.0.conv.bias f4 [128]
0	0xb4cdeabe	-3.8355023e-07
1	0xb69557d6	-4.4507715e-06
2	0xb6018b4e	-1.9303584e-06
3	0xb517fd25	-5.662026e-07
4	0x36189b61	2.2740207e-06
5	0x34d815cb	4.0248992e-07
6	0xb3c6a819	-9.25067e-08
7	0x34f91a64	4.6399066e-07
8	0xb420df69	-1.4982437e-07
9	0x364d348a	3.0577962e-06
10	0x3628c8c4	2.5150812e-06
11	0x35e681cf	1.7174115e-06
12	0x32b5548d	2.1109622e-08
13	0x3585dbaf	9.973209e-07
14	0xb520c4db	-5.989111e-07
15	0xb4fb61ea	-4.6823635e-07
16	0xb5c41891	-1.4610288e-06
17	0xb54690a8	-7.397125e-07
18	0x35485c25	7.4639894e-07
19	0x364d94c6	3.0633978e-06
20	0xb521b717	-6.0243605e-07
21	0x342840af	1.5669751e-07
22	0x35ecbd61	1.7638487e-06
23	0xb4d77c9f	-4.0137544e-07
24	0x322be631	1.00058495e-08
25	0xb43d280b	-1.7616564e-07
26	0xb4308122	-1.6438256e-07
27	0xb657ced0	-3.2157877e-06
28	0xb4fb5cd8	-4.6819946e-07
29	0xb51d8127	-5.8675e-07
30	0x36bcfbff	5.632173e-06
31	0x3567790c	8.623035e-07
32	0xb2a0c1f4	-1.8714651e-08
33	0xb608b14c	-2.036878e-06
34	0x359e9ec9	1.181813e-06
35	0x355dfcec	8.2696965e-07
36	0x352ea491	6.5059527e-07
37	0x36a46d3a	4.9002965e-06
38	0x35debbd4	1.6594954e-06
39	0x35cb8218	1.5162541e-06
40	0x349e2352	2.9455492e-07
41	0xb4bef589	-3.5568908e-07
42	0x35b930ad	1.3797741e-06
43	0x355300cb	7.860478e-07
44	0xb4435757	-1.8192564e-07
45	0xb4c9dbc2	-3.7599062e-07
46	0xb5395676	-6.904369e-07
47	0x36c2d564	5.8064925e-06
48	0x34dc2082	4.1001846e-07
49	0x35f8ad59	1.8527891e-06
50	0x35bfb95b	1.4284554e-06
51	0xb6033381	-1.95505e-06
52	0xb442cb5c	-1.814164e-07
53	0x36097162	2.0480588e-06
54	0x35e5a2e3	1.7109236e-06
55	0x359645ac	1.1196148e-06
56	0x365d6504	3.2990365e-06
57	0xb5d64ff8	-1.5967516e-06
58	0xb564a516	-8.517685e-07
59	0x359b8d63	1.1589549e-06
60	0x357025d3	8.946201e-07
61	0xb61eba4d	-2.3652276e-06
62	0x3512f8d8	5.4751354e-07
63	0xb612c30e	-2.1869232e-06
64	0x35497ca4	7.505971e-07
65	0x3552ca54	7.852552e-07
66	0x35a9b392	1.2643743e-06
67	0x34bd76df	3.5290483e-07
68	0xb6308916	-2.6305838e-06
69	0x337273ab	5.6450215e-08
70	0x363e2500	2.8333743e-06
71	0x35580c50	8.048419e-07
72	0xb53ecc91	-7.10782e-07
73	0x36857a8c	3.977975e-06
74	0xb6442bb3	-2.9231712e-06
75	0xb5ab93c2	-1.2783496e-06
76	0x35d6dbe6	1.6008241e-06
77	0xb5979054	-1.1292382e-06
78	0x3421dcc7	1.5074612e-07
79	0xb487b8ff	-2.5280312e-07
80	0xb63cf042	-2.8154031e-06
81	0xb3d20d99	-9.7813604e-08
82	0xb4f0b05d	-4.4831805e-07
83	0x352871ba	6.275037e-07
84	0xb6276589	-2.494404e-06
85	0x3601d002	1.9343574e-06
86	0x368b95f1	4.1599783e-06
87	0x369b1331	4.621594e-06
88	0x36a6f237	4.975383e-06
89	0xb6280bac	-2.5040745e-06
90	0xb5879e8f	-1.010443e-06
91	0x35728a7e	9.035356e-07
92	0x36802902	3.819471e-06
93	0x354b908f	7.5833753e-07
94	0xb4eb814d	-4.386624e-07
95	0x3687152f	4.0257796e-06
96	0x34c4b7ba	3.6641524e-07
97	0x36852ed2	3.9691595e-06
98	0x365abca7	3.2594342e-06
99	0x34119d4b	1.35614e-07
100	0x3528eb1f	6.2927023e-07
101	0x35558a82	7.955024e-07
102	0x350ee487	5.3231673e-07
103	0xb68b56c9	-4.152626e-06
104	0x35a937dc	1.2607738e-06
105	0x3613b845	2.2011966e-06
106	0xb63258bc	-2.6575717e-06
107	0xb5f24e19	-1.8053134e-06
108	0xb4cf836e	-3.8652382e-07
109	0xb50a3eee	-5.150058e-07
110	0x361b00b7	2.3097216e-06
111	0x3529bf73	6.3236e-07
112	0xb58cb273	-1.0482748e-06
113	0xb4b48e51	-3.3631162e-07
114	0xb4ce8116	-3.8464412e-07
115	0xb6db4fd5	-6.5360023e-06
116	0x353f3a52	7.123791e-07
117	0xb609dfa0	-2.0544758e-06
118	0x358de2a2	1.0571277e-06
119	0xb7097417	-8.192866e-06
120	0x36615822	3.3578913e-06
121	0xb526e73c	-6.217631e-07
122	0x33ac2352	8.015799e-08
123	0xb62ad85e	-2.5457916e-06
124	0x36dbc98b	6.5501713e-06
125	0xb5897a2b	-1.0242851e-06
126	0xb63b595e	-2.791719e-06
127	0x35a2f8c1	1.2142337e-06

conv_blocks_context.2.blocks.0.instnorm.bias f4 [128]
0	0x3e89bdb2	0.2690254
1	0x3dbdc695	0.09266392
2	0xbe79b2b1	-0.24384572
3	0x3df67c02	0.12035371
4	0xbcb22bc6	-0.021749388
5	0x3de5bbf8	0.11217493
6	0xbe904384	-0.2817651
7	0x3cd06621	0.025439324
8	0xbe7aaa11	-0.24478938
9	0xbe503669	-0.20333256
10	0xbcd40b9c	-0.025884442
11	0x3c7d295b	0.015451754
12	0x3b852e21	0.004064337
13	0xbdbea7ee	-0.09309374
14	0x3eb735f7	0.3578336
15	0xbe22e302	-0.15906909
16	0x3d86946a	0.065712765
17	0xbd75f8eb	-0.06005184
18	0xbdaea953	-0.0852839
19	0x3cd8d540	0.026468873
20	0x3e0a05de	0.134788
21	0x3d7cb7ce	0.061698727
22	0x3d31a775	0.04337259
23	0xbe04b722	-0.12960485
24	0xbe11c8ef	-0.14236806
25	0xbe7a1728	-0.24422896
26	0xbea4c525	-0.3218166
27	0xbe152a9f	-0.1456704
28	0xbe4f1d79	-0.20226087
29	0xbe270715	-0.16311295
30	0xbea8d681	-0.32976153
31	0xbd8bef10	-0.06832707
32	0xbde52544	-0.111887485
33	0xbdc529c8	-0.0962711
34	0xbe9d6683	-0.30742273
35	0xbe78095d	-0.24222322
36	0xbd68d459	-0.056843136
37	0x3cd5c7ec	0.026096307
38	0xbe180858	-0.14846933
39	0x3d3acb5e	0.045604102
40	0xbd3e57d9	-0.046470497
41	0x3d09a8fd	0.033608425
42	0xbdce047c	-0.10059449
43	0xbd5337df	-0.051566955
44	0xbd316172	-0.04330582
45	0xbc847788	-0.016170278
46	0x3ca7137d	0.020395035
47	0x3e224e52	0.1585019
48	0xbe1ef7d7	-0.15524231
49	0xbc8771b7	-0.016533716
50	0xbe8801df	-0.26563928
51	0xbe161249	-0.14655413
52	0xbe577ad0	-0.21042943
53	0xbcc4cd1f	-0.02402359
54	0xbd2e909d	-0.042618383
55	0x3c3f6eb2	0.011684107
56	0x3b876598	0.004131984
57	0xbe028ee1	-0.12749816
58	0xbe732f88	-0.237486
59	0xbe392dac	-0.18083829
60	0xbe556e8e	-0.20842955
61	0x3d34cbed	0.04413979
62	0xbddf4115	-0.10901085
63	0x3c7e380c	0.015516292
64	0xb6baa09c	-5.5619294e-06
65	0xbe693a8e	-0.22776243
66	0xbe5967dc	-0.21231025
67	0xbe0f4cc6	-0.1399413
68	0x3dd92eb8	0.10604614
69	0xbe0a6afd	-0.13517375
70	0x3da1d84d	0.07902584
71	0xbe792b56	-0.24332938
72	0xbd2e0582	-0.04248572
73	0xbe86c0d9	-0.26319006
74	0xbe158b10	-0.1460383
75	0xbe9ff415	-0.31240907
76	0x3e8c8e76	0.2745244
77	0xbe78769b	-0.24263994
78	0xbeb864af	-0.36014315
79	0xbe2dc55c	-0.16969818
80	0xbea295d6	-0.3175494
81	0xbe6d2bdf	-0.23161267
82	0xbdb39370	-0.08768356
83	0xbde53623	-0.111919664
84	0xbe83859f	-0.25687882
85	0xbda123ab	-0.07868131
86	0xbd23e330	-0.040011585
87	0x3d07181c	0.032981977
88	0x3d59dd6d	0.053189684
89	0xbe4d8325	-0.20069559
90	0xbd83f764	-0.064436704
91	0x3d67bf7a	0.05657909
92	0xbe0de772	-0.1385782
93	0xbe14cf72	-0.14532259
94	0xbb4e994b	-0.0031524475
95	0xbe458348	-0.19288361
96	0x3dc215dd	0.09476826
97	0xbe17b0d1	-0.14813544
98	0xbe45c17e	-0.19312093
99	0xbe049cdc	-0.12950462
100	0xbe53eed2	-0.20696571
101	0x3a7ce782	0.00096475345
102	0xbda7970d	-0.081831075
103	0xbd6796dc	-0.056540355
104	0xbc9d9a0a	-0.01923849
105	0xbe8f5178	-0.27991843
106	0x3dcf374d	0.1011797
107	0xbe2b1caa	-0.16710153
108	0xb9f00cd3	-0.00045785922
109	0xbe42d25b	-0.19025557
110	0x3d92690e	0.07148944
111	0x3d59bf7d	0.053161133
112	0x3d9abd10	0.07555592
113	0xbc620243	-0.013794485
114	0x3c44fb58	0.012022816
115	0xbd268b53	-0.040660214
116	0xbd4fcdc0	-0.050733328
117	0xbe3aed54	-0.18254596
118	0xbd9187aa	-0.07105954
119	0x3df5d641	0.12003756
120	0xbe0e37bd	-0.1388845
121	0xbe179717	-0.1480373
122	0xbc7cfb6e	-0.015440805
123	0xbe739b6b	-0.23789756
124	0xbdfff6c3	-0.12498238
125	0xbe83f72d	-0.25774518
126	0x3d8a72f5	0.067602076
127	0xbdd3877f	-0.10328578

conv_blocks_context.2.blocks.0.instnorm.weight f4 [128]
0	0x3e82f3b9	0.2557657
1	0x3e958622	0.29203898
2	0x3e4c1f29	0.19933762
3	0x3e8cc834	0.27496493
4	0x3eb8f579	0.3612478
5	0x3e644183	0.22290616
6	0x3dfaac3b	0.122398816
7	0x3e8c5d68	0.27415013
8	0x3e9db4fc	0.30802143
9	0x3eaa8062	0.33301073
10	0x3e87c08c	0.2651409
11	0x3e75498d	0.23953839
12	0x3e6d3e78	0.23168361
13	0x3e5f3610	0.21797967
14	0x3e468b3f	0.19389056
15	0x3e60ceec	0.21953934
16	0x3ebbf8b4	0.36713183
17	0x3e5892e0	0.21149778
18	0x3e900af5	0.2813336
19	0x3ea57078	0.3231237
20	0x3e72bfaf	0.23705934
21	0x3ea679b7	0.32514736
22	0x3ea304f3	0.31839713
23	0x3ec1a5d1	0.3782182
24	0x3e2459f0	0.16049933
25	0x3e837c61	0.2568083
26	0x3e4ef57d	0.20210834
27	0x3e30703b	0.17230313
28	0x3e8a8be8	0.27059865
29	0x3e417dc2	0.18895629
30	0x3e04bd34	0.129628
31	0x3ea26955	0.31720987
32	0x3e5e92a9	0.21735634
33	0x3e40fa75	0.18845542
34	0x3d9ac701	0.07557488
35	0x3e323162	0.1740165
36	0x3e3d253b	0.18471234
37	0x3ea0ef8a	0.31432754
38	0x3eaf5415	0.34243837
39	0x3e0493c5	0.12946995
40	0x3e6b409b	0.22973864
41	0x3e633a17	0.22190128
42	0x3e1f0d9a	0.15532532
43	0x3e8a2c5a	0.26986963
44	0x3e6d21de	0.2315745
45	0x3e9276fc	0.28606403
46	0x3e0d2330	0.13782954
47	0x3e8f5e65	0.28001705
48	0x3e2f69c8	0.17130196
49	0x3e2e1d8d	0.1700346
50	0x3e7142d2	0.23560646
51	0x3e58bde0	0.21166182
52	0x3e550b1c	0.20805019
53	0x3e96bcf3	0.29441032
54	0x3e97e6b4	0.296682
55	0x3e88b634	0.2670151
56	0x3eac0acf	0.33601996
57	0x3e9f87fa	0.3115843
58	0x3e8015d5	0.25016657
59	0x3e2f8f24	0.17144448
60	0x3d5b0411	0.053470675
61	0x3e7c6ecc	0.2465164
62	0x3e9f6738	0.31133437
63	0x3e8762b0	0.2644248
64	0x3e9ad041	0.3023701
65	0x3e85fcba	0.26169378
66	0x3e4cc904	0.19998556
67	0x3e8b7030	0.2723403
68	0x3e70b913	0.235081
69	0x3e53116f	0.20612119
70	0x3e91d686	0.2848398
71	0x3e3d04d4	0.18458873
72	0x3e8b7e31	0.27244714
73	0x3eb7d8c8	0.35907578
74	0x3e8c11e7	0.27357408
75	0x3ea9c603	0.33158883
76	0x3e5e60f9	0.2171668
77	0x3e1e5b0f	0.15464424
78	0x3e32ceff	0.17461775
79	0x3e560c45	0.20903118
80	0x3e2ba1cc	0.1676094
81	0x3e6e2492	0.23256138
82	0x3e9b81d4	0.30372488
83	0x3e5df4ec	0.21675462
84	0x3e80fe87	0.2519419
85	0x3eba20c0	0.3635311
86	0x3ebba41e	0.3664865
87	0x3ebc3141	0.36756328
88	0x3ed65ab6	0.41866082
89	0x3e89c91e	0.26911253
90	0x3e894ac3	0.2681485
91	0x3df49f08	0.11944395
92	0x3ea06626	0.31327933
93	0x3e754d01	0.23955156
94	0x3e9d1d16	0.30686253
95	0x3e3c4c54	0.18388492
96	0x3e568f5c	0.20953125
97	0x3e827504	0.254799
98	0x3e6a1d64	0.22862774
99	0x3e9269af	0.28596255
100	0x3e6dcab9	0.23221864
101	0x3e708f5f	0.23492192
102	0x3e95f456	0.29287976
103	0x3e707a2f	0.2348411
104	0x3e52cfd3	0.20587091
105	0x3e32bf09	0.17455687
106	0x3e8504f6	0.25980347
107	0x3e7492aa	0.23884073
108	0x3e8cebce	0.27523655
109	0x3e5a337f	0.21308707
110	0x3e532a9f	0.20621727
111	0x3e53349f	0.20625542
112	0x3e5c7a66	0.21531066
113	0x3e9fe1c0	0.3122692
114	0x3eaa9056	0.33313245
115	0x3e79bd65	0.24388655
116	0x3ea1161a	0.31462175
117	0x3e5a3220	0.21308184
118	0x3ea01a87	0.3127024
119	0x3e8001ca	0.25001365
120	0x3eadd933	0.33954772
121	0x3e8b873f	0.27251622
122	0x3e4cd5d6	0.20003447
123	0x3e67e124	0.22644478
124	0x3e838aed	0.2569193
125	0x3e4b9b01	0.19883348
126	0x3e99fef1	0.30077317
127	0x3e8cf55e	0.2753095

conv_blocks_context.2.blocks.1.conv.bias f4 [128]
0	0x32520c3b	1.222639e-08
1	0x35bdb34e	1.4133782e-06
2	0x369fbf75	4.760858e-06
3	0xb5c7d67a	-1.4889076e-06
4	0xb53a8421	-6.948267e-07
5	0x35531299	7.863069e-07
6	0x3644cec0	2.932662e-06
7	0xb59ef16e	-1.1842183e-06
8	0xb585772a	-9.943954e-07
9	0x34625829	2.1079963e-07
10	0xb536d8ea	-6.8115935e-07
11	0xb5af44be	-1.3058523e-06
12	0x3602072b	1.9375682e-06
13	0xb63d582d	-2.821452e-06
14	0xb30f3325	-3.3341298e-08
15	0xb609eb6c	-2.0551624e-06
16	0xb6623460	-3.370711e-06
17	0x34be3646	3.5429747e-07
18	0xb69a5531	-4.5994752e-06
19	0xb69357b0	-4.3911496e-06
20	0x339f550a	7.419483e-08
21	0xb5836504	-9.78966e-07
22	0x359c050b	1.1624373e-06
23	0xb5142b0c	-5.519694e-07
24	0x35580a84	8.048157e-07
25	0x352e82f3	6.501061e-07
26	0xb55a1089	-8.123539e-07
27	0x35385342	6.86665e-07
28	0xb49f57e7	-2.9680015e-07
29	0x35d787d6	1.6058282e-06
30	0x35ae1065	1.2968782e-06
31	0x36256e87	2.4651251e-06
32	0xb6429027	-2.899216e-06
33	0xb658ef4e	-3.2325802e-06
34	0xb4f50e2c	-4.5645118e-07
35	0x35987f01	1.1361846e-06
36	0xb69c5a1b	-4.659652e-06
37	0xb6246d22	-2.4501428e-06
38	0xb5d7d8b7	-1.6081821e-06
39	0xb5f97d37	-1.8588388e-06
40	0xb4823795	-2.4254828e-07
41	0xb6060d25	-1.9975207e-06
42	0xb689bad9	-4.10467e-06
43	0x35a17b83	1.2031381e-06
44	0x346fa07b	2.2316992e-07
45	0xb5e09220	-1.6731829e-06
46	0x36674082	3.445923e-06
47	0x34e01959	4.1741694e-07
48	0x32ebf871	2.7470579e-08
49	0xb633e2fe	-2.6805205e-06
50	0xb6e68e2b	-6.8710847e-06
51	0xb620d748	-2.3967168e-06
52	0xb55b6d9c	-8.174336e-07
53	0x35e40646	1.698915e-06
54	0xb6c07473	-5.7356024e-06
55	0xb613f139	-2.2045117e-06
56	0x3608cea9	2.0385871e-06
57	0xb3b13eb6	-8.253612e-08
58	0xb68c4b01	-4.1810567e-06
59	0xb604e53c	-1.9802965e-06
60	0xb66e39e8	-3.549847e-06
61	0xb5a17472	-1.2029325e-06
62	0x36d78f5b	6.424188e-06
63	0x36ab244e	5.1004236e-06
64	0x35267bfd	6.2020246e-07
65	0x35ea77c0	1.746921e-06
66	0x371fb57a	9.519392e-06
67	0xb598ce57	-1.1384935e-06
68	0x362b4b3c	2.5524778e-06
69	0x36287f2a	2.510797e-06
70	0x362d0815	2.5783713e-06
71	0x35093582	5.111434e-07
72	0xb5d1d1b8	-1.563275e-06
73	0xb703bd35	-7.852262e-06
74	0xb5932519	-1.096315e-06
75	0x35600213	8.344952e-07
76	0x35b52724	1.3496942e-06
77	0xb67c2de6	-3.7577643e-06
78	0xb60b034d	-2.0714535e-06
79	0x363da111	2.8256948e-06
80	0x364660b6	2.9560592e-06
81	0x348830b8	2.5367422e-07
82	0x36776867	3.6866638e-06
83	0xb5e0c864	-1.6747622e-06
84	0xb62d28cd	-2.5802758e-06
85	0x360e07cd	2.116419e-06
86	0x358cbec1	1.048633e-06
87	0x361b2717	2.3119553e-06
88	0x369692e3	4.487448e-06
89	0xb69e1e32	-4.712282e-06
90	0x3584bbf4	9.889468e-07
91	0xb57bccb9	-9.38027e-07
92	0x36082303	2.0285959e-06
93	0x363371fb	2.6739424e-06
94	0x362d8b64	2.5860145e-06
95	0xb6c47965	-5.8553874e-06
96	0xb605fdb5	-1.9966221e-06
97	0x36c62b5a	5.9059066e-06
98	0x361b7aa4	2.3168186e-06
99	0xb4ffbfdc	-4.7637047e-07
100	0xb64777cc	-2.9723042e-06
101	0xb3b23349	-8.2980996e-08
102	0xb5b90d44	-1.3787435e-06
103	0x34b8c408	3.4415302e-07
104	0xb61113d3	-2.1618223e-06
105	0xb7014f56	-7.707471e-06
106	0xb592df3f	-1.0942821e-06
107	0xb65dc979	-3.3048839e-06
108	0x356bf45a	8.78999e-07
109	0x36259f53	2.4679655e-06
110	0xb610914f	-2.1542253e-06
111	0x35f8334c	1.8492369e-06
112	0xb5fa023c	-1.8627102e-06
113	0xb742b00a	-1.1604288e-05
114	0x36319989	2.6464425e-06
115	0xb4738ca2	-2.26823e-07
116	0x36840696	3.9346733e-06
117	0xb569d217	-8.7104985e-07
118	0x36a66b7d	4.959699e-06
119	0x35f434c9	1.8194779e-06
120	0xb5bcb7d4	-1.4060593e-06
121	0x356bbde6	8.782066e-07
122	0x3699436c	4.5676043e-06
123	0x346fc028	2.2328516e-07
124	0x3503a6ab	4.9043837e-07
125	0xb6a8ef61	-5.0346575e-06
126	0xb572ce5b	-9.045231e-07
127	0x35471a7a	7.4171805e-07

conv_blocks_context.2.blocks.1.instnorm.bias f4 [128]
0	0xbe885cbf	-0.2663326
1	0xbe082fe5	-0.1329952
2	0xbe363528	-0.17793715
3	0xbeae11d6	-0.33997983
4	0xbd49317d	-0.04911946
5	0xbe516a33	-0.20450668
6	0x3dafbef0	0.0858134
7	0xbe8ed8da	-0.2789982
8	0x3d9e8e75	0.07742015
9	0xbdadbb35	-0.084829725
10	0xbd7e6dab	-0.062116306
11	0xbe0dbad2	-0.13840798
12	0xbd6c3bb6	-0.057674132
13	0xbd98da0b	-0.074634634
14	0xbc2c207b	-0.010505791
15	0xbe207ecd	-0.1567337
16	0xbe9698e1	-0.29413512
17	0xbe8bc4b2	-0.27298504
18	0xbe4d5246	-0.20050916
19	0xbe7fbbfb	-0.24974053
20	0xbd1c1ff8	-0.038116425
21	0xbd9aee88	-0.075650275
22	0xbecea1c9	-0.40357807
23	0x3d4859e0	0.048913836
24	0xbc4f0822	-0.012636216
25	0x3d9035a5	0.07041482
26	0x3dc800f2	0.09765805
27	0x3bea5d7e	0.0071522584
28	0xbe038ebd	-0.12847419
29	0xbe1739cd	-0.14768143
30	0x3d228e76	0.039686643
31	0x3e380581	0.1797085
32	0xbe2231fa	-0.15839377
33	0x3c21155f	0.009831755
34	0x3d2fbd5d	0.0429052
35	0x3c8b3bec	0.016996346
36	0xbe25eb09	-0.1620294
37	0xbe45a6f8	-0.19301975
38	0x3e135981	0.14389612
39	0xbe21a25e	-0.15784594
40	0x3e23d91c	0.1600079
41	0x3bee17e0	0.0072660297
42	0xbe85e806	-0.26153582
43	0x3c3eaf47	0.011638469
44	0xbd5aec1c	-0.053447828
45	0xbc747389	-0.014920124
46	0xbe506c44	-0.203538
47	0xbe9bd2df	-0.3043432
48	0xbd114031	-0.03546161
49	0xbe8995ea	-0.26872188
50	0xbd31f374	-0.043445066
51	0xbdbefb8e	-0.09325324
52	0x3d88b069	0.066742726
53	0x3d6f608d	0.058441687
54	0x3c0b079b	0.0084857
55	0xbe1327db	-0.14370672
56	0x3bc3dffd	0.005977629
57	0x3d6f52ce	0.058428578
58	0xbe71a0d7	-0.23596512
59	0xbe2b5a14	-0.16733581
60	0xbe2334cc	-0.15938109
61	0xbe10e14e	-0.14148447
62	0x3d4168e4	0.047219172
63	0xbe76f2bd	-0.24116035
64	0x3daa383d	0.08311508
65	0x3d122453	0.035679173
66	0xbe16c2e1	-0.14722778
67	0xbe6739d8	-0.2258066
68	0xbe266262	-0.16248468
69	0xbdc9b554	-0.09849039
70	0xbc3a8129	-0.011383333
71	0xbd9d4595	-0.07679287
72	0xbe379faf	-0.17932008
73	0xbe9bd256	-0.3043391
74	0xbe663ebd	-0.2248487
75	0xbe8ec26f	-0.27882716
76	0xbe2434d6	-0.1603578
77	0x3d808492	0.06275286
78	0x3e8b7657	0.27238724
79	0xbda0ab1a	-0.07845135
80	0xbe0f597f	-0.13998984
81	0x3cec5cf0	0.02885291
82	0x3ef72d55	0.48276773
83	0xbb94bfbe	-0.004539459
84	0xbe7b6063	-0.24548487
85	0xbbfcd010	-0.0077152327
86	0xbda1032a	-0.078619316
87	0xbd37144b	-0.044697087
88	0x3e096fed	0.13421603
89	0xbcdf4de6	-0.027258825
90	0x3e52ffd5	0.20605405
91	0xbe1b1747	-0.15145598
92	0xbe42c11c	-0.19018978
93	0xbe1d93f8	-0.15388477
94	0xbeac83cb	-0.336943
95	0xbdec8d4c	-0.11550388
96	0xbd31da86	-0.04342129
97	0xbe04c4f8	-0.12965763
98	0xbe502e43	-0.20330147
99	0x3d9a178e	0.07524024
100	0xbc8547c4	-0.016269572
101	0xbd568342	-0.05237127
102	0x3a53cef9	0.00080798526
103	0xbe4455e1	-0.19173385
104	0xbd0627fe	-0.032752983
105	0x3e5a080a	0.21292129
106	0xbe74bedc	-0.23900932
107	0xbe88643c	-0.26638973
108	0x3c4f4cf4	0.012652624
109	0xbe513ba1	-0.20432903
110	0x3e052185	0.13001068
111	0xbdd6d01d	-0.10488913
112	0x3c97df13	0.018538987
113	0xbe45ca31	-0.19315411
114	0xbc135ee8	-0.008994795
115	0xbe22c5ee	-0.15895817
116	0xbe15b6f9	-0.1462058
117	0xbe49b479	-0.19697751
118	0xbe8bfd2b	-0.2734159
119	0xbe8858fc	-0.2663039
120	0x3d22d7ef	0.03975671
121	0xbde1099f	-0.10988163
122	0xbe2bc115	-0.16772874
123	0x3d07061f	0.032964822
124	0xbed584bf	-0.4170284
125	0xbe6b07e3	-0.22952227
126	0x3cbea183	0.023270374
127	0xbc313509	-0.010815867

conv_blocks_context.2.blocks.1.instnorm.weight f4 [128]
0	0x3e9fdc61	0.31222823
1	0x3ee768f4	0.4519726
2	0x3e6815d1	0.22664572
3	0x3eceb545	0.40372673
4	0x3e8ef898	0.27924037
5	0x3e9db07e	0.30798715
6	0x3e9efb53	0.3105112
7	0x3e9d51a6	0.30726355
8	0x3e93061d	0.28715602
9	0x3a5d73c8	0.00084477337
10	0x3e6b467f	0.22976111
11	0x3e99a995	0.30012193
12	0x3e9fe6be	0.3123073
13	0x3eafdae6	0.34346694
14	0x3e95de79	0.29271296
15	0x3e25fc41	0.16209508
16	0x3e7f6345	0.24940212
17	0x3e6a192e	0.22861168
18	0x3e971712	0.2950979
19	0x3e3119c5	0.17294987
20	0x3e92ab73	0.2864643
21	0x3e6d9298	0.23200452
22	0x3deca996	0.115557835
23	0x3e9cb022	0.3060313
24	0x3e8f5def	0.28001353
25	0x3e34badb	0.17649405
26	0x3e68128e	0.22663328
27	0x3e35cc2f	0.17753671
28	0x3e29c46d	0.16578837
29	0x3e085c10	0.13316369
30	0x3e3ef86f	0.18649457
31	0x3e7f9d11	0.2496226
32	0x3e989efa	0.2980879
33	0x3e92365e	0.28557104
34	0x3e7eff9f	0.24902199
35	0x3e4a4a5c	0.19754928
36	0x3e65904e	0.22418329
37	0x3ea6a57c	0.3254813
38	0x3e72b31d	0.23701139
39	0x3e913721	0.28362373
40	0x3e1b9049	0.15191759
41	0x3e914a0d	0.2837681
42	0x3eca4cf9	0.3951185
43	0x3e7e369d	0.24825521
44	0xbbf5ccd5	-0.0075012245
45	0x3eb45cf7	0.35227177
46	0x3e879843	0.26483354
47	0x3e5cd599	0.21565856
48	0x3aea1333	0.0017858505
49	0x3e53faad	0.20701094
50	0x3e98523d	0.29750243
51	0x3e997876	0.29974717
52	0x3e8b9ae5	0.27266613
53	0x3e919a44	0.28438008
54	0x3e9c155d	0.3048505
55	0x3e95776d	0.29192677
56	0x3e8dd007	0.27697775
57	0x3ea6bd4d	0.325663
58	0x3e74b645	0.23897655
59	0x3e69e68d	0.22841854
60	0x3e9a0c14	0.3008734
61	0x3e91d0f6	0.28479737
62	0x3e83bee2	0.2573157
63	0x3e90ef13	0.283074
64	0x3e5f77b4	0.21823007
65	0x3e5d0d81	0.21587183
66	0x3e80792b	0.25092444
67	0x3e6ebde1	0.2331462
68	0x3e8d84be	0.27640337
69	0x3e9c2bca	0.30502158
70	0x3e7c794b	0.24655645
71	0x3e1e4bb7	0.1545857
72	0x3e9470f1	0.28992417
73	0x3e8ac77f	0.27105328
74	0x3e8d1609	0.27555874
75	0x3ec51e0c	0.38499486
76	0x3e7f7c6c	0.24949807
77	0x3e81f5bb	0.2538279
78	0x3e58891a	0.2114605
79	0x3ec4b1d0	0.3841691
80	0x3e8bea97	0.27327415
81	0x3e63173d	0.22176833
82	0x3e0fd886	0.14047441
83	0x3e3ee854	0.18643314
84	0x3e2d0319	0.16895713
85	0x3e6f544c	0.23372
86	0x3e64e03e	0.22351167
87	0x3e9cd36c	0.30630052
88	0x3e4f5a30	0.20249248
89	0x3e992449	0.29910496
90	0x3e762230	0.24036479
91	0x3e81d08d	0.25354424
92	0x3e9ff71c	0.31243217
93	0x3e86eec8	0.2635405
94	0x3ea68ab2	0.3252769
95	0x3eacff33	0.33788452
96	0x3e3e23f9	0.1856841
97	0x3ea57584	0.3231622
98	0x3df7a263	0.1209152
99	0x3e6cc40b	0.2312166
100	0x3e6aec8c	0.22941798
101	0x3e9c7103	0.3055497
102	0x3e87497b	0.2642325
103	0x3e705754	0.23470813
104	0x3e623839	0.2209176
105	0x3e416cdf	0.18889187
106	0x3e935cac	0.2878164
107	0x3e4c20d1	0.19934393
108	0x3e8bf475	0.27334943
109	0x3ebd1b28	0.3693478
110	0x3e28230e	0.16419622
111	0x3ea61be9	0.3244317
112	0x3e80c4e0	0.25150204
113	0x3e2820fb	0.16418831
114	0x3ea25987	0.3170893
115	0x3e85a39a	0.2610138
116	0x3e73c613	0.23806028
117	0x3e72cd3e	0.23711106
118	0x3ea386f2	0.31938893
119	0x3e717ede	0.23583552
120	0x3e967eaf	0.29393527
121	0x3ebda9dc	0.37043655
122	0x3e910863	0.2832671
123	0x3e9e01c8	0.30860734
124	0x3e892f2c	0.26793802
125	0x3e80d072	0.2515903
126	0x3e7a7c02	0.24461368
127	0x3ebc74db	0.36807904

conv_blocks_localization.2.0.blocks.0.conv.bias f4 [128]
0	0x368a937a	4.129889e-06
1	0xb5cc636d	-1.5228121e-06
2	0xb5483fdf	-7.459875e-07
3	0xb5d2dcb1	-1.5710449e-06
4	0x3690729f	4.304878e-06
5	0x370c18d2	8.350429e-06
6	0x338ac51c	6.46198e-08
7	0xb4833dfa	-2.4445745e-07
8	0xb6135cfd	-2.1958833e-06
9	0x3582dc84	9.749933e-07
10	0x35844c51	9.856977e-07
11	0xb4c57667	-3.6780258e-07
12	0x364f2222	3.0865272e-06
13	0x36740fb8	3.6367983e-06
14	0xb3719e56	-5.625619e-08
15	0x3620dddd	2.3971e-06
16	0xb64c8fcd	-3.0482072e-06
17	0x35a231d7	1.2084446e-06
18	0xb664ea0e	-3.4110885e-06
19	0x36497949	3.0021931e-06
20	0x34eb320c	4.3808575e-07
21	0x35ed9cfc	1.7703564e-06
22	0x35d36913	1.5751306e-06
23	0xb67ad2aa	-3.7375526e-06
24	0xb529860f	-6.3152487e-07
25	0x3555c814	7.9639835e-07
26	0x35dd7573	1.6499965e-06
27	0x35444064	7.310939e-07
28	0xb4eed02d	-4.4482422e-07
29	0xb5032f96	-4.887055e-07
30	0xb71c694a	-9.322839e-06
31	0x35acbb5b	1.2869526e-06
32	0x3546cc74	7.4058266e-07
33	0xb60ac8ea	-2.068055e-06
34	0xb516f49a	-5.6235297e-07
35	0xb5410ea8	-7.191943e-07
36	0x36914dc2	4.330389e-06
37	0x35f82ec9	1.8491056e-06
38	0xb59b32b9	-1.1563162e-06
39	0x354d1cbd	7.641027e-07
40	0xb540fa48	-7.188978e-07
41	0xb5c7490d	-1.4847916e-06
42	0xb6b65b9f	-5.434689e-06
43	0x3380be05	5.995029e-08
44	0x35fe030b	1.892536e-06
45	0x3606d97d	2.009415e-06
46	0xb612f819	-2.1900107e-06
47	0x361fb557	2.37984e-06
48	0xb4df2080	-4.1560634e-07
49	0xb7377839	-1.09356415e-05
50	0x35e9db69	1.742371e-06
51	0x351f61fa	5.937469e-07
52	0x35a82398	1.2527335e-06
53	0xb58a9fd6	-1.032832e-06
54	0xb6577285	-3.2104156e-06
55	0x357c0dd6	9.389745e-07
56	0x35e8008b	1.7285505e-06
57	0xb686cbb6	-4.0172263e-06
58	0xb61f2f5f	-2.372042e-06
59	0xb5dc5693	-1.6416474e-06
60	0x34aa1e05	3.168681e-07
61	0x35b1a6b9	1.323605e-06
62	0x37298d76	1.0106121e-05
63	0xb70d50d6	-8.423076e-06
64	0xb5378447	-6.83653e-07
65	0xb6217094	-2.4056399e-06
66	0x35b5ef27	1.3555153e-06
67	0x35f8543f	1.8501959e-06
68	0xb5f391be	-1.8147327e-06
69	0x371827c8	9.069168e-06
70	0x3478e597	2.3180324e-07
71	0x357e9b73	9.484858e-07
72	0x3510afa9	5.38998e-07
73	0xb5e63112	-1.7150617e-06
74	0xb5f7b564	-1.8455726e-06
75	0x369b5711	4.629496e-06
76	0xb6199cac	-2.2889972e-06
77	0x3648ec4c	2.9939865e-06
78	0x36180f26	2.2658583e-06
79	0x34374a44	1.7070221e-07
80	0xb5802aa8	-9.549158e-07
81	0x36249a7c	2.4527826e-06
82	0x357664e4	9.1788957e-07
83	0xb334c494	-4.2088303e-08
84	0xb5ad0634	-1.289131e-06
85	0x348cef6b	2.6251232e-07
86	0x36907c66	4.3060163e-06
87	0xb57fa322	-9.523229e-07
88	0xb66eb633	-3.5570818e-06
89	0x35888a3b	1.017302e-06
90	0x356af4b7	8.75279e-07
91	0x3490474e	2.687397e-07
92	0x3628cd7a	2.5153554e-06
93	0x35265b53	6.1972713e-07
94	0xb537d619	-6.8484366e-07
95	0xb4e9a1b5	-4.351729e-07
96	0x34559255	1.9890406e-07
97	0xb5facb4e	-1.8685621e-06
98	0xb50b3925	-5.186469e-07
99	0xb539ca7b	-6.921252e-07
100	0x2f485eb6	1.8223542e-10
101	0xb547e901	-7.447234e-07
102	0x3651587b	3.119493e-06
103	0x35d7b960	1.60727e-06
104	0xb5bb5283	-1.39566e-06
105	0xb4b711a7	-3.409925e-07
106	0xb59c24b4	-1.1633588e-06
107	0x35eb7e4f	1.7545625e-06
108	0x3543587a	7.277191e-07
109	0x34f5f91a	4.581605e-07
110	0xb5b5344b	-1.350077e-06
111	0x350a8a5a	5.1610334e-07
112	0x350f564f	5.3397247e-07
113	0x34c2d7c5	3.629231e-07
114	0x36668b96	3.435392e-06
115	0x3709c913	8.212653e-06
116	0x34202aea	1.4916773e-07
117	0x355d2db2	8.239541e-07
118	0xb5c5ecbc	-1.4746543e-06
119	0xb60500e9	-1.9819074e-06
120	0xb60e8ba2	-2.1240926e-06
121	0xb625df0a	-2.4716742e-06
122	0x3525ece2	6.1812e-07
123	0xb64cfe49	-3.0546382e-06
124	0xb4558ccc	-1.9888392e-07
125	0x36c17a34	5.7660745e-06
126	0x35504ea2	7.7600464e-07
127	0xb551b944	-7.8128164e-07

conv_blocks_localization.2.0.blocks.0.instnorm.bias f4 [128]
0	0x3d4f3bd9	0.050594185
1	0xbe95f224	-0.292863
2	0x3da19d53	0.07891335
3	0x3d46a9d6	0.048501812
4	0xbe44913e	-0.1919603
5	0xbe03e732	-0.12881163
6	0xbe0d1a94	-0.1377967
7	0xbe1ab7d3	-0.15109186
8	0xbe15acb0	-0.14616656
9	0x3b25bd9d	0.002529002
10	0xbda50bc3	-0.08058884
11	0xbdc06a37	-0.09395259
12	0xbd3ad666	-0.045614623
13	0xbe0d0434	-0.13771135
14	0xbe08da7f	-0.133646
15	0xbe629f11	-0.22130992
16	0xbe59370a	-0.21212402
17	0xbe12d752	-0.1433995
18	0xbdbc5ec4	-0.091977626
19	0xbe9e10a8	-0.30872083
20	0xbe323b12	-0.17405346
21	0xbc0b3ecc	-0.008498859
22	0xbe38b0d6	-0.18036208
23	0xbe4b22fd	-0.19837566
24	0xbdf54029	-0.11975128
25	0xbda94f32	-0.082670584
26	0xbe34f4ad	-0.17671461
27	0xbdf4f7b4	-0.11961308
28	0x3c39fe74	0.01135217
29	0xbe5eba62	-0.21750787
30	0xbe83c6b4	-0.25737536
31	0xbda085bb	-0.07838007
32	0xbe8dd82d	-0.27703992
33	0xbe135fe9	-0.14392056
34	0xbea09398	-0.31362605
35	0xbd30528f	-0.043047484
36	0xbe593ce5	-0.21214636
37	0xbe373248	-0.17890275
38	0xbdfb3f97	-0.12267988
39	0xbd27ed2d	-0.040997673
40	0x3dcd0baf	0.10011994
41	0xbd8a30ee	-0.06747614
42	0xbd91b9c5	-0.07115511
43	0xbe39af83	-0.18133359
44	0xbe7f56bf	-0.24935435
45	0xbe5bf009	-0.21478285
46	0xbdab9a73	-0.08379068
47	0x3ecc52b0	0.39906836
48	0x3d501c1c	0.050808057
49	0x3dc6e745	0.0971208
50	0xbd8912b8	-0.066930234
51	0xbb91a972	-0.0044452483
52	0xbd8fe236	-0.07025568
53	0xbe3b8c3b	-0.18315212
54	0xbe880133	-0.26563415
55	0xbe0c21ba	-0.1368474
56	0xbe32273f	-0.17397784
57	0xbde599cf	-0.11210977
58	0xbde8428e	-0.11340819
59	0x3ca55c1a	0.020185519
60	0xbe1600eb	-0.14648788
61	0xbe0784b5	-0.13234217
62	0xbe5cccca	-0.21562496
63	0xbe111f44	-0.14172083
64	0x3d166b20	0.036723256
65	0xbdf67f03	-0.12035944
66	0xbcb5af9d	-0.022178466
67	0xbdd10616	-0.10206239
68	0xbe3c8998	-0.18411863
69	0xbdfc6b18	-0.12325114
70	0xbe258081	-0.16162302
71	0x3c0c24b3	0.008553672
72	0xbe7eb36f	-0.24873136
73	0x3c3b3d91	0.011428253
74	0xbe217185	-0.1576596
75	0xbdaa4009	-0.08312995
76	0xbe2baf55	-0.16766103
77	0xbe60b296	-0.21943125
78	0x3b36defe	0.002790391
79	0xbe2eb967	-0.17062913
80	0xbcb92279	-0.022599446
81	0xbe3afea4	-0.182612
82	0xbdf2e607	-0.118602805
83	0xbdb8cf16	-0.090238735
84	0xbe287bbb	-0.1645345
85	0xbe499318	-0.19685018
86	0xbe411aab	-0.1885783
87	0x3dbe7fa1	0.09301687
88	0xbe37f2a6	-0.17963657
89	0xbe0b27bb	-0.13589375
90	0xbe10461f	-0.14089249
91	0xbe849086	-0.25891513
92	0xbd898520	-0.06714845
93	0xbe341993	-0.17587881
94	0xbe515c86	-0.20445451
95	0xbe67bce5	-0.22630651
96	0xbea0d333	-0.31411132
97	0xbc9c4b74	-0.019078948
98	0xbe2b0db2	-0.16704443
99	0xbe74b56e	-0.23897335
100	0xbddefd2b	-0.10888132
101	0xbe4f6566	-0.20253524
102	0xbeca0bfc	-0.39462268
103	0xbd311d39	-0.04324076
104	0xbe2cf4c4	-0.16890246
105	0xbdebf9c5	-0.11522249
106	0xbda94b66	-0.08266334
107	0x3d39e7c4	0.045387045
108	0xbe5ca4d0	-0.21547246
109	0xbe2f3f25	-0.17113931
110	0xbe4ecead	-0.20196028
111	0xbd90f5b2	-0.07078113
112	0xbd51f195	-0.05125578
113	0xbed133ff	-0.40859982
114	0xbe3c2085	-0.1837178
115	0x3f02b86f	0.51062673
116	0xbe7df054	-0.24798709
117	0xbe3ac551	-0.18239333
118	0xbe353e66	-0.17699584
119	0xbe302b54	-0.17204028
120	0xbe3d2575	-0.1847132
121	0xbd7eb82a	-0.06218735
122	0xbe5f3be3	-0.21800189
123	0xbe2ccab0	-0.16874194
124	0xbe307620	-0.17232561
125	0xbe62f838	-0.22165
126	0xbe2d120f	-0.1690142
127	0xbe467782	-0.19381526
