inputs/examples/workloads/Deep_AutoEncoder_inferred.onnx (onnx, 25205 bytes, 9 tensors)

functional_1/dense_2/BiasAdd/ReadVariableOp/resource f4 [128]
0	0x3f7e8044	0.9941447
1	0x3f0221e8	0.50832987
2	0xbe2d2375	-0.16908057
3	0x3f921082	1.1411288
4	0xbeb82a2a	-0.3596967
5	0x3e08eeed	0.13372393
6	0x3ea06df6	0.31333894
7	0xbe9daea7	-0.30797312
8	0x3e12c02f	0.14331125
9	0x3bfefe00	0.007781744
10	0xbd241388	-0.04005769
11	0xbe737ac0	-0.23777294
12	0xbd12c571	-0.035832826
13	0xbe6a94d8	-0.22908342
14	0x3efc74ce	0.49307865
15	0x3d160a95	0.036631186
16	0x3e8ff90a	0.2811969
17	0x3f2514c4	0.6448481
18	0x3db1b408	0.08676916
19	0x3e58f17a	0.21185866
20	0xbffcd20d	-1.9751602
21	0x3d85af17	0.06527536
22	0x3e5603ac	0.20899838
23	0xbd4f3d48	-0.05059555
24	0x3edc14e4	0.42984688
25	0xbcf5b310	-0.02999261
26	0xbe1f06d3	-0.15529947
27	0x3d5eac94	0.054363802
28	0xc0085a74	-2.1305208
29	0x3d8ea5e8	0.06965238
30	0x3e84f7a8	0.25970197
31	0xbde0d0b0	-0.10977304
32	0x3e7ca340	0.2467165
33	0x3e2e5f3d	0.17028518
34	0xbe35be13	-0.17748289
35	0x3ea63a7b	0.32466492
36	0xbf0837ea	-0.5321032
37	0x3d90bf6e	0.07067762
38	0x3dea7510	0.11448109
39	0xbd256ad0	-0.040385067
40	0x3f88466f	1.0646495
41	0x3e059c4a	0.13047901
42	0xbf5ce50b	-0.8628699
43	0x3d123a52	0.03570015
44	0xbe0d64d3	-0.13807993
45	0x3e06cbdc	0.13163704
46	0xbe2e0876	-0.16995415
47	0x3f05097d	0.519676
48	0x3e1284ac	0.14308423
49	0x3ebb2bee	0.36556953
50	0x3eabe74a	0.33574897
51	0x3cfcca58	0.030858204
52	0x3e2ed330	0.17072749
53	0x3ef20859	0.47271994
54	0x3e0b2738	0.1358918
55	0xbd2aa587	-0.041661765
56	0xbf07fdd0	-0.5312166
57	0xbf0bb295	-0.5456937
58	0xbe00e74c	-0.12588233
59	0xbb2d45a0	-0.0026439205
60	0xbf88ceef	-1.0688151
61	0x3d690a78	0.05689475
62	0xbe411b48	-0.18858063
63	0xbe087fcf	-0.13330005
64	0xbdf63535	-0.12021867
65	0x3df11fd8	0.11773652
66	0x3e32379c	0.17404026
67	0x3e685a7c	0.22690767
68	0x3ea1af4c	0.31579053
69	0xbeeb5477	-0.4596288
70	0x3dfd9694	0.12382236
71	0x3f0a3af9	0.53996235
72	0xbe8545cf	-0.26029822
73	0xbcabe360	-0.020982444
74	0xbda49fee	-0.08038317
75	0x3d6742b8	0.056460112
76	0x3df93ff4	0.12170401
77	0x3f006331	0.50151354
78	0xbe16723f	-0.14692019
79	0x3e7c7bc8	0.24656594
80	0x3d127d8c	0.035764262
81	0xbddbfefd	-0.107419945
82	0xbe870d0c	-0.2637714
83	0x3e17b79b	0.14816134
84	0x3e29ea42	0.16593269
85	0x3db2d1ee	0.08731447
86	0x3c21bb60	0.009871334
87	0x3dd9dbcf	0.10637628
88	0xbd161a9c	-0.03664647
89	0x3f0c37d2	0.54772675
90	0x3f06949d	0.52570516
91	0x3e22e3cf	0.15907215
92	0xbe865382	-0.26235586
93	0xbd0dd680	-0.03462839
94	0xbe21fed8	-0.15819871
95	0x3df55c50	0.11980498
96	0xbe630bfe	-0.22172543
97	0xbe1ff0ee	-0.15619251
98	0x3eabb6e9	0.33537987
99	0xbeb839fe	-0.35981745
100	0xbdbcbf98	-0.09216231
101	0x3e2ff0ca	0.17181697
102	0x384b3000	4.8443675e-05
103	0xbd9a3cc0	-0.075311184
104	0x3e8adca0	0.2712145
105	0x3d8846ad	0.06654105
106	0xbd236c5c	-0.03989826
107	0x3e34fc64	0.17674404
108	0xbc5cfa00	-0.013487339
109	0x3d5967f0	0.05307764
110	0x3e04e8d9	0.1297945
111	0xbe01f9d0	-0.12692952
112	0x3f121559	0.57063824
113	0x3d6d3490	0.057911456
114	0xbe433992	-0.1906493
115	0x3ec39844	0.38202107
116	0x3e286030	0.16442943
117	0x3e91655c	0.28397644
118	0xbd4eb7d8	-0.050468296
119	0xbce9bc7d	-0.028532261
120	0xbd71aac0	-0.05900073
121	0x3e16681b	0.1468815
122	0x3e247d91	0.16063525
123	0xbe9ddc51	-0.3083215
124	0x3ebc0998	0.3672607
125	0x3cdec6e0	0.02719444
126	0x3f8e8554	1.1134439
127	0x3be43ea0	0.0069654733

functional_1/dense_8/BiasAdd/ReadVariableOp/resource f4 [128]
0	0xbcc7c920	-0.024387896
1	0x40048736	2.0707526
2	0x40285b30	2.6305656
3	0x40374dac	2.8641157
4	0x3ee33b02	0.44380957
5	0x3fd9f687	1.7028359
6	0x3ed39ed8	0.41332126
7	0x3f3fe07e	0.7495192
8	0x3f621e6c	0.8832767
9	0x3fd31ede	1.6493795
10	0x3e11c7e4	0.14236408
11	0x3f46bf8f	0.77636045
12	0x3fa7fac3	1.3123401
13	0x40184687	2.3793046
14	0x3fb4a3e8	1.411252
15	0x3f84dd1e	1.037998
16	0x404fa1e7	3.2442567
17	0x3f8bdb93	1.0926384
18	0x3f2373cb	0.6384856
19	0x3fda2126	1.7041366
20	0x402eb984	2.730073
21	0x3ffe01d6	1.984431
22	0x3fa72799	1.3058959
23	0xbe02a0aa	-0.12756601
24	0x3ed9635e	0.42458624
25	0x3f7fc34a	0.9990736
26	0xbed3c1c0	-0.41358757
27	0x3ee4694a	0.4461158
28	0x3fe8b970	1.8181591
29	0x400923d3	2.1428115
30	0x3faa269a	1.329303
31	0x3fc29f94	1.5204949
32	0x3fd87170	1.6909618
33	0x3eeeade3	0.4661704
34	0x3f4ff94c	0.8123977
35	0x3f012921	0.5045338
36	0x3f87d31a	1.0611298
37	0x3fe66510	1.7999592
38	0x3f2ef298	0.6833892
39	0x3f3db655	0.7410634
40	0x3f3f9e6c	0.7485111
41	0x3eaa2a17	0.33235237
42	0x3f4983ef	0.7871694
43	0x3ffe0398	1.9844847
44	0x3efa0f11	0.4883962
45	0x3f8a1218	1.0786772
46	0x3e849206	0.25892657
47	0x3ed99146	0.42493647
48	0x400cd6d9	2.2006133
49	0x3f40cb94	0.75310636
50	0x3f60aaf2	0.8776084
51	0xbf18810a	-0.595719
52	0x3f42dbd2	0.7611667
53	0x3fcee229	1.6162769
54	0x3f86cd2c	1.0531363
55	0x3facb6c6	1.3493278
56	0x3f0aeb24	0.54265046
57	0x3f9a897a	1.2073205
58	0x3fcfebc6	1.6243827
59	0x3fd26741	1.643776
60	0x3f92a6e3	1.145718
61	0x4008ae24	2.1356287
62	0x4011eedf	2.2802045
63	0x3fb60352	1.4219763
64	0x3f6f4158	0.9345908
65	0xbeec27b8	-0.46124053
66	0x3c9f7bd0	0.019468218
67	0x3ff590e2	1.918484
68	0x3eae3b53	0.34029636
69	0x3f8dbb28	1.107274
70	0x3f6c0060	0.9218807
71	0x3d1fb0a0	0.038986802
72	0x4006c391	2.1056864
73	0x3f56a2ca	0.83842146
74	0x3fd31ae4	1.6492581
75	0x3f80659f	1.0031012
76	0x3f950818	1.1643095
77	0x3f8e0346	1.1094749
78	0xbf01cec4	-0.50706124
79	0x3faf9478	1.3717184
80	0x3f41987b	0.7562329
81	0x402fe968	2.748621
82	0x3f506885	0.81409484
83	0x3f3dfd5b	0.74214715
84	0x40029c30	2.040783
85	0x3f3f8d9a	0.7482544
86	0x3fd714b2	1.6803191
87	0x3f5c5fde	0.8608378
88	0x3eacb136	0.3372895
89	0x3fdcd8d6	1.7253673
90	0x3e847834	0.25872958
91	0x400c1a9f	2.1891248
92	0x3f04fb2a	0.51945746
93	0x4002f208	2.0460224
94	0x4010f1a0	2.2647476
95	0x3ecf262b	0.40458807
96	0x3f8cd9e3	1.1003994
97	0x3f6939e2	0.9110395
98	0x3fff1110	1.9927082
99	0x3f92311d	1.1421238
100	0x40106cc3	2.2566383
101	0x3fff3b8c	1.9940047
102	0x3f90785e	1.1286733
103	0x3f4244af	0.7588605
104	0x3f3e44ab	0.7432353
105	0x3fab431d	1.3379856
106	0x3fe7af5e	1.8100393
107	0x3f86b5d4	1.052424
108	0x40280c02	2.625733
109	0x3f91a7d8	1.1379347
110	0x3f1a950e	0.6038369
111	0x3fc9bd16	1.576083
112	0xbdfc7630	-0.1232723
113	0x3ea9a3b5	0.3313271
114	0x3ed2b320	0.41152287
115	0x3f536d06	0.8258823
116	0x3f8fadea	1.1224949
117	0x3f29eefc	0.66380286
118	0x3f2261cb	0.6343047
119	0xbedb17d8	-0.4279163
120	0x3fbe3ee6	1.4862945
121	0x3f7ba004	0.9829104
122	0x3f34ca22	0.7062093
123	0x3f3114f0	0.69172573
124	0x3f4f6308	0.81010485
125	0x3f475038	0.7785678
126	0x3fa71e7d	1.3056179
127	0x3fd00563	1.6251644

functional_1/dense_5/BiasAdd/ReadVariableOp/resource f4 [128]
0	0x402911f8	2.6417217
1	0x3f99dee1	1.2021142
2	0xc0bdd6c4	-5.9324665
3	0xbf8d2ed9	-1.1029922
4	0x4082e03a	4.0898714
5	0xbfe05a17	-1.7527493
6	0x40b6b5bc	5.7096844
7	0x3f0b0b9b	0.54314584
8	0x4066c826	3.605966
9	0xbdf1ad55	-0.118006386
10	0xc095dcd2	-4.6832056
11	0xc00a3c58	-2.159933
12	0xc03069b7	-2.7564523
13	0xbe85ac59	-0.26108053
14	0x3fbd5650	1.4791965
15	0xbfa29dea	-1.2704442
16	0x401249ef	2.2857625
17	0x3ee189fd	0.4405059
18	0x40068cc7	2.1023424
19	0x3ed28a14	0.4112097
20	0xc0007170	-2.0069237
21	0x3f872826	1.0559127
22	0xc0465fcb	-3.0995967
23	0x40862e3a	4.193143
24	0x40489092	3.1338239
25	0x3ed9821b	0.42482075
26	0xc10546d9	-8.329797
27	0x3f66d2dc	0.90165496
28	0x408427ef	4.1298747
29	0xbe0be3d2	-0.13661125
30	0x401a3046	2.4091964
31	0x410da8f8	8.853752
32	0x408c8543	4.3912673
33	0xc007eca8	-2.1238194
34	0x3f82f3b2	1.023062
35	0x407e2890	3.9712257
36	0x409d04c5	4.906832
37	0xc09ec669	-4.96172
38	0x4030c57e	2.762054
39	0xbfa0c2c2	-1.2559435
40	0x40159985	2.337495
41	0xc0072b55	-2.1120198
42	0x3fd02d31	1.6263791
43	0x3ef88190	0.48536348
44	0xbea7605b	-0.326907
45	0x402b5d2a	2.6775613
46	0x40255573	2.5833404
47	0xbed81388	-0.422024
48	0xc042ab5a	-3.0417085
49	0x402129af	2.5181692
50	0xc00ae18e	-2.1700168
51	0xbfeabb4b	-1.8338407
52	0xbf713eb6	-0.94236314
53	0x3e9a6eab	0.30162558
54	0x3fcc0f41	1.5942155
55	0xc0bd636f	-5.918388
56	0xc0ca6d64	-6.3258533
57	0xbfe9f317	-1.827731
58	0xbf1ea60a	-0.61972106
59	0x3fab5a32	1.33869
60	0xc043b77a	-3.0580735
61	0xc098a65a	-4.7703066
62	0xbfafec5e	-1.3744009
63	0x3fd59142	1.6684954
64	0x40989f8b	4.7694755
65	0x4059c086	3.4023757
66	0xbf2ee7cc	-0.68322444
67	0xc00edd4e	-2.2322574
68	0x40211118	2.5166683
69	0xbfe22f00	-1.7670593
70	0x40ca946e	6.330619
71	0xc09c0b29	-4.8763623
72	0xc01e546c	-2.4739027
73	0xc048ba66	-3.1363769
74	0x4095a5c3	4.6764846
75	0xc049c5c3	-3.1526954
76	0x4090093a	4.5011263
77	0xc0b57b85	-5.671328
78	0xc0bdb705	-5.9285913
79	0x3f467777	0.7752604
80	0xc002108c	-2.03226
81	0x3ee77de8	0.45213246
82	0x40743175	3.8155186
83	0x405e6b86	3.4753127
84	0x408223ea	4.066884
85	0x40bbd1ee	5.869376
86	0xbedecb48	-0.43514466
87	0xc01f012f	-2.4844472
88	0xc01b6951	-2.428303
89	0xbf9f6ae9	-1.2454501
90	0xbf231265	-0.6369994
91	0x3ef13169	0.4710801
92	0xc03a0827	-2.9067476
93	0x40de0ea9	6.9392896
94	0x3f531e95	0.8246854
95	0x4035f4a3	2.8430564
96	0x40c40629	6.125752
97	0xbf0f501c	-0.5598161
98	0x3a411c00	0.0007366538
99	0x3fc62a30	1.5481625
100	0x40707fee	3.7578082
101	0xc091a03f	-4.5508113
102	0xc059e972	-3.4048734
103	0xc0a40a0a	-5.1262255
104	0x3f9c498c	1.2209945
105	0x3f93f08e	1.1557786
106	0x403258c6	2.7866683
107	0x3e8c2fa3	0.27380094
108	0x3f625a20	0.8841877
109	0xc06fbe3a	-3.7459855
110	0x3f108fec	0.5646961
111	0x40979f87	4.7382236
112	0xc0573292	-3.3624616
113	0x3f490c73	0.7853462
114	0xbfc57701	-1.5426942
115	0xbeda1d4d	-0.4260048
116	0x40378178	2.8672771
117	0x404ae838	3.1704235
118	0x40a2d25c	5.0881786
119	0x3f45a793	0.7720882
120	0xbe79f080	-0.2440815
121	0x4061f3db	3.5305088
122	0xbf144f76	-0.5793375
123	0xbf571982	-0.84023297
124	0xc097d228	-4.744404
125	0xc069e702	-3.6547246
126	0x4035cf92	2.840794
127	0x40aa6628	5.3249702

functional_1/dense/BiasAdd/ReadVariableOp/resource f4 [128]
0	0x3fe80f3c	1.8129649
1	0xbfac3228	-1.3452806
2	0xc156737d	-13.403195
3	0xc0b53c34	-5.663599
4	0x3e8b20dc	0.27173507
5	0xc0da84ee	-6.828727
6	0xbf9eff47	-1.2421654
7	0x4168066f	14.501571
8	0xc006465f	-2.098045
9	0x3e997a86	0.2997629
10	0x3f1d6bf2	0.61492836
11	0xbefd4b74	-0.4947163
12	0xc0df3d7d	-6.976256
13	0x3dc7d4bc	0.09757373
14	0x3d91d9df	0.07121634
15	0x400a1778	2.1576824
16	0x40b07b05	5.515017
17	0x404262dc	3.037284
18	0x3fb0ca15	1.381167
19	0xc01118f2	-2.2671475
20	0xc1a55089	-20.664324
21	0xbee1e81a	-0.44122392
22	0x40acd22c	5.4006557
23	0x40329677	2.7904336
24	0x40a44d12	5.134408
25	0x415933b5	13.575124
26	0xc0d5983e	-6.6748343
27	0x40967ada	4.7024965
28	0xbf8d670d	-1.1047074
29	0xc02a94b5	-2.6653264
30	0xc000d9b9	-2.0132887
31	0xbf8ced76	-1.1009967
32	0xc00152b1	-2.020672
33	0xc0c4b555	-6.1471353
34	0x40146759	2.3188078
35	0xbfb1acfd	-1.3880917
36	0x408ac326	4.336322
37	0x404bd5c9	3.1849234
38	0xbfd7512e	-1.6821649
39	0xc0985438	-4.7602806
40	0x4099736c	4.7953396
41	0x3e81c500	0.25345612
42	0xbf89a47c	-1.0753322
43	0x3f3be2f2	0.73393166
44	0xbe160910	-0.14651895
45	0xbd00f6e8	-0.03148547
46	0xc09f86f2	-4.985223
47	0x3fa625ec	1.2980323
48	0x4148a74e	12.540846
49	0xc04fecc9	-3.2488272
50	0xc05bfddd	-3.4373696
51	0xbff5203a	-1.915046
52	0xc0430e7e	-3.0477595
53	0xc0746db0	-3.8191948
54	0xc077ec3d	-3.8737938
55	0xc11665b1	-9.399827
56	0xc014523a	-2.3175187
57	0xbfbe4046	-1.4863365
58	0xc0a9de5c	-5.3083935
59	0xbf85604b	-1.0420011
60	0x3deeb4e0	0.11655593
61	0x402cc4f3	2.6995208
62	0xc05b4dbd	-3.4266198
63	0xc1119d39	-9.100884
64	0xc122a2c3	-10.164737
65	0x40068059	2.1015837
66	0xbf294b3e	-0.66130435
67	0x3fa0c4c0	1.2560043
68	0xc039eaaa	-2.9049478
69	0xbfefb66d	-1.8727547
70	0xbf35e80e	-0.7105721
71	0x409db550	4.928383
72	0x4085370a	4.1629686
73	0x40d22985	6.5675683
74	0x40d6f848	6.717808
75	0x40690aca	3.6412835
76	0xbfccd9d3	-1.6003975
77	0xbeda6523	-0.42655286
78	0xc127c1d5	-10.484822
79	0x404cc04e	3.1992373
80	0xbec1be7c	-0.3784064
81	0x3fba8ab2	1.4573576
82	0xc01bb96a	-2.4331918
83	0x3f8ef0dc	1.1167254
84	0x40b1ffa9	5.5624585
85	0x40b866b8	5.762539
86	0x40bfa79d	5.9892106
87	0x3f192044	0.5981486
88	0x3ecea150	0.40357447
89	0x40395b94	2.8962145
90	0x41167ece	9.405958
91	0xbe8bb86c	-0.2728914
92	0x4124bef7	10.296622
93	0xc16356bf	-14.208678
94	0x40bb939f	5.86177
95	0x3f6668ca	0.90003645
96	0xbfafeb8c	-1.3743758
97	0xc0634fb4	-3.5517397
98	0xc1041c9e	-8.256987
99	0x4032b353	2.792195
100	0x403c9d72	2.9471097
101	0x41574d7b	13.456416
102	0x404389c4	3.0552835
103	0x401ddbfc	2.4665518
104	0x4031c403	2.7775886
105	0x408ecb0b	4.4622855
106	0xc185f41a	-16.74419
107	0x3ff3ed1d	1.9056736
108	0x40ecea82	7.4036264
109	0xc08418cf	-4.1280284
110	0x3eb8147e	0.35953134
111	0xc038bd96	-2.8865714
112	0x3f35eab4	0.71061254
113	0xbfbe553a	-1.4869759
114	0xbf24d04e	-0.6438035
115	0xbfcc16c4	-1.5944448
116	0xc09c3ee6	-4.882678
117	0xbea323ee	-0.3186335
118	0x40829a6d	4.081351
119	0x408811e3	4.2521834
120	0xbf00f9ee	-0.5038136
121	0xbe931111	-0.28723958
122	0x40743467	3.8156984
123	0xbbb41600	-0.0054957867
124	0x3f500cfd	0.8126982
125	0x40d878a4	6.7647266
126	0xc0e8353c	-7.2564983
127	0x410731d7	8.449668

functional_1/dense_3/BiasAdd/ReadVariableOp/resource f4 [128]
0	0x3e85aa1a	0.2610634
1	0xbd3e50c2	-0.046463735
2	0xbf7ac826	-0.9796165
3	0x3ddec7f2	0.1087798
4	0xbd029c30	-0.031887233
5	0x3ec5343e	0.3851642
6	0xbe2c04d8	-0.16798723
7	0xc0710304	-3.765809
8	0x3cc7d140	0.02439177
9	0xc02672a3	-2.6007469
10	0xc00cec8b	-2.2019374
11	0x3e0e7cb9	0.13914765
12	0x3d83bb18	0.0643217
13	0xbc4662e8	-0.012108542
14	0x3e74ad5a	0.23894253
15	0x3e435869	0.19076695
16	0xbd5b5464	-0.053547278
17	0xbf2243c3	-0.63384646
18	0x3d0fc504	0.035099998
19	0xc07358f4	-3.8023043
20	0xbeadc2d1	-0.33937696
21	0x3df7d48c	0.12101087
22	0xbddc42b6	-0.107549116
23	0x3d759b1c	0.059962377
24	0x3e1f79c3	0.15573792
25	0xbe951601	-0.2911835
26	0x3e26e72f	0.16299127
27	0x3e94781e	0.28997892
28	0x3d897c84	0.067132026
29	0x3e815414	0.2525946
30	0xbdefcf24	-0.11709431
31	0xbe13e68e	-0.14443418
32	0xc00dd91c	-2.2163763
33	0xbea26ba8	-0.3172276
34	0x3cebef70	0.028800696
35	0xbe24a8f3	-0.16080074
36	0x3e71b49a	0.2360405
37	0xbcb929ac	-0.022602879
38	0xbc6ac550	-0.0143292695
39	0x3dfe7d30	0.12426221
40	0x3fcc6c5e	1.5970571
41	0x3f4c79ba	0.7987324
42	0x3e3637ea	0.17794767
43	0x3ec4d43c	0.38443172
44	0x3ceb945c	0.028757267
45	0xbdf7613a	-0.12079091
46	0xbd19a69c	-0.037512407
47	0xbc374100	-0.011184931
48	0xbc979d90	-0.018507749
49	0xbe56044c	-0.20900077
50	0xbe7becd9	-0.24602069
51	0x3dfa4b00	0.12221336
52	0x3ea74fb4	0.32677996
53	0xbf250b64	-0.64470506
54	0x3d9d8dc0	0.07693052
55	0xbf00fa34	-0.5038178
56	0xbde36d64	-0.11104849
57	0xbf2990a8	-0.6623635
58	0x3d9728ef	0.07380854
59	0x3f038edd	0.5138987
60	0xbf9303d5	-1.1485544
61	0xbed8bf72	-0.4233356
62	0xbdbb2ef8	-0.09139818
63	0xbae971e0	-0.0017810427
64	0xbea9b6fd	-0.3314742
65	0x3f1ddce6	0.6166519
66	0x3ea07862	0.31341845
67	0xbeada87e	-0.33917612
68	0x3e5d0989	0.21585669
69	0x3e6cb3a0	0.23115396
70	0x3ea14911	0.31501058
71	0x3ea7a70e	0.3274464
72	0xbd999340	-0.07498789
73	0x3d522530	0.051304996
74	0x3d3ba59c	0.045812234
75	0x3e4ae69c	0.19814533
76	0x3ef5f036	0.4803483
77	0xbed4aa58	-0.41536212
78	0xbeaf75cd	-0.34269562
79	0x3d081096	0.033218943
80	0x3f0ba03c	0.54541373
81	0x3dde8cfe	0.10866736
82	0x3d959d25	0.073053636
83	0x3ea90154	0.33008826
84	0xbe5d1326	-0.21589336
85	0x3d2272a0	0.039660096
86	0x3e9b9e52	0.30394226
87	0x3e448cc7	0.19194327
88	0x3d8e8e80	0.069607735
89	0x3e8aa96a	0.27082378
90	0xbeffb5a0	-0.49943256
91	0x3cb3d110	0.021950275
92	0xbdb7912c	-0.08963236
93	0xbe491e70	-0.19640517
94	0xbfe54b70	-1.7913647
95	0x3dba0a6c	0.09084019
96	0x3edfbd55	0.43699136
97	0xc05dd27b	-3.4659717
98	0x3edb3485	0.42813507
99	0xbe5d368c	-0.21602839
100	0xbda205b4	-0.07911244
101	0x3ec9eea3	0.39439878
102	0xbe918c29	-0.28427246
103	0x3cc185e0	0.023623407
104	0xbec4bf60	-0.38427258
105	0xbc8877c8	-0.016658679
106	0x3edc6eb6	0.43053216
107	0x3e6b79f8	0.22995746
108	0x3d235a64	0.039881125
109	0x3e1d2150	0.15344739
110	0x3e875424	0.26431382
111	0xbea5938f	-0.3233914
112	0xbe618578	-0.2202357
113	0xbf7bddd1	-0.9838534
114	0xbee10506	-0.43949145
115	0x3fbc8f3d	1.4731213
116	0xbe9a7d52	-0.30173737
117	0x3ed83918	0.4223106
118	0xbded89e7	-0.115985684
119	0x3dcf1717	0.10111826
120	0xbda503cb	-0.08057364
121	0xc00d398b	-2.2066371
122	0x3e46bc80	0.19407845
123	0xc04074e4	-3.0071344
124	0x3c162990	0.009165183
125	0x3de7243f	0.1128621
126	0xbeb9125c	-0.3614682
127	0xbe1da429	-0.15394653

functional_1/dense_6/BiasAdd/ReadVariableOp/resource f4 [128]
0	0xbf0d725d	-0.5525263
1	0xbd3b6bd0	-0.045757115
2	0x3f666e77	0.90012306
3	0xbfa0a4ba	-1.255027
4	0x3e028afa	0.12748328
5	0x3f019ec0	0.5063286
6	0x3f07e5d3	0.5308506
7	0x3ecb90f5	0.3975903
8	0x3f1dbbe4	0.61614823
9	0x3f00c6e0	0.5030346
10	0x3efdf5cf	0.496016
11	0xbe6e400f	-0.23266624
12	0xbf15b415	-0.5847791
13	0x3f3e9338	0.7444339
14	0x3ede38c0	0.43402672
15	0x3f074f4e	0.52855384
16	0x3f1179af	0.568263
17	0xbef703bf	-0.48245046
18	0xbf533ea0	-0.82517433
19	0x3edb55f8	0.42839026
20	0x3bde9a40	0.0067932904
21	0x3f3a8057	0.7285208
22	0x3e59f754	0.21285754
23	0x3f1a9ae6	0.60392606
24	0xbe8e0332	-0.27736813
25	0x3d7cc790	0.061713755
26	0xbe4455b0	-0.19173312
27	0x3ebc8c12	0.36825615
28	0x3dde6ea4	0.10860947
29	0xbf8a2d14	-1.0795007
30	0xbdd58f00	-0.10427666
31	0x3f5a446c	0.85260653
32	0xbf3e18c6	-0.7425655
33	0xbf9b3d93	-1.2128166
34	0x3f1c4ce8	0.6105485
35	0x3d2d802b	0.04235856
36	0x3fa6ffff	1.3046874
37	0x3f69b56f	0.9129247
38	0x3f07fcc0	0.5312004
39	0x3e3b1e22	0.18273214
40	0xbe5ee48f	-0.21766876
41	0x3f626dd2	0.8844882
42	0x3f031fd0	0.5122042
43	0x3eef9ccc	0.46799314
44	0x40159da4	2.3377466
45	0xbe50ae0f	-0.20378898
46	0x3f48577b	0.78258485
47	0xbfa7753f	-1.3082656
48	0xbe948d91	-0.29014257
49	0x3fa94e20	1.3226967
50	0x3e4cc649	0.19997515
51	0x3f05b7bc	0.5223348
52	0x3f6921b4	0.9106705
53	0xbd74ff84	-0.05981399
54	0xbe3def6a	-0.1854836
55	0xbf2f6886	-0.68518865
56	0x3daceb0a	0.08443268
57	0x3f857bb7	1.042838
58	0xbf086c16	-0.53289926
59	0xbd1262c8	-0.035738736
60	0x3fd19cdb	1.6375993
61	0x3f907ca0	1.1288033
62	0xbf29bd2a	-0.66304266
63	0x3ed3569e	0.4127702
64	0xbe234cc0	-0.15947247
65	0xbe593e73	-0.21215229
66	0x3f35303c	0.70776725
67	0xbdb301e0	-0.08740592
68	0x3e82c457	0.2554042
69	0x3fbbfdbe	1.4686811
70	0xbf71c4ae	-0.94440734
71	0xbea095ea	-0.31364375
72	0xbf5e2b5a	-0.867849
73	0xbe5b1721	-0.21395542
74	0x3f897710	1.073946
75	0x3e82b989	0.25532177
76	0x3fa1bc72	1.2635634
77	0xbdd67fee	-0.104736194
78	0x3e19c3eb	0.15016143
79	0xbf73e19c	-0.9526613
80	0x3e54cd40	0.20781422
81	0x3f2a90ff	0.66627496
82	0x3d11afbc	0.035567984
83	0x3e820141	0.25391582
84	0x3ed838a4	0.42230713
85	0xbca1ac06	-0.019735347
86	0xbf217215	-0.630647
87	0xbf3a5b4e	-0.7279557
88	0x3dce7579	0.10081
89	0x3f16b0b2	0.58863366
90	0x3e5f4190	0.21802354
91	0x3e315e5d	0.17321153
92	0xbfb505ce	-1.4142396
93	0xbeb682ce	-0.3564667
94	0x3fb690d6	1.426295
95	0x3dff2c20	0.12459588
96	0x3e45fabc	0.19333929
97	0xbee86d5a	-0.4539593
98	0x3f4a4ae6	0.79020536
99	0x3f3b8bac	0.7326
100	0xbed88a3e	-0.4229297
101	0x3ebd78c2	0.37006193
102	0xbe116cf8	-0.14201725
103	0xbf790edc	-0.972883
104	0x3f9da6b3	1.2316498
105	0xbff60be0	-1.9222374
106	0xbdfd0f64	-0.12356451
107	0xbf47c638	-0.7803683
108	0xbf594d16	-0.8488325
109	0xbe1459aa	-0.14487329
110	0xbebfb0b2	-0.37439495
111	0x3f06ead0	0.52702045
112	0x3f8a0e00	1.0785522
113	0x3f309598	0.6897826
114	0xbf1603ac	-0.5859935
115	0x3e7b4c6e	0.24540874
116	0x3f823bc5	1.017449
117	0xbf2ebfce	-0.6826142
118	0x3d6e9709	0.058249507
119	0x3f7456fa	0.95445216
120	0xbecea559	-0.40360525
121	0xbe7dc04e	-0.2478039
122	0x3fc0fc16	1.507693
123	0x3ecf8172	0.40528446
124	0x3f6548d7	0.8956427
125	0x3f124513	0.5713665
126	0x3ef25057	0.4732692
127	0x3f9a843a	1.2071602

functional_1/dense_1/BiasAdd/ReadVariableOp/resource f4 [128]
0	0x3fe006dd	1.7502095
1	0xbbca2a50	-0.006169595
2	0xbc976914	-0.018482722
3	0xbde2383e	-0.110458836
4	0xbf2e4b55	-0.680837
5	0xc0043825	-2.0659268
6	0x3ec3e702	0.38262182
7	0xbcf43534	-0.029810525
8	0x3c77fa28	0.0151353255
9	0x3dcfba66	0.101429746
10	0xbdb17224	-0.08664349
11	0xbe13b1e8	-0.14423335
12	0x3e95407a	0.29150754
13	0xbdc5d460	-0.09659648
14	0x3e3642f6	0.17798981
15	0x3e661457	0.22468697
16	0x3e59fcda	0.21287861
17	0x3dd170a8	0.102265656
18	0x3eaf1f65	0.3420364
19	0x3e2fc861	0.17166282
20	0x3ea4762c	0.32121408
21	0x3e98f846	0.29876918
22	0xbe231f48	-0.15929902
23	0xbd36d5d7	-0.044637527
24	0x3f163e4e	0.5868882
25	0xbf2f0570	-0.6836767
26	0xbb1ad360	-0.0023624524
27	0xbe596960	-0.21231604
28	0x3f5c68a3	0.8609716
29	0xbee5f376	-0.44912308
30	0x3e20c9dd	0.15702005
31	0xbcfc4160	-0.030792892
32	0x3d40ffdf	0.047119018
33	0xbf70e552	-0.94099915
34	0x3e43ffbe	0.19140527
35	0x3ea362a8	0.31911206
36	0x3e1a236b	0.15052573
37	0xbe1097be	-0.14120385
38	0xbe7f38e8	-0.24924052
39	0x3dce5c82	0.10076238
40	0xbe4609ee	-0.19339725
41	0x3d97deed	0.074155666
42	0x3de1ac54	0.11019197
43	0xbc530dc0	-0.012881696
44	0xbf9b9bdc	-1.215694
45	0x3e258103	0.16162495
46	0x3f0e3e5a	0.5556389
47	0xbf89c275	-1.0762469
48	0xbda5b164	-0.08090475
49	0xbdce1cd2	-0.10064091
50	0xbe82c25c	-0.2553891
51	0xbe1a03b2	-0.15040472
52	0xbe67eae0	-0.22648191
53	0x3fa5ea2d	1.296209
54	0x3de82d18	0.11336726
55	0xbfb2ae5c	-1.395946
56	0x3ce06d4c	0.027395867
57	0x3f1cc27c	0.6123426
58	0x3daf2aa0	0.08553052
59	0xbe0b0f14	-0.1357997
60	0xbe0d7cd0	-0.13817143
61	0xbf001bdc	-0.5004251
62	0x3f1ed150	0.62038136
63	0xbda7d1b2	-0.08194293
64	0x3ed17736	0.40911263
65	0x3eba4273	0.36378822
66	0x3e9ca3d2	0.30593735
67	0xbdd4b45e	-0.10385965
68	0x3e393fa8	0.18090689
69	0xbe610cb7	-0.21977507
70	0x3e13e81b	0.1444401
71	0x3e52d706	0.20589837
72	0xbde091b4	-0.10965291
73	0xbdf3469f	-0.11878704
74	0x3f82432f	1.0176753
75	0x3e533030	0.20623851
76	0x3ecea006	0.40356463
77	0x3d89063c	0.06690642
78	0xbe454f95	-0.1926864
79	0xbf9e8bb3	-1.2386383
80	0x3d3ff5b6	0.046865188
81	0xbe1271b5	-0.14301188
82	0x3ea352f6	0.31899232
83	0xbe5a0407	-0.21290599
84	0xc014d0f1	-2.3252528
85	0xbe73f382	-0.2382336
86	0xbecef1ef	-0.40418956
87	0x3dd7d670	0.105389476
88	0x3eb51883	0.35370263
89	0xbe8d1a33	-0.2755905
90	0xbe9e28ad	-0.30890408
91	0xbf088966	-0.53334653
92	0xbebdee99	-0.37096098
93	0xbdd80650	-0.10548079
94	0x3e13a9f0	0.14420295
95	0xbe35eba6	-0.17765674
96	0x3ebe6ed1	0.3719392
97	0xbe9fcbbe	-0.3121013
98	0xbf11f41f	-0.57013124
99	0x3dbf50da	0.09341593
100	0x3c99c2b8	0.018769607
101	0xbdb31244	-0.08743718
102	0x3cc43e40	0.023955464
103	0xbdbbfa09	-0.0917855
104	0xbe2f3473	-0.17109852
105	0x3dd49fb0	0.103820205
106	0x3cbf5cb0	0.023359627
107	0xbf9c6bab	-1.2220358
108	0x3dee2008	0.11627203
109	0xbce48918	-0.027897403
110	0x3faeb466	1.3648803
111	0x3db4f9d4	0.088367134
112	0x3eeeb6b9	0.4662378
113	0xbe748e74	-0.23882467
114	0xbd95ca7e	-0.07314013
115	0x3b839880	0.004015982
116	0x3f47b743	0.7801401
117	0x3eb06af4	0.344566
118	0x3eeed4d3	0.46646747
119	0xbe55f614	-0.20894653
120	0x3ea96a40	0.33088875
121	0x3e657da8	0.22411215
122	0x3ea1d2dc	0.31606185
123	0x3c84c168	0.016205505
124	0x3e654377	0.22389017
125	0xbcd118ac	-0.02552446
126	0x3ed313d1	0.41226056
127	0xbfacee7a	-1.3510277

functional_1/dense_4/BiasAdd/ReadVariableOp/resource f4 [8]
0	0x4009f81d	2.1557686
1	0x401f35b2	2.4876523
2	0x401a6e6d	2.4129899
3	0x401aa6b5	2.416425
4	0x3ffbb24f	1.966379
5	0x400ee3c3	2.2326515
6	0x402eac78	2.7292767
7	0x4000ff03	2.0155647

functional_1/dense_7/BiasAdd/ReadVariableOp/resource f4 [128]
0	0x3d882eb0	0.0664953
1	0x3f10d800	0.5657959
2	0xbeba5aaa	-0.36397296
3	0x3e043ea7	0.12914525
4	0xbe83f776	-0.25774735
5	0x3d3b8d70	0.045789182
6	0xbe7a3abf	-0.24436472
7	0x3ec0a510	0.37625933
8	0x3e57a8ae	0.2106044
9	0xbf1b5028	-0.60669184
10	0x3f313e71	0.69235903
11	0x3f92094c	1.1409087
12	0x4003beda	2.0585237
13	0x3e7d2b0c	0.24723452
14	0x3e43cc80	0.1912098
15	0x3fbae70a	1.4601758
16	0x3d03ea30	0.03220576
17	0xbce82bfc	-0.028341286
18	0x3d77d478	0.06050536
19	0xbe6abde7	-0.22924004
20	0x3e897ec6	0.26854533
21	0x3f3d0636	0.738376
22	0xbeda0b25	-0.42586628
23	0x3f36088b	0.71106786
24	0x3d20ef18	0.039290518
25	0x3ec5ca65	0.38630977
26	0x3f60946c	0.87726474
27	0xbecd4a65	-0.4009582
28	0xbf81d479	-1.0142967
29	0x3eead3e1	0.45864776
30	0xbd139764	-0.03603305
31	0x3e9b30ec	0.30310762
32	0x3e66f710	0.22555184
33	0xbf9621d7	-1.1729077
34	0xbf795155	-0.9738973
35	0xbd5fc2a0	-0.05462897
36	0xbede0b34	-0.43367922
37	0x3f19eeb0	0.60129833
38	0x3e0623b3	0.13099556
39	0xbe50860d	-0.20363636
40	0x3fa2e3b3	1.2725738
41	0x3e200cec	0.1562993
42	0x3fba1635	1.4538027
43	0x3de6c896	0.112687275
44	0x3e623ede	0.22094294
45	0xbe98df53	-0.29857883
46	0x3edc3890	0.43011904
47	0x3eb849b6	0.35993737
48	0x3f448531	0.76765734
49	0x3f7120c7	0.9419064
50	0xbef1e292	-0.47243172
51	0x3e3bb7fc	0.18331903
52	0x3f064edd	0.52464086
53	0xbf091eb5	-0.5356248
54	0x3edfa832	0.4368301
55	0x3f02ace1	0.5104504
56	0xbf712dd9	-0.9421058
57	0xbf86eeaa	-1.0541584
58	0x3ee77ea8	0.4521382
59	0x3f1fee4a	0.62472975
60	0x3cc4d718	0.024028346
61	0x3f1ad8dc	0.6048715
62	0x3f8d77ee	1.1052225
63	0x3f888882	1.0666659
64	0xbe496830	-0.1966865
65	0x3f87cf8f	1.0610217
66	0xbe495192	-0.19660023
67	0xbf332ccf	-0.6999025
68	0x3f01f74a	0.5076796
69	0xbe2a5d4c	-0.16637152
70	0xbec95cb5	-0.39328542
71	0xbf8bd9de	-1.0925863
72	0xbf3fabdd	-0.7487162
73	0x3f25a180	0.64699554
74	0xbec09f07	-0.37621328
75	0xbf7329be	-0.9498557
76	0x3ecec25c	0.4038266
77	0x3f070968	0.5274873
78	0xbf171f07	-0.5903172
79	0xbd3a7004	-0.045516983
80	0x3fac89bb	1.3479532
81	0x3f15e1c0	0.5854759
82	0x401f11f6	2.4854712
83	0xbf9ec441	-1.2403642
84	0x3fa72037	1.3056706
85	0x3f5d77a4	0.8651068
86	0xbdaa0296	-0.083012745
87	0xbf054480	-0.5205765
88	0xbf3bfacc	-0.7342956
89	0x3e235b15	0.15952714
90	0x3dbb0ff5	0.09133903
91	0xbba00b80	-0.0048841834
92	0xc0071d44	-2.1111612
93	0xbe16f62a	-0.14742342
94	0x3dfc13dc	0.123084754
95	0x3cc2ea60	0.0237934
96	0xbe7866c8	-0.24257958
97	0x3df3cdc8	0.11904484
98	0xbcf1da42	-0.029523019
99	0x3ebf0115	0.37305513
100	0x3f0da65c	0.5533197
101	0xbe3c028a	-0.18360344
102	0x3f9e5793	1.2370476
103	0x3fa4b756	1.286845
104	0xbe6efeba	-0.23339358
105	0x3e93e724	0.28887284
106	0x3e81bd38	0.25339675
107	0x3f34b002	0.70581067
108	0xbdddbbaa	-0.1082681
109	0x3f538b6c	0.82634616
110	0x3ebba5d8	0.36649966
111	0x3f8721a9	1.0557147
112	0x3f3814b8	0.71906614
113	0x3e94377d	0.28948584
114	0xbd81ebb8	-0.06343788
115	0x3e6247ed	0.2209775
116	0xbf4e1c1a	-0.8051163
117	0x3f868aec	1.0511146
118	0x3ab52b40	0.0013822094
119	0xbe1cef37	-0.15325628
120	0xbea269dd	-0.31721392
121	0x4012f41f	2.29615
122	0xbe15aece	-0.14617464
123	0x3ec12747	0.3772528
124	0x3fcbd9a2	1.5925791
125	0x3e98b035	0.29821935
126	0xbfe73361	-1.8062555
127	0xbf1900e1	-0.59766966
