inputs/examples/workloads/densenet_inferred.onnx (onnx, 909836 bytes, 447 tensors)

conv5_14/x1/bn_bias_0 f4 [928]
4.4998187e-31 1.9343852e+34 2.8297548e+20 3.0304166e+35 4.8422627e-10 6.337072e-10 1.1025342e-21 6.2589035e-33
7.142917e+31 8.4920305e-33 1.8512026e+28 1.1862105e+27 1.8395174e+25 2.456654e+14 1.8512091e+28 15248.615
7.2249586e+28 1.5519244e+19 1.2090096e+33 1.782502e+19 197.0398 15.401961 2.5149193e+32 1.8523599e+28
223.25926 2.5840203e+08 2.5153187e+32 1.8523599e+28 1.1862088e+27 1.534226e+13 3.0607537e+32 7.3903876e+22
4.515056e+27 7.1442027e+31 1.7181067e+19 1.2090096e+33 1.7500166e+28 8.1296564e-10 7.026527e+28 1.6140131e-10
1.30054065e-08 6.0369043e+28 1.7289582e+28 7.1535766e+22 7.0062382e+22 1.906522e-36 1.2090071e+33 4.1552743e-34
7.5656245e+28 1.6634458e+22 3.4565084e+09 3.3900263e+12 1.1635701e-13 1.0698916e+31 1.7225354e+22 1.4139049e-37
5.8777946e-38 6.9894005e-33 1.6634356e+22 2.0508087 2.050782 9.751905e-35 6.490963e-36 3.0353499e+32
-1.0934811e-19 3.4332807e-26 6.937364e+22 1.1094623e+27 2.6799737e+20 1.4474284e-34 5.878512e-38 8.475978e-33
1.8521662e+28 8.0793606e+20 5.6284523e-28 1.8521662e+28 8.0793606e+20 3.709342e-23 1.1089262e+27 4.3972035e+21
1.7752583e+28 1.6531976e+19 1.4187733e+11 1.1816708e-32 6.644774e-33 1.2090096e+33 1.7500166e+28 1.0998916e-34
1.1578381e+27 3.6679637e-23 1.8278594e+34 1.1578357e+27 1.638814e+19 2.7485219e+20 1.300337e-08 2.3638103e+20
7.40642e+28 7.182068e-33 7.776372e+31 2.7713096e+20 5.626002e+08 3381.2693 3.809374e-37 4.2548805e-31
4.7428925e+30 1.6530288e+19 6.7425655e+22 -1.085011e-19 3.3528132e-29 7.701849e+31 6.7415293e+22 2.0351837
9.751903e-35 1.6229703e-36 1.8094176e+31 3.5265727e-38 3.5265727e-38 1.1990972e-13 2.527929e+21 1.7035258e+19
6.7422188e+22 5.877485e-38 7.18199e-33 4.5440947e+30 1.7034142e+19 2.790416e+29 2.0508053 9.751905e-35
6.2496876e-33 7.410235e+28 3.2478864e-09 7.027853e+28 1.2859587e+19 3.6115575e-09 1.7177344e+19 1.0899118e+27
8.4920335e-33 1.8521674e+28 3.2479455e-09 1.6140754e-10 1.03039446e+21 1.7537414e+19 2.7308522e+21 1.4344194e-08
1.4213333e+34 1.7500166e+28 2.6451159e+20 8.49204e-33 1.8521673e+28 3.2479455e-09 1.6140754e-10 1.1329307e+33
8.128947e-10 7.0271316e+28 1.2859587e+19 3.6115575e-09 1.7177344e+19 39.525578 4.296496e+24 4.6893707e+27
3.0300084e+35 7.22507e+28 4.3972015e+21 1.7752583e+28 1.6531976e+19 36.533398 4.296496e+24 4.6893707e+27
3.0300084e+35 7.22507e+28 7.0376244e-33 4.6311705e+27 3.098534e+32 2.7163488e+23 5.886569e-38 6.989396e-33
1.9046025e+31 1.8524494e+28 5.4865056e-15 2.3808507e-38 6.238027e-33 1.8521668e+28 3.2479455e-09 1.6140754e-10
3.2513516e-09 7.027853e+28 1.2859587e+19 3.6115575e-09 1.7177344e+19 4.489418e+21 1.1046333e-32 1.8521681e+28
3.2479455e-09 1.6140754e-10 3.2513516e-09 4.5452803e+30 7.4391774e+28 7.7128915e-28 1.852168e+28 3.2479455e-09
1.6140754e-10 3.2513516e-09 2.8297635e+20 3.0304166e+35 8.173453e-21 1.2090096e+33 1.6131876e-10 8.079362e+20
1.2781055e+19 1.7443989e+28 7.3908555e+22 7.03666e+22 2.0023113e-30 1.7443989e+28 7.3908555e+22 7.03666e+22
-2.8754274e+36 2.823073e+21 1.4344194e-08 1.4213333e+34 1.7500166e+28 1.1051975e+30 7.5545857e+31 1.69325e+22
7.027853e+28 1.2859587e+19 3.6115575e-09 1.7177344e+19 4.489418e+21 1.1046333e-32 1.8521681e+28 3.2479455e-09
1.6140754e-10 3.2513516e-09 4.5452803e+30 7.4391774e+28 1.17689385e-32 1.8882667e+31 6.772427e+22 9.545504e+26
1.8060569e+28 7.22507e+28 7.0368465e+28 1.2859587e+19 3.6115575e-09 1.7177344e+19 1.2709008e+19 1.7444026e+28
7.3908555e+22 1.1822539e+13 3.0607537e+32 7.3903876e+22 4.515056e+27 7.1442027e+31 1.7181067e+19 1.2090096e+33
00000000: 0807 120d 6f6e 6e78 2e71 7561 6e74 697a
00000010: 651a 0530 2e31 2e30 3a9c a61c 0afe 010a
00000020: 0664 6174 615f 300a 2843 6f6e 764d 756c
00000030: 4675 7369 6f6e 5f57 5f43 6f6e 7642 6e46
00000040: 7573 696f 6e5f 575f 636f 6e76 315f 775f
00000050: 300a 4543 6f6e 7641 6464 4675 7369 6f6e
00000060: 5f42 5f43 6f6e 764d 756c 4675 7369 6f6e
00000070: 5f4d 756c 5f42 5f55 6e73 7175 6565 7a65
00000080: 456c 696d 696e 6174 696f 6e5f 636f 6e76
00000090: 312f 626e 5f77 5f30 120a 636f 6e76 312f
000000a0: 626e 5f32 1a10 436f 6e76 5f6e 635f 7265
000000b0: 6e61 6d65 5f30 2204 436f 6e76 2a15 0a08
000000c0: 6175 746f 5f70 6164 2206 4e4f 5453 4554
000000d0: a001 032a 100a 0773 7472 6964 6573 4002
000000e0: 4002 a001 072a 110a 0470 6164 7340 0340
000000f0: 0340 0340 03a0 0107 2a0c 0a05 6772 6f75
00000100: 7018 01a0 0102 2a15 0a0c 6b65 726e 656c
00000110: 5f73 6861 7065 4007 4007 a001 070a 300a
00000120: 0a63 6f6e 7631 2f62 6e5f 3212 0a63 6f6e
00000130: 7631 2f62 6e5f 331a 1052 656c 755f 6e63
00000140: 5f72 656e 616d 655f 3122 0452 656c 750a
00000150: ae01 0a0a 636f 6e76 312f 626e 5f33 1207
00000160: 706f 6f6c 315f 311a 134d 6178 506f 6f6c
00000170: 5f6e 635f 7265 6e61 6d65 5f32 2207 4d61
00000180: 7850 6f6f 6c2a 150a 0861 7574 6f5f 7061
00000190: 6422 064e 4f54 5345 54a0 0103 2a14 0a0d
000001a0: 7374 6f72 6167 655f 6f72 6465 7218 00a0
000001b0: 0102 2a10 0a07 7374 7269 6465 7340 0240
000001c0: 02a0 0107 2a11 0a04 7061 6473 4001 4001
000001d0: 4001 4001 a001 072a 100a 0963 6569 6c5f
000001e0: 6d6f 6465 1800 a001 022a 150a 0c6b 6572
000001f0: 6e65 6c5f 7368 6170 6540 0340 03a0 0107
00000200: 0acd 010a 0770 6f6f 6c31 5f31 0a15 636f
00000210: 6e76 325f 312f 7831 2f62 6e5f 7363 616c
00000220: 655f 300a 1463 6f6e 7632 5f31 2f78 312f
00000230: 626e 5f62 6961 735f 300a 1463 6f6e 7632
00000240: 5f31 2f78 312f 626e 5f6d 6561 6e5f 300a
00000250: 1363 6f6e 7632 5f31 2f78 312f 626e 5f76
00000260: 6172 5f30 120f 636f 6e76 325f 312f 7831
00000270: 2f62 6e5f 311a 1e42 6174 6368 4e6f 726d
00000280: 616c 697a 6174 696f 6e5f 6e63 5f72 656e
00000290: 616d 655f 3322 1242 6174 6368 4e6f 726d
000002a0: 616c 697a 6174 696f 6e2a 120a 086d 6f6d
000002b0: 656e 7475 6d15 6666 663f a001 012a 110a
000002c0: 0765 7073 696c 6f6e 15ac c527 37a0 0101
000002d0: 0a8f 010a 0f63 6f6e 7632 5f31 2f78 312f
000002e0: 626e 5f31 0a15 636f 6e76 325f 312f 7831
000002f0: 2f62 6e5f 315f 7363 616c 650a 1a63 6f6e
00000300: 7632 5f31 2f78 312f 626e 5f31 5f7a 6572
00000310: 6f5f 706f 696e 7412 1963 6f6e 7632 5f31
00000320: 2f78 312f 626e 5f31 5f71 7561 6e74 697a
00000330: 6564 1a1e 636f 6e76 325f 312f 7831 2f62
00000340: 6e5f 315f 5175 616e 7469 7a65 4c69 6e65
00000350: 6172 220e 5175 616e 7469 7a65 4c69 6e65
00000360: 6172 0afc 020a 1963 6f6e 7632 5f31 2f78
00000370: 312f 626e 5f31 5f71 7561 6e74 697a 6564
00000380: 0a15 636f 6e76 325f 312f 7831 2f62 6e5f
00000390: 315f 7363 616c 650a 1a63 6f6e 7632 5f31
000003a0: 2f78 312f 626e 5f31 5f7a 6572 6f5f 706f
000003b0: 696e 740a 3055 6e73 7175 6565 7a65 456c
000003c0: 696d 696e 6174 696f 6e5f 636f 6e76 325f
000003d0: 312f 7831 2f62 6e5f 775f 305f 7175 616e
000003e0: 7469 7a65 640a 2c55 6e73 7175 6565 7a65
000003f0: 456c 696d 696e 6174 696f 6e5f 636f 6e76

conv2_1/x1/bn_bias_0 f4 [64]
0.0 0.0 0.0 0.0 0.0 0.0 0.0 0.0
0.0 0.0 0.0 0.0 0.0 0.0 0.0 0.0
0.0 0.0 0.0 0.0 0.0 0.0 0.0 0.0
0.0 0.0 0.0 0.0 0.0 0.0 0.0 0.0
0.0 0.0 0.0 0.0 0.0 0.0 0.0 0.0
0.0 0.0 0.0 0.0 0.0 0.0 0.0 0.0
0.0 0.0 0.0 0.0 0.0 0.0 0.0 0.0
0.0 0.0 0.0 0.0 0.0 0.0 0.0 0.0
00000000: 0000 0000 0000 0000 0000 0000 0000 0000
00000010: 0000 0000 0000 0000 0000 0000 0000 0000
00000020: 0000 0000 0000 0000 0000 0000 0000 0000
00000030: 0000 0000 0000 0000 0000 0000 0000 0000
00000040: 0000 0000 0000 0000 0000 0000 0000 0000
00000050: 0000 0000 0000 0000 0000 0000 0000 0000
00000060: 0000 0000 0000 0000 0000 0000 0000 0000
00000070: 0000 0000 0000 0000 0000 0000 0000 0000
00000080: 0000 0000 0000 0000 0000 0000 0000 0000
00000090: 0000 0000 0000 0000 0000 0000 0000 0000
000000a0: 0000 0000 0000 0000 0000 0000 0000 0000
000000b0: 0000 0000 0000 0000 0000 0000 0000 0000
000000c0: 0000 0000 0000 0000 0000 0000 0000 0000
000000d0: 0000 0000 0000 0000 0000 0000 0000 0000
000000e0: 0000 0000 0000 0000 0000 0000 0000 0000
000000f0: 0000 0000 0000 0000 0000 0000 0000 0000

conv2_1/x1/bn_mean_0 f4 [64]
0.1092526 0.059124026 0.051328134 0.098173805 0.10332701 0.087848425 0.090944566 0.051059823
6e-45 0.07605515 0.09331549 0.13851134 0.05660343 0.14930251 0.18366349 6e-45
0.053188145 0.29084125 0.1970734 0.05468881 0.05985406 0.051923312 0.044975214 0.26759252
0.04940072 0.23740514 0.14108257 0.053048104 0.06673539 0.06204385 0.07041234 0.25565493
0.18425633 0.19761935 0.10529262 0.049591664 0.042727172 0.05009208 0.3918669 0.04410284
0.050541963 0.25966513 0.19554076 0.05731154 0.1571434 0.071759805 0.055693846 0.16600509
0.08461176 0.071794525 0.08137176 0.07023369 0.049139116 0.06501286 0.049038734 0.1666034
0.054673668 0.06919316 0.062165618 0.23157366 0.048209324 0.05045631 0.05630298 0.2098006
00000000: d4bf df3d 092c 723d 733d 523d 590f c93d
00000010: 1d9d d33d e0e9 b33d 2541 ba3d 1b24 513d
00000020: 0400 0000 cdc2 9b3d 311c bf3d ebd5 0d3e
00000030: 00d9 673d c2e2 183e 4812 3c3e 0400 0000
00000040: d0db 593d 25e9 943e 9ccd 493e 6001 603d
00000050: 8829 753d 8aad 543d ee37 383d e301 893e
00000060: 6958 4a3d 551a 733e f377 103e f848 593d
00000070: 90ac 883d b121 7e3d 5834 903d 34e5 823e
00000080: b1ad 3c3e ba5c 4a3e a8a3 d73d a120 4b3d
00000090: b002 2f3d 5a2d 4d3d c7a2 c83e 2ea5 343d
000000a0: 1705 4f3d d4f2 843e d63b 483e 81bf 6a3d
000000b0: 33ea 203e cef6 923d 3b1f 643d 3dfd 293e
000000c0: ee48 ad3d 0209 933d 3da6 a63d aed6 8f3d
000000d0: 1946 493d 7625 853d d7dc 483d 159a 2a3e
000000e0: 7ff1 5f3d 25b5 8d3d 60a1 7e3d a521 6d3e
000000f0: 2477 453d 47ab 4e3d f49d 663d f8d5 563e

conv2_1/x1/bn_scale_0 f4 [64]
1.0 1.0 1.0 1.0 1.0 1.0 1.0 1.0
1.0 1.0 1.0 1.0 1.0 1.0 1.0 1.0
1.0 1.0 1.0 1.0 1.0 1.0 1.0 1.0
1.0 1.0 1.0 1.0 1.0 1.0 1.0 1.0
1.0 1.0 1.0 1.0 1.0 1.0 1.0 1.0
1.0 1.0 1.0 1.0 1.0 1.0 1.0 1.0
1.0 1.0 1.0 1.0 1.0 1.0 1.0 1.0
1.0 1.0 1.0 1.0 1.0 1.0 1.0 1.0
00000000: 0000 803f 0000 803f 0000 803f 0000 803f
00000010: 0000 803f 0000 803f 0000 803f 0000 803f
00000020: 0000 803f 0000 803f 0000 803f 0000 803f
00000030: 0000 803f 0000 803f 0000 803f 0000 803f
00000040: 0000 803f 0000 803f 0000 803f 0000 803f
00000050: 0000 803f 0000 803f 0000 803f 0000 803f
00000060: 0000 803f 0000 803f 0000 803f 0000 803f
00000070: 0000 803f 0000 803f 0000 803f 0000 803f
00000080: 0000 803f 0000 803f 0000 803f 0000 803f
00000090: 0000 803f 0000 803f 0000 803f 0000 803f
000000a0: 0000 803f 0000 803f 0000 803f 0000 803f
000000b0: 0000 803f 0000 803f 0000 803f 0000 803f
000000c0: 0000 803f 0000 803f 0000 803f 0000 803f
000000d0: 0000 803f 0000 803f 0000 803f 0000 803f
000000e0: 0000 803f 0000 803f 0000 803f 0000 803f
000000f0: 0000 803f 0000 803f 0000 803f 0000 803f

conv2_1/x1/bn_var_0 f4 [64]
0.00057190936 0.00080954994 0.00097221776 0.0006029007 0.0028965995 0.0026461522 0.0099351145 0.0007507805
6e-45 0.000680733 0.0015317486 0.012556623 0.0006044076 0.009897571 0.0034785848 6e-45
0.0004467766 0.021985352 0.00022877328 0.00064331543 0.00056347606 0.00044842198 0.00073625555 0.073213324
0.0006688162 0.016027885 0.016554156 0.0005759481 0.0007043246 0.00062709465 0.00944544 0.023928119
0.002240564 0.019792547 0.0008175873 0.000840368 0.00055187364 0.00055393926 0.10389575 0.00048146403
0.0006032998 0.0638744 0.014089463 0.0007048234 0.016248584 0.00044772227 0.000659716 0.004486535
0.00068546186 0.00056764786 0.0031439236 0.00042058487 0.00076031097 0.00081594323 0.0006123878 0.0035711415
0.00069172785 0.0005025679 0.000856305 0.027971098 0.0005464292 0.0007675973 0.0006962146 0.0104528535
00000000: 30ec 153a fa37 543a 6edc 7e3a fb0b 1e3a
00000010: e0d4 3d3b 116b 2d3b e4c6 223c 07d0 443a
00000020: 0400 0000 3873 323a f4c4 c83a 4bba 4d3c
00000030: 1c71 1e3a 6c29 223c f8f8 633b 0400 0000
00000040: 573d ea39 a01a b43c dce2 6f39 2ba4 283a
00000050: 3db6 133a 2e1a eb39 4601 413a def0 953d
00000060: 7f53 2f3a e94c 833c 959c 873c 39fb 163a
00000070: 6ca2 383a 9c63 243a 0cc1 1a3c e704 c43c
00000080: 6dd6 123b fb23 a23c 5b53 563a 244c 5c3a
00000090: 9dab 103a 3c36 113a 4cc7 d43d 026d fc39
000000a0: c426 1e3a 95d0 823d 7ed7 663c e6c3 383a
000000b0: c01b 853c 44bc ea39 cbf0 2c3a c903 933b
000000c0: 91b0 333a 34ce 143a 490a 4e3b f281 dc39
000000d0: 9b4f 473a 06e5 553a a688 203a d009 6a3b
000000e0: 1255 353a c3be 033a a879 603a a523 e53c
000000f0: 3e3e 0f3a 9538 493a 2c82 363a 7242 2b3c

conv5_15/x1/bn_var_0 f4 [960]
1.7852137e+25 2.7487011e+20 1.85236e+28 1.8521762e+28 1.2991782e-08 1.6140754e-10 1.03039446e+21 2.8971582e+35
1.7253964e+19 1.8061182e+28 2.749318e+21 1.4344194e-08 1.421365e+34 1.7500166e+28 1.7683469e+31 6.9767185e+22
7.0284577e+28 1.2859587e+19 3.6115577e-09 1.7177344e+19 7.389673e+22 2.7659955e+29 7.555573e+31 7.0283405e+28
1.2859587e+19 3.6115577e-09 1.7177344e+19 3.0597518e+32 1.8468697e+25 4.7231267e-23 1.684219e+22 1.638814e+19
2.7485219e+20 3.2508425e-09 3.059752e+32 3.31266e-18 1.5437723e+25 4.464432e+30 0.0008712449 4.6304164e+27
4.3059586e+21 7.5339587e+28 -4.691027e-19 2.8230735e+21 1.4344194e-08 1.421365e+34 1.7500166e+28 1.1052168e+30
7.5545857e+31 1.69325e+22 7.027853e+28 1.2859587e+19 3.6115577e-09 1.7177344e+19 4.4894184e+21 1.1046333e-32
1.8521681e+28 1.2991782e-08 1.6140754e-10 1.30054065e-08 4.5452803e+30 7.4391774e+28 1.17689385e-32 1.8512044e+28
1.1862105e+27 1.8395174e+25 2.456654e+14 1.8512091e+28 15248.615 7.2249586e+28 1.5519244e+19 1.2090096e+33
1.6222826e-10 4.5268967e+33 1.10517815e+30 7.5545857e+31 1.69325e+22 6.041128e+28 2.604548e+32 1.9432694e+31
1.7181067e+19 6.0464836e+28 1.5045816e+28 1.8395174e+25 2.456654e+14 1.8521762e+28 1.2991782e-08 1.2788023e+19
1.2709008e+19 1.0899118e+27 184.0406 2.5840203e+08 2.5153187e+32 1.8523599e+28 223.3413 61.607845
1.9432697e+31 1.7181067e+19 7.0368356e+28 1.2859587e+19 3.6115577e-09 8.1296564e-10 4.5452803e+30 7.4391774e+28
1.17689385e-32 1.8521675e+28 1.2991782e-08 1.6231703e-10 1.30054065e-08 2.6223277e+20 2.861966e-23 1.2090096e+33
1.6222826e-10 8.079542e+20 1.2853113e+19 7.501805e+28 1.8091496e+25 2.3786354e+12 1.2090071e+33 14617.063
7.2249586e+28 1.4006034e+19 1.2090071e+33 15133.325 7.2249586e+28 2.6034092e+32 1.4006032e+19 1.20541185e+30
2.9777344e+35 1.7852137e+25 2.7487011e+20 1.85236e+28 1.8521762e+28 1.2991782e-08 1.6231703e-10 4.5317228e+33
1.10517815e+30 7.5545857e+31 1.69325e+22 7.0283405e+28 1.2859587e+19 1.4446231e-08 1.7177344e+19 3.0597518e+32
1.8468697e+25 4.7231267e-23 1.8512006e+28 4.3972038e+21 1.7752583e+28 1.6531976e+19 1.1052714e+30 7.5545857e+31
5.4799496e+07 2.6451627e+20 1.8512113e+28 7.182075e-33 7.776372e+31 2.7713096e+20 5.626002e+08 3381.2693
3.809374e-37 6.490963e-36 3.0353499e+32 -1.0934811e-19 3.4332807e-26 6.937364e+22 1.1094623e+27 2.6799737e+20
3.5337608e-38 5.877651e-38 6.9894005e-33 1.6634356e+22 2.0039337 2.0039062 9.751901e-35 1.0386716e-34
1.8319373e+25 3.8030634 -1.0947902e-19 -4.0738486e+22 2.823073e+21 1.4344194e-08 1.421365e+34 1.7500167e+28
1.1052168e+30 7.5545857e+31 1.69325e+22 7.027853e+28 1.2859587e+19 1.4446231e-08 1.7177344e+19 4.4894184e+21
1.1046333e-32 1.8521681e+28 1.2991782e-08 1.6231703e-10 1.30054065e-08 4.5452803e+30 7.4391774e+28 1.17689385e-32
1.8521679e+28 1.2991782e-08 1.286008e+19 1.2709008e+19 1.7444026e+28 7.3908555e+22 2.7308668e+21 1.4344194e-08
1.421365e+34 1.7825021e+19 4.4894178e+21 1.1046333e-32 1.852168e+28 1.2991782e-08 1.286008e+19 1.2709008e+19
7.501805e+28 1.8091496e+25 4.3688633e-28 1.2090096e+33 1.6222826e-10 3.247946e-09 2.6223277e+20 4.4718217e-25
1.2090096e+33 1.6222826e-10 3.247946e-09 4.5452803e+30 7.4391774e+28 7.7128915e-28 1.8521676e+28 1.2991782e-08
1.286008e+19 3.0597516e+32 1.8468697e+25 4.7231267e-23 1.8512006e+28 4.3972038e+21 1.7752583e+28 1.6531976e+19
1.1053101e+30 7.5545857e+31 5.4799496e+07 2.6451627e+20 1.8512113e+28 7.182075e-33 7.776372e+31 2.7713096e+20
5.626002e+08 3381.2693 3.809374e-37 6.490963e-36 3.0353499e+32 -1.0934811e-19 3.4332807e-26 6.937364e+22
00000000: 6545 6c69 6d69 6e61 7469 6f6e 5f63 6f6e
00000010: 7632 5f32 2f78 312f 626e 5f62 5f30 5f7a
00000020: 6572 6f5f 706f 696e 740a 1563 6f6e 7632
00000030: 5f32 2f78 312f 626e 5f32 5f73 6361 6c65
00000040: 0a1a 636f 6e76 325f 322f 7831 2f62 6e5f
00000050: 325f 7a65 726f 5f70 6f69 6e74 1219 636f
00000060: 6e76 325f 322f 7831 2f62 6e5f 325f 7175
00000070: 616e 7469 7a65 641a 1641 6464 5f6e 635f
00000080: 7265 6e61 6d65 5f31 335f 7175 616e 7422
00000090: 0a51 4c69 6e65 6172 4164 643a 0d63 6f6d
000000a0: 2e6d 6963 726f 736f 6674 0aa1 040a 1963
000000b0: 6f6e 7632 5f32 2f78 312f 626e 5f32 5f71
000000c0: 7561 6e74 697a 6564 0a15 636f 6e76 325f
000000d0: 322f 7831 2f62 6e5f 325f 7363 616c 650a
000000e0: 1a63 6f6e 7632 5f32 2f78 312f 626e 5f32
000000f0: 5f7a 6572 6f5f 706f 696e 740a 3743 6f6e
00000100: 764d 756c 4675 7369 6f6e 5f57 5f43 6f6e
00000110: 7642 6e46 7573 696f 6e5f 575f 636f 6e76
00000120: 325f 322f 7831 5f77 5f30 5f71 7561 6e74
00000130: 697a 6564 0a33 436f 6e76 4d75 6c46 7573
00000140: 696f 6e5f 575f 436f 6e76 426e 4675 7369
00000150: 6f6e 5f57 5f63 6f6e 7632 5f32 2f78 315f
00000160: 775f 305f 7363 616c 650a 3843 6f6e 764d
00000170: 756c 4675 7369 6f6e 5f57 5f43 6f6e 7642
00000180: 6e46 7573 696f 6e5f 575f 636f 6e76 325f
00000190: 322f 7831 5f77 5f30 5f7a 6572 6f5f 706f
000001a0: 696e 740a 1563 6f6e 7632 5f32 2f78 322f
000001b0: 626e 5f32 5f73 6361 6c65 0a1a 636f 6e76
000001c0: 325f 322f 7832 2f62 6e5f 325f 7a65 726f
000001d0: 5f70 6f69 6e74 0a54 436f 6e76 4164 6446
000001e0: 7573 696f 6e5f 425f 436f 6e76 4d75 6c46
000001f0: 7573 696f 6e5f 4d75 6c5f 425f 556e 7371
00000200: 7565 657a 6545 6c69 6d69 6e61 7469 6f6e
00000210: 5f63 6f6e 7632 5f32 2f78 322f 626e 5f77
00000220: 5f30 5f71 7561 6e74 697a 6564 1219 636f
00000230: 6e76 325f 322f 7832 2f62 6e5f 325f 7175
00000240: 616e 7469 7a65 641a 1743 6f6e 765f 6e63
00000250: 5f72 656e 616d 655f 3135 5f71 7561 6e74
00000260: 220b 514c 696e 6561 7243 6f6e 762a 150a
00000270: 0861 7574 6f5f 7061 6422 064e 4f54 5345
00000280: 54a0 0103 2a0c 0a05 6772 6f75 7018 01a0
00000290: 0102 2a15 0a0c 6b65 726e 656c 5f73 6861
000002a0: 7065 4001 4001 a001 072a 110a 0470 6164
000002b0: 7340 0040 0040 0040 00a0 0107 2a10 0a07
000002c0: 7374 7269 6465 7340 0140 01a0 0107 0ae5
000002d0: 020a 1963 6f6e 7632 5f32 2f78 322f 626e
000002e0: 5f32 5f71 7561 6e74 697a 6564 0a15 636f
000002f0: 6e76 325f 322f 7832 2f62 6e5f 325f 7363
00000300: 616c 650a 1a63 6f6e 7632 5f32 2f78 322f
00000310: 626e 5f32 5f7a 6572 6f5f 706f 696e 740a
00000320: 1863 6f6e 7632 5f32 2f78 325f 775f 305f
00000330: 7175 616e 7469 7a65 640a 1463 6f6e 7632
00000340: 5f32 2f78 325f 775f 305f 7363 616c 650a
00000350: 1963 6f6e 7632 5f32 2f78 325f 775f 305f
00000360: 7a65 726f 5f70 6f69 6e74 0a12 636f 6e76
00000370: 325f 322f 7832 5f31 5f73 6361 6c65 0a17
00000380: 636f 6e76 325f 322f 7832 5f31 5f7a 6572
00000390: 6f5f 706f 696e 7412 1663 6f6e 7632 5f32
000003a0: 2f78 325f 315f 7175 616e 7469 7a65 641a
000003b0: 1743 6f6e 765f 6e63 5f72 656e 616d 655f
000003c0: 3137 5f71 7561 6e74 220b 514c 696e 6561
000003d0: 7243 6f6e 762a 150a 0861 7574 6f5f 7061
000003e0: 6422 064e 4f54 5345 54a0 0103 2a0c 0a05
000003f0: 6772 6f75 7018 01a0 0102 2a15 0a0c 6b65

conv5_3/x1/bn_mean_0 f4 [576]
2.8236815e+21 1.4344194e-08 1.4214284e+34 1.7500166e+28 1.1051975e+30 7.5545857e+31 1.69325e+22 7.028949e+28
1.2859587e+19 3.6115582e-09 1.7177344e+19 2.6541034e+32 1.8468697e+25 1.5443755e+25 4.464432e+30 2.6500896e+32
1.8468697e+25 1.5443755e+25 4.464432e+30 6.306864e-33 1.852168e+28 2.0786851e-07 1.6140754e-10 3.2513516e-09
2.8297635e+20 3.0304166e+35 2.7948075e-26 1.2090096e+33 1.6404725e-10 8.079362e+20 1.2781055e+19 1.0899118e+27
2.8415476e+21 1.4344194e-08 1.4214284e+34 1.7500166e+28 2.897209e+35 1.7253964e+19 1.8061182e+28 1.2097434e+13
3.0607537e+32 7.3903876e+22 4.515056e+27 7.1442027e+31 1.7181067e+19 1.2090096e+33 1.6404725e-10 8.079362e+20
1.7825087e+19 3.0597514e+32 1.8468697e+25 1.0996886e-32 1.8882662e+31 6.772427e+22 9.545504e+26 1.8060569e+28
7.22507e+28 7.0368465e+28 1.2859587e+19 3.6115582e-09 1.7177344e+19 1.2709008e+19 1.0899118e+27 1.2166138e+13
3.0607537e+32 7.3903876e+22 4.515056e+27 7.1442027e+31 1.7181067e+19 1.2090096e+33 1.6404725e-10 8.079362e+20
1.7825087e+19 7.389672e+22 2.7659955e+29 7.555573e+31 7.028941e+28 1.2859587e+19 3.6115582e-09 1.7177344e+19
7.2143383e+22 1.0901195e+27 1.768316e+31 6.9767185e+22 7.0295457e+28 1.2859587e+19 3.6115582e-09 1.7177344e+19
7.2143383e+22 1.0901195e+27 2.897209e+35 1.7253964e+19 1.8061182e+28 2.9897022e+21 1.4344194e-08 1.4214284e+34
1.7500166e+28 7.5555654e+31 2.749105e+20 1.2781053e+19 1.7444026e+28 7.3908555e+22 1.573945e+08 1.7286568e+28
7.1535766e+22 7.0062382e+22 1.3272776e+19 1.7444026e+28 3.708022e+10 7.03666e+22 2.6043475e+32 2.6052007e+21
3.373918e+27 7.501555e+28 7.3027877e+31 6.306864e-33 1.852169e+28 2.0786851e-07 1.6140754e-10 1.6881983e+25
4.5448206e+30 1.7033016e+19 3.0597516e+32 1.8468697e+25 1.0996886e-32 1.8521686e+28 2.0786851e-07 1.6140754e-10
1.6881983e+25 4.5448206e+30 1.7033016e+19 4.489418e+21 1.1046333e-32 1.8521692e+28 2.0786851e-07 1.6140754e-10
1.6881983e+25 4.5448206e+30 1.7033016e+19 7.3896725e+22 2.7659955e+29 7.555573e+31 1.6494596e+28 7.2442035e+22
3671.6497 1.7938329e+25 1.8464875e+25 4.1215815e+21 1.4344194e-08 1.4214284e+34 1.7500166e+28 8.126672e-10
2.8297635e+20 3.0304166e+35 1.966671e-12 1.20541185e+30 2.9777344e+35 1.7852137e+25 2.7487011e+20 1.85236e+28
1.8521762e+28 2.0786851e-07 1.6140754e-10 1.03039446e+21 1.768285e+31 6.9767185e+22 1.6494898e+28 7.2442035e+22
3671.6497 1.7938329e+25 1.8464875e+25 4.1215815e+21 1.4344194e-08 1.4214284e+34 1.7500166e+28 8.126672e-10
4.5452803e+30 7.4391774e+28 1.17689385e-32 1.8521675e+28 2.0786851e-07 1.6140754e-10 1.30054065e-08 2.6223277e+20
2.861966e-23 1.2090096e+33 1.6404725e-10 8.079362e+20 1.2853113e+19 7.501805e+28 1.8091496e+25 7.571536e-24
1.2090096e+33 1.6404725e-10 8.079362e+20 1.2853113e+19 1.7444026e+28 7.3908555e+22 9.381443 1.728413e+28
7.1535766e+22 7.0062382e+22 1.3344833e+19 1.7444026e+28 3.708022e+10 7.03666e+22 1.4273854e+22 2.6051984e+21
3.373918e+27 7.501555e+28 7.3027877e+31 6.385857e-33 1.852168e+28 2.0786851e-07 1.6140754e-10 1.30054065e-08
2.8297635e+20 3.0304166e+35 2.7948075e-26 1.2090096e+33 1.6404725e-10 8.079362e+20 1.2853113e+19 1.0899118e+27
2.8415476e+21 1.4344194e-08 1.4214284e+34 1.7500166e+28 2.8972596e+35 1.7253964e+19 1.8061182e+28 183.04083
2.5840203e+08 2.5153187e+32 1.8523599e+28 223.3413 61.607845 1.9432697e+31 1.7181067e+19 7.0368356e+28
1.2859587e+19 3.6115582e-09 8.1296564e-10 2.8297635e+20 3.0304166e+35 3.2221937e-08 1.2090071e+33 15133.325
7.2249586e+28 1.5519244e+19 1.2090071e+33 2.5154079e+32 1.8523599e+28 4.1199197e+21 1.4344194e-08 1.4214284e+34
00000000: 7412 1963 6f6e 7632 5f34 2f78 312f 626e
00000010: 5f31 5f71 7561 6e74 697a 6564 1a1e 636f
00000020: 6e76 325f 342f 7831 2f62 6e5f 315f 5175
00000030: 616e 7469 7a65 4c69 6e65 6172 220e 5175
00000040: 616e 7469 7a65 4c69 6e65 6172 0afd 020a
00000050: 1963 6f6e 7632 5f34 2f78 312f 626e 5f31
00000060: 5f71 7561 6e74 697a 6564 0a15 636f 6e76
00000070: 325f 342f 7831 2f62 6e5f 315f 7363 616c
00000080: 650a 1a63 6f6e 7632 5f34 2f78 312f 626e
00000090: 5f31 5f7a 6572 6f5f 706f 696e 740a 3055
000000a0: 6e73 7175 6565 7a65 456c 696d 696e 6174
000000b0: 696f 6e5f 636f 6e76 325f 342f 7831 2f62
000000c0: 6e5f 775f 305f 7175 616e 7469 7a65 640a
000000d0: 2c55 6e73 7175 6565 7a65 456c 696d 696e
000000e0: 6174 696f 6e5f 636f 6e76 325f 342f 7831
000000f0: 2f62 6e5f 775f 305f 7363 616c 650a 3155
00000100: 6e73 7175 6565 7a65 456c 696d 696e 6174
00000110: 696f 6e5f 636f 6e76 325f 342f 7831 2f62
00000120: 6e5f 775f 305f 7a65 726f 5f70 6f69 6e74
00000130: 0a1e 636f 6e76 325f 342f 7831 2f62 6e5f
00000140: 696e 7465 726e 616c 5f31 5f73 6361 6c65
00000150: 0a23 636f 6e76 325f 342f 7831 2f62 6e5f
00000160: 696e 7465 726e 616c 5f31 5f7a 6572 6f5f
00000170: 706f 696e 7412 2263 6f6e 7632 5f34 2f78
00000180: 312f 626e 5f69 6e74 6572 6e61 6c5f 315f
00000190: 7175 616e 7469 7a65 641a 164d 756c 5f6e
000001a0: 635f 7265 6e61 6d65 5f32 385f 7175 616e
000001b0: 7422 0a51 4c69 6e65 6172 4d75 6c3a 0d63
000001c0: 6f6d 2e6d 6963 726f 736f 6674 0afd 020a
000001d0: 2263 6f6e 7632 5f34 2f78 312f 626e 5f69
000001e0: 6e74 6572 6e61 6c5f 315f 7175 616e 7469
000001f0: 7a65 640a 1e63 6f6e 7632 5f34 2f78 312f
00000200: 626e 5f69 6e74 6572 6e61 6c5f 315f 7363
00000210: 616c 650a 2363 6f6e 7632 5f34 2f78 312f
00000220: 626e 5f69 6e74 6572 6e61 6c5f 315f 7a65
00000230: 726f 5f70 6f69 6e74 0a30 556e 7371 7565
00000240: 657a 6545 6c69 6d69 6e61 7469 6f6e 5f63
00000250: 6f6e 7632 5f34 2f78 312f 626e 5f62 5f30
00000260: 5f71 7561 6e74 697a 6564 0a2c 556e 7371
00000270: 7565 657a 6545 6c69 6d69 6e61 7469 6f6e
00000280: 5f63 6f6e 7632 5f34 2f78 312f 626e 5f62
00000290: 5f30 5f73 6361 6c65 0a31 556e 7371 7565
000002a0: 657a 6545 6c69 6d69 6e61 7469 6f6e 5f63
000002b0: 6f6e 7632 5f34 2f78 312f 626e 5f62 5f30
000002c0: 5f7a 6572 6f5f 706f 696e 740a 1563 6f6e
000002d0: 7632 5f34 2f78 312f 626e 5f32 5f73 6361
000002e0: 6c65 0a1a 636f 6e76 325f 342f 7831 2f62
000002f0: 6e5f 325f 7a65 726f 5f70 6f69 6e74 1219
00000300: 636f 6e76 325f 342f 7831 2f62 6e5f 325f
00000310: 7175 616e 7469 7a65 641a 1641 6464 5f6e
00000320: 635f 7265 6e61 6d65 5f32 395f 7175 616e
00000330: 7422 0a51 4c69 6e65 6172 4164 643a 0d63
00000340: 6f6d 2e6d 6963 726f 736f 6674 0aa1 040a
00000350: 1963 6f6e 7632 5f34 2f78 312f 626e 5f32
00000360: 5f71 7561 6e74 697a 6564 0a15 636f 6e76
00000370: 325f 342f 7831 2f62 6e5f 325f 7363 616c
00000380: 650a 1a63 6f6e 7632 5f34 2f78 312f 626e
00000390: 5f32 5f7a 6572 6f5f 706f 696e 740a 3743
000003a0: 6f6e 764d 756c 4675 7369 6f6e 5f57 5f43
000003b0: 6f6e 7642 6e46 7573 696f 6e5f 575f 636f
000003c0: 6e76 325f 342f 7831 5f77 5f30 5f71 7561
000003d0: 6e74 697a 6564 0a33 436f 6e76 4d75 6c46
000003e0: 7573 696f 6e5f 575f 436f 6e76 426e 4675
000003f0: 7369 6f6e 5f57 5f63 6f6e 7632 5f34 2f78

conv2_2/x1/bn_bias_0 f4 [96]
0.0 0.0 0.0 0.0 0.0 0.0 0.0 0.0
0.0 0.0 0.0 0.0 0.0 0.0 0.0 0.0
0.0 0.0 0.0 0.0 0.0 0.0 0.0 0.0
0.0 0.0 0.0 0.0 0.0 0.0 0.0 0.0
0.0 0.0 0.0 0.0 0.0 0.0 0.0 0.0
0.0 0.0 0.0 0.0 0.0 0.0 0.0 0.0
0.0 0.0 0.0 0.0 0.0 0.0 0.0 0.0
0.0 0.0 0.0 0.0 0.0 0.0 0.0 0.0
0.0 0.0 0.0 0.0 0.0 0.0 0.0 0.0
0.0 0.0 0.0 0.0 0.0 0.0 0.0 0.0
0.0 0.0 0.0 0.0 0.0 0.0 0.0 0.0
0.0 0.0 0.0 0.0 0.0 0.0 0.0 0.0
00000000: 0000 0000 0000 0000 0000 0000 0000 0000
00000010: 0000 0000 0000 0000 0000 0000 0000 0000
00000020: 0000 0000 0000 0000 0000 0000 0000 0000
00000030: 0000 0000 0000 0000 0000 0000 0000 0000
00000040: 0000 0000 0000 0000 0000 0000 0000 0000
00000050: 0000 0000 0000 0000 0000 0000 0000 0000
00000060: 0000 0000 0000 0000 0000 0000 0000 0000
00000070: 0000 0000 0000 0000 0000 0000 0000 0000
00000080: 0000 0000 0000 0000 0000 0000 0000 0000
00000090: 0000 0000 0000 0000 0000 0000 0000 0000
000000a0: 0000 0000 0000 0000 0000 0000 0000 0000
000000b0: 0000 0000 0000 0000 0000 0000 0000 0000
000000c0: 0000 0000 0000 0000 0000 0000 0000 0000
000000d0: 0000 0000 0000 0000 0000 0000 0000 0000
000000e0: 0000 0000 0000 0000 0000 0000 0000 0000
000000f0: 0000 0000 0000 0000 0000 0000 0000 0000
00000100: 0000 0000 0000 0000 0000 0000 0000 0000
00000110: 0000 0000 0000 0000 0000 0000 0000 0000
00000120: 0000 0000 0000 0000 0000 0000 0000 0000
00000130: 0000 0000 0000 0000 0000 0000 0000 0000
00000140: 0000 0000 0000 0000 0000 0000 0000 0000
00000150: 0000 0000 0000 0000 0000 0000 0000 0000
00000160: 0000 0000 0000 0000 0000 0000 0000 0000
00000170: 0000 0000 0000 0000 0000 0000 0000 0000

conv2_2/x1/bn_mean_0 f4 [96]
0.1092526 0.059124026 0.051328134 0.098173805 0.10332701 0.087848425 0.090944566 0.051059823
6e-45 0.07605515 0.09331549 0.13851134 0.05660343 0.14930251 0.18366349 6e-45
0.053188145 0.29084125 0.1970734 0.05468881 0.05985406 0.051923312 0.044975214 0.26759252
0.04940072 0.23740514 0.14108257 0.053048104 0.06673539 0.06204385 0.07041234 0.25565493
0.18425633 0.19761935 0.10529262 0.049591664 0.042727172 0.05009208 0.3918669 0.04410284
0.050541963 0.25966513 0.19554076 0.05731154 0.1571434 0.071759805 0.055693846 0.16600509
0.08461176 0.071794525 0.08137176 0.07023369 0.049139116 0.06501286 0.049038734 0.1666034
0.054673668 0.06919316 0.062165618 0.23157366 0.048209324 0.05045631 0.05630298 0.2098006
0.12743819 -0.05098666 0.34657332 0.024779513 -0.093824536 0.08628916 -0.024772268 0.09584785
0.088843025 0.07927144 0.21778965 -0.32137224 0.29349604 -0.022181626 -0.078808025 -0.04353658
0.09499374 -0.05657666 0.13591804 0.45069057 0.21851073 -0.25404334 -0.4694381 -0.007622932
0.111089386 0.10571562 0.05852459 -0.105134904 0.10447782 -0.8300085 -0.0055496716 -0.04132012
00000000: d4bf df3d 092c 723d 733d 523d 590f c93d
00000010: 1d9d d33d e0e9 b33d 2541 ba3d 1b24 513d
00000020: 0400 0000 cdc2 9b3d 311c bf3d ebd5 0d3e
00000030: 00d9 673d c2e2 183e 4812 3c3e 0400 0000
00000040: d0db 593d 25e9 943e 9ccd 493e 6001 603d
00000050: 8829 753d 8aad 543d ee37 383d e301 893e
00000060: 6958 4a3d 551a 733e f377 103e f848 593d
00000070: 90ac 883d b121 7e3d 5834 903d 34e5 823e
00000080: b1ad 3c3e ba5c 4a3e a8a3 d73d a120 4b3d
00000090: b002 2f3d 5a2d 4d3d c7a2 c83e 2ea5 343d
000000a0: 1705 4f3d d4f2 843e d63b 483e 81bf 6a3d
000000b0: 33ea 203e cef6 923d 3b1f 643d 3dfd 293e
000000c0: ee48 ad3d 0209 933d 3da6 a63d aed6 8f3d
000000d0: 1946 493d 7625 853d d7dc 483d 159a 2a3e
000000e0: 7ff1 5f3d 25b5 8d3d 60a1 7e3d a521 6d3e
000000f0: 2477 453d 47ab 4e3d f49d 663d f8d5 563e
00000100: 287f 023e 63d7 50bd 0f72 b13e 68fe ca3c
00000110: 1427 c0bd 5fb8 b03d 36ef cabc e14b c43d
00000120: 55f3 b53d 1159 a23d 4004 5f3e e78a a4be
00000130: 1d45 963e 3eb6 b5bc 1a66 a1bd 6a53 32bd
00000140: 148c c23d eebc 67bd 192e 0b3e eac0 e63e
00000150: 47c1 5f3e f811 82be 315a f0be cac9 f9bb
00000160: d582 e33d 6e81 d83d 7bb7 6f3d f850 d7bd
00000170: 78f8 d53d 707b 54bf 05da b5bb 493f 29bd

conv2_2/x1/bn_scale_0 f4 [96]
1.0 1.0 1.0 1.0 1.0 1.0 1.0 1.0
1.0 1.0 1.0 1.0 1.0 1.0 1.0 1.0
1.0 1.0 1.0 1.0 1.0 1.0 1.0 1.0
1.0 1.0 1.0 1.0 1.0 1.0 1.0 1.0
1.0 1.0 1.0 1.0 1.0 1.0 1.0 1.0
1.0 1.0 1.0 1.0 1.0 1.0 1.0 1.0
1.0 1.0 1.0 1.0 1.0 1.0 1.0 1.0
1.0 1.0 1.0 1.0 1.0 1.0 1.0 1.0
1.0 1.0 1.0 1.0 1.0 1.0 1.0 1.0
1.0 1.0 1.0 1.0 1.0 1.0 1.0 1.0
1.0 1.0 1.0 1.0 1.0 1.0 1.0 1.0
1.0 1.0 1.0 1.0 1.0 1.0 1.0 1.0
00000000: 0000 803f 0000 803f 0000 803f 0000 803f
00000010: 0000 803f 0000 803f 0000 803f 0000 803f
00000020: 0000 803f 0000 803f 0000 803f 0000 803f
00000030: 0000 803f 0000 803f 0000 803f 0000 803f
00000040: 0000 803f 0000 803f 0000 803f 0000 803f
00000050: 0000 803f 0000 803f 0000 803f 0000 803f
00000060: 0000 803f 0000 803f 0000 803f 0000 803f
00000070: 0000 803f 0000 803f 0000 803f 0000 803f
00000080: 0000 803f 0000 803f 0000 803f 0000 803f
00000090: 0000 803f 0000 803f 0000 803f 0000 803f
000000a0: 0000 803f 0000 803f 0000 803f 0000 803f
000000b0: 0000 803f 0000 803f 0000 803f 0000 803f
000000c0: 0000 803f 0000 803f 0000 803f 0000 803f
000000d0: 0000 803f 0000 803f 0000 803f 0000 803f
000000e0: 0000 803f 0000 803f 0000 803f 0000 803f
000000f0: 0000 803f 0000 803f 0000 803f 0000 803f
00000100: 0000 803f 0000 803f 0000 803f 0000 803f
00000110: 0000 803f 0000 803f 0000 803f 0000 803f
00000120: 0000 803f 0000 803f 0000 803f 0000 803f
00000130: 0000 803f 0000 803f 0000 803f 0000 803f
00000140: 0000 803f 0000 803f 0000 803f 0000 803f
00000150: 0000 803f 0000 803f 0000 803f 0000 803f
00000160: 0000 803f 0000 803f 0000 803f 0000 803f
00000170: 0000 803f 0000 803f 0000 803f 0000 803f

conv2_2/x1/bn_var_0 f4 [96]
0.00057190936 0.00080954994 0.00097221776 0.0006029007 0.0028965995 0.0026461522 0.0099351145 0.0007507805
6e-45 0.000680733 0.0015317486 0.012556623 0.0006044076 0.009897571 0.0034785848 6e-45
0.0004467766 0.021985352 0.00022877328 0.00064331543 0.00056347606 0.00044842198 0.00073625555 0.073213324
0.0006688162 0.016027885 0.016554156 0.0005759481 0.0007043246 0.00062709465 0.00944544 0.023928119
0.002240564 0.019792547 0.0008175873 0.000840368 0.00055187364 0.00055393926 0.10389575 0.00048146403
0.0006032998 0.0638744 0.014089463 0.0007048234 0.016248584 0.00044772227 0.000659716 0.004486535
0.00068546186 0.00056764786 0.0031439236 0.00042058487 0.00076031097 0.00081594323 0.0006123878 0.0035711415
0.00069172785 0.0005025679 0.000856305 0.027971098 0.0005464292 0.0007675973 0.0006962146 0.0104528535
0.169049 0.013807899 0.104619026 0.01609053 0.014785247 0.04206979 0.02797148 0.11811961
0.08306408 0.119283386 0.07311621 0.042110913 0.025424926 0.10074868 0.03754459 0.01402262
0.05678648 0.059593476 0.12200078 0.07858134 0.027750568 0.04830632 0.01915473 0.032486953
0.16602471 0.08792365 0.018421117 0.009251139 0.16287999 0.021838887 0.08412379 0.10106467
00000000: 30ec 153a fa37 543a 6edc 7e3a fb0b 1e3a
00000010: e0d4 3d3b 116b 2d3b e4c6 223c 07d0 443a
00000020: 0400 0000 3873 323a f4c4 c83a 4bba 4d3c
00000030: 1c71 1e3a 6c29 223c f8f8 633b 0400 0000
00000040: 573d ea39 a01a b43c dce2 6f39 2ba4 283a
00000050: 3db6 133a 2e1a eb39 4601 413a def0 953d
00000060: 7f53 2f3a e94c 833c 959c 873c 39fb 163a
00000070: 6ca2 383a 9c63 243a 0cc1 1a3c e704 c43c
00000080: 6dd6 123b fb23 a23c 5b53 563a 244c 5c3a
00000090: 9dab 103a 3c36 113a 4cc7 d43d 026d fc39
000000a0: c426 1e3a 95d0 823d 7ed7 663c e6c3 383a
000000b0: c01b 853c 44bc ea39 cbf0 2c3a c903 933b
000000c0: 91b0 333a 34ce 143a 490a 4e3b f281 dc39
000000d0: 9b4f 473a 06e5 553a a688 203a d009 6a3b
000000e0: 1255 353a c3be 033a a879 603a a523 e53c
000000f0: 3e3e 0f3a 9538 493a 2c82 363a 7242 2b3c
00000100: 2e1b 2d3e 873a 623c 8042 d63d 4ad0 833c
00000110: d23d 723c 5f51 2c3d 7224 e53c b2e8 f13d
00000120: 801d aa3d d94a f43d f4bd 953d 7e7c 2c3d
00000130: ef47 d03c 5355 ce3d 5bc8 193d 22bf 653c
00000140: f198 683d 4a18 743d 8cdb f93d 41ef a03d
00000150: 2955 e33c d9dc 453d 61ea 9c3c 0a11 053d
00000160: 6202 2a3e 5111 b43d e2e7 963c 1792 173c
00000170: 03ca 263e 77e7 b23c 1849 ac3d fefa ce3d

conv4_6/x1/bn_bias_0 f4 [416]
7.5545857e+31 6.0156324e+07 2.6451627e+20 3.8153953e+10 7.5545857e+31 6.0156324e+07 2.6451627e+20 3.7181004e-37
7.0283368e+28 1.2859587e+19 3.6115584e-09 1.7177344e+19 3.0597516e+32 1.8468697e+25 1.0996886e-32 1.8521675e+28
8.3147404e-07 1.6140754e-10 3.2513516e-09 2.6223277e+20 2.861966e-23 1.2090096e+33 1.6495674e-10 8.079362e+20
1.2781055e+19 7.501805e+28 1.8091496e+25 5.0369564e-10 1.20541185e+30 2.9777344e+35 1.7852137e+25 2.7487011e+20
1.85236e+28 1.8521762e+28 8.3147404e-07 1.6140754e-10 4.5317228e+33 1.10517815e+30 7.5545857e+31 1.69325e+22
1.6493387e+28 7.2442035e+22 3671.6497 1.7938329e+25 1.8464875e+25 4.1215815e+21 1.4344194e-08 1.4214601e+34
1.7500166e+28 8.1296564e-10 2.6223277e+20 2.0139295e-09 1.20541185e+30 2.9777344e+35 1.7852137e+25 2.7487011e+20
1.85236e+28 1.8521762e+28 8.3147404e-07 1.6140754e-10 4.5317228e+33 2.8971582e+35 1.7253964e+19 1.8061182e+28
2.9153388e+21 1.4344194e-08 1.4214601e+34 1.7500166e+28 7.5555654e+31 2.749105e+20 1.2781053e+19 1.0899118e+27
3.0075683e+21 1.4344194e-08 1.4214601e+34 1.7500166e+28 7.5555654e+31 2.749105e+20 1.2781053e+19 7.501805e+28
1.8091496e+25 1.9848327e-18 1.2090096e+33 1.6495674e-10 8.079362e+20 1.8056344e+28 1.8754505e+28 3.2512377e-09
2.8297635e+20 3.0304166e+35 1.24717e-25 1.7038609e+19 4.424663e+30 4.360474e+27 2.6728605e-06 2.8297635e+20
7.821914e-33 1.8050567e+28 2.5415432e+08 5.7446226e-31 5.3986492e-11 4.504355e+30 2.8269374e+23 3.7181009e-37
7.029425e+28 1.2859587e+19 3.6115584e-09 1.7177344e+19 7.2143383e+22 1.0901195e+27 1.1051975e+30 7.5545857e+31
1.69325e+22 7.028941e+28 1.2859587e+19 3.6115584e-09 1.7177344e+19 7.2143383e+22 1.0901195e+27 1.768316e+31
6.9767185e+22 7.0295457e+28 1.2859587e+19 3.6115584e-09 1.7177344e+19 7.2143383e+22 1.0901195e+27 2.897209e+35
1.7253964e+19 1.8061182e+28 1.2097434e+13 3.0607537e+32 7.3903876e+22 4.515056e+27 7.1442027e+31 1.7181067e+19
1.2090096e+33 1.6495674e-10 8.079362e+20 1.6311877e+19 3.0597514e+32 1.8468697e+25 1.0996886e-32 1.8882662e+31
6.772427e+22 9.545504e+26 1.8060569e+28 7.22507e+28 7.0368465e+28 1.2859587e+19 3.6115584e-09 1.7177344e+19
1.2708984e+19 1.0899118e+27 1.2166138e+13 3.0607537e+32 7.3903876e+22 4.515056e+27 7.1442027e+31 1.7181067e+19
1.2090096e+33 1.6495674e-10 8.079362e+20 1.6311877e+19 7.389672e+22 2.7659955e+29 7.555573e+31 7.027853e+28
1.2859587e+19 3.6115584e-09 1.7177344e+19 4.4894184e+21 1.1046333e-32 1.8521681e+28 8.3147404e-07 1.6140754e-10
1.30054065e-08 4.5452803e+30 7.4391774e+28 7.7128915e-28 1.852168e+28 8.3147404e-07 1.6140754e-10 1.30054065e-08
2.8297635e+20 3.0304166e+35 1.24717e-25 1.645735e+19 4.424663e+30 4.360474e+27 1.0691442e-05 2.8297635e+20
7.821914e-33 1.8050567e+28 15.148778 5.7436516e-31 5.3986492e-11 4.504355e+30 2.8269374e+23 3.7860518e-36
7.0283368e+28 1.2859587e+19 3.6115584e-09 1.7177344e+19 3.0597518e+32 1.8468697e+25 1.0996886e-32 1.8521675e+28
8.3147404e-07 1.6140754e-10 1.30054065e-08 2.6223277e+20 2.861966e-23 1.2090096e+33 1.6495674e-10 8.079362e+20
1.2853113e+19 7.501805e+28 1.8091496e+25 8.252549e-06 1.2090071e+33 15133.325 7.2249586e+28 1.5519244e+19
1.2090071e+33 2.5154079e+32 1.8523599e+28 4.1199197e+21 1.4344194e-08 1.4214601e+34 1.782502e+19 3.0597514e+32
1.8468697e+25 1.0996886e-32 1.8512039e+28 1.1862105e+27 1.8395174e+25 2.456654e+14 1.8512091e+28 15248.615
7.2249586e+28 1.5519244e+19 1.2090096e+33 1.6495674e-10 4.5268967e+33 1.768285e+31 6.9767185e+22 6.0417324e+28
2.604548e+32 1.9432694e+31 1.7181067e+19 6.0464836e+28 1.5045816e+28 1.8395174e+25 2.456654e+14 1.8521762e+28
00000000: 7561 6e74 697a 654c 696e 6561 7222 0e51
00000010: 7561 6e74 697a 654c 696e 6561 720a fd02
00000020: 0a19 636f 6e76 325f 352f 7831 2f62 6e5f
00000030: 315f 7175 616e 7469 7a65 640a 1563 6f6e
00000040: 7632 5f35 2f78 312f 626e 5f31 5f73 6361
00000050: 6c65 0a1a 636f 6e76 325f 352f 7831 2f62
00000060: 6e5f 315f 7a65 726f 5f70 6f69 6e74 0a30
00000070: 556e 7371 7565 657a 6545 6c69 6d69 6e61
00000080: 7469 6f6e 5f63 6f6e 7632 5f35 2f78 312f
00000090: 626e 5f77 5f30 5f71 7561 6e74 697a 6564
000000a0: 0a2c 556e 7371 7565 657a 6545 6c69 6d69
000000b0: 6e61 7469 6f6e 5f63 6f6e 7632 5f35 2f78
000000c0: 312f 626e 5f77 5f30 5f73 6361 6c65 0a31
000000d0: 556e 7371 7565 657a 6545 6c69 6d69 6e61
000000e0: 7469 6f6e 5f63 6f6e 7632 5f35 2f78 312f
000000f0: 626e 5f77 5f30 5f7a 6572 6f5f 706f 696e
00000100: 740a 1e63 6f6e 7632 5f35 2f78 312f 626e
00000110: 5f69 6e74 6572 6e61 6c5f 315f 7363 616c
00000120: 650a 2363 6f6e 7632 5f35 2f78 312f 626e
00000130: 5f69 6e74 6572 6e61 6c5f 315f 7a65 726f
00000140: 5f70 6f69 6e74 1222 636f 6e76 325f 352f
00000150: 7831 2f62 6e5f 696e 7465 726e 616c 5f31
00000160: 5f71 7561 6e74 697a 6564 1a16 4d75 6c5f
00000170: 6e63 5f72 656e 616d 655f 3336 5f71 7561
00000180: 6e74 220a 514c 696e 6561 724d 756c 3a0d
00000190: 636f 6d2e 6d69 6372 6f73 6f66 740a fd02
000001a0: 0a22 636f 6e76 325f 352f 7831 2f62 6e5f
000001b0: 696e 7465 726e 616c 5f31 5f71 7561 6e74
000001c0: 697a 6564 0a1e 636f 6e76 325f 352f 7831
000001d0: 2f62 6e5f 696e 7465 726e 616c 5f31 5f73
000001e0: 6361 6c65 0a23 636f 6e76 325f 352f 7831
000001f0: 2f62 6e5f 696e 7465 726e 616c 5f31 5f7a
00000200: 6572 6f5f 706f 696e 740a 3055 6e73 7175
00000210: 6565 7a65 456c 696d 696e 6174 696f 6e5f
00000220: 636f 6e76 325f 352f 7831 2f62 6e5f 625f
00000230: 305f 7175 616e 7469 7a65 640a 2c55 6e73
00000240: 7175 6565 7a65 456c 696d 696e 6174 696f
00000250: 6e5f 636f 6e76 325f 352f 7831 2f62 6e5f
00000260: 625f 305f 7363 616c 650a 3155 6e73 7175
00000270: 6565 7a65 456c 696d 696e 6174 696f 6e5f
00000280: 636f 6e76 325f 352f 7831 2f62 6e5f 625f
00000290: 305f 7a65 726f 5f70 6f69 6e74 0a15 636f
000002a0: 6e76 325f 352f 7831 2f62 6e5f 325f 7363
000002b0: 616c 650a 1a63 6f6e 7632 5f35 2f78 312f
000002c0: 626e 5f32 5f7a 6572 6f5f 706f 696e 7412
000002d0: 1963 6f6e 7632 5f35 2f78 312f 626e 5f32
000002e0: 5f71 7561 6e74 697a 6564 1a16 4164 645f
000002f0: 6e63 5f72 656e 616d 655f 3337 5f71 7561
00000300: 6e74 220a 514c 696e 6561 7241 6464 3a0d
00000310: 636f 6d2e 6d69 6372 6f73 6f66 740a a104
00000320: 0a19 636f 6e76 325f 352f 7831 2f62 6e5f
00000330: 325f 7175 616e 7469 7a65 640a 1563 6f6e
00000340: 7632 5f35 2f78 312f 626e 5f32 5f73 6361
00000350: 6c65 0a1a 636f 6e76 325f 352f 7831 2f62
00000360: 6e5f 325f 7a65 726f 5f70 6f69 6e74 0a37
00000370: 436f 6e76 4d75 6c46 7573 696f 6e5f 575f
00000380: 436f 6e76 426e 4675 7369 6f6e 5f57 5f63
00000390: 6f6e 7632 5f35 2f78 315f 775f 305f 7175
000003a0: 616e 7469 7a65 640a 3343 6f6e 764d 756c
000003b0: 4675 7369 6f6e 5f57 5f43 6f6e 7642 6e46
000003c0: 7573 696f 6e5f 575f 636f 6e76 325f 352f
000003d0: 7831 5f77 5f30 5f73 6361 6c65 0a38 436f
000003e0: 6e76 4d75 6c46 7573 696f 6e5f 575f 436f
000003f0: 6e76 426e 4675 7369 6f6e 5f57 5f63 6f6e

conv2_3/x1/bn_bias_0 f4 [128]
0.0 0.0 0.0 0.0 0.0 0.0 0.0 0.0
0.0 0.0 0.0 0.0 0.0 0.0 0.0 0.0
0.0 0.0 0.0 0.0 0.0 0.0 0.0 0.0
0.0 0.0 0.0 0.0 0.0 0.0 0.0 0.0
0.0 0.0 0.0 0.0 0.0 0.0 0.0 0.0
0.0 0.0 0.0 0.0 0.0 0.0 0.0 0.0
0.0 0.0 0.0 0.0 0.0 0.0 0.0 0.0
0.0 0.0 0.0 0.0 0.0 0.0 0.0 0.0
0.0 0.0 0.0 0.0 0.0 0.0 0.0 0.0
0.0 0.0 0.0 0.0 0.0 0.0 0.0 0.0
0.0 0.0 0.0 0.0 0.0 0.0 0.0 0.0
0.0 0.0 0.0 0.0 0.0 0.0 0.0 0.0
0.0 0.0 0.0 0.0 0.0 0.0 0.0 0.0
0.0 0.0 0.0 0.0 0.0 0.0 0.0 0.0
0.0 0.0 0.0 0.0 0.0 0.0 0.0 0.0
0.0 0.0 0.0 0.0 0.0 0.0 0.0 0.0
00000000: 0000 0000 0000 0000 0000 0000 0000 0000
00000010: 0000 0000 0000 0000 0000 0000 0000 0000
00000020: 0000 0000 0000 0000 0000 0000 0000 0000
00000030: 0000 0000 0000 0000 0000 0000 0000 0000
00000040: 0000 0000 0000 0000 0000 0000 0000 0000
00000050: 0000 0000 0000 0000 0000 0000 0000 0000
00000060: 0000 0000 0000 0000 0000 0000 0000 0000
00000070: 0000 0000 0000 0000 0000 0000 0000 0000
00000080: 0000 0000 0000 0000 0000 0000 0000 0000
00000090: 0000 0000 0000 0000 0000 0000 0000 0000
000000a0: 0000 0000 0000 0000 0000 0000 0000 0000
000000b0: 0000 0000 0000 0000 0000 0000 0000 0000
000000c0: 0000 0000 0000 0000 0000 0000 0000 0000
000000d0: 0000 0000 0000 0000 0000 0000 0000 0000
000000e0: 0000 0000 0000 0000 0000 0000 0000 0000
000000f0: 0000 0000 0000 0000 0000 0000 0000 0000
00000100: 0000 0000 0000 0000 0000 0000 0000 0000
00000110: 0000 0000 0000 0000 0000 0000 0000 0000
00000120: 0000 0000 0000 0000 0000 0000 0000 0000
00000130: 0000 0000 0000 0000 0000 0000 0000 0000
00000140: 0000 0000 0000 0000 0000 0000 0000 0000
00000150: 0000 0000 0000 0000 0000 0000 0000 0000
00000160: 0000 0000 0000 0000 0000 0000 0000 0000
00000170: 0000 0000 0000 0000 0000 0000 0000 0000
00000180: 0000 0000 0000 0000 0000 0000 0000 0000
00000190: 0000 0000 0000 0000 0000 0000 0000 0000
000001a0: 0000 0000 0000 0000 0000 0000 0000 0000
000001b0: 0000 0000 0000 0000 0000 0000 0000 0000
000001c0: 0000 0000 0000 0000 0000 0000 0000 0000
000001d0: 0000 0000 0000 0000 0000 0000 0000 0000
000001e0: 0000 0000 0000 0000 0000 0000 0000 0000
000001f0: 0000 0000 0000 0000 0000 0000 0000 0000

conv2_3/x1/bn_mean_0 f4 [128]
0.1092526 0.059124026 0.051328134 0.098173805 0.10332701 0.087848425 0.090944566 0.051059823
6e-45 0.07605515 0.09331549 0.13851134 0.05660343 0.14930251 0.18366349 6e-45
0.053188145 0.29084125 0.1970734 0.05468881 0.05985406 0.051923312 0.044975214 0.26759252
0.04940072 0.23740514 0.14108257 0.053048104 0.06673539 0.06204385 0.07041234 0.25565493
0.18425633 0.19761935 0.10529262 0.049591664 0.042727172 0.05009208 0.3918669 0.04410284
0.050541963 0.25966513 0.19554076 0.05731154 0.1571434 0.071759805 0.055693846 0.16600509
0.08461176 0.071794525 0.08137176 0.07023369 0.049139116 0.06501286 0.049038734 0.1666034
0.054673668 0.06919316 0.062165618 0.23157366 0.048209324 0.05045631 0.05630298 0.2098006
0.12743819 -0.05098666 0.34657332 0.024779513 -0.093824536 0.08628916 -0.024772268 0.09584785
0.088843025 0.07927144 0.21778965 -0.32137224 0.29349604 -0.022181626 -0.078808025 -0.04353658
0.09499374 -0.05657666 0.13591804 0.45069057 0.21851073 -0.25404334 -0.4694381 -0.007622932
0.111089386 0.10571562 0.05852459 -0.105134904 0.10447782 -0.8300085 -0.0055496716 -0.04132012
-0.26041672 -0.21207592 -0.12684277 -0.10799586 -0.120275706 0.1534141 -0.13122517 -0.30917725
-0.16129054 -0.1051151 -0.09965476 -0.06762414 -0.01879036 -0.048365362 -0.111061834 -0.19017304
-0.044854395 -0.01160247 -0.4347433 -0.11613413 -0.09699036 0.016436627 -0.38861164 -0.04214979
0.2196025 0.07904465 -0.3454466 -0.4159046 -0.12773186 -0.15345214 -0.024674963 -0.048640583
00000000: d4bf df3d 092c 723d 733d 523d 590f c93d
00000010: 1d9d d33d e0e9 b33d 2541 ba3d 1b24 513d
00000020: 0400 0000 cdc2 9b3d 311c bf3d ebd5 0d3e
00000030: 00d9 673d c2e2 183e 4812 3c3e 0400 0000
00000040: d0db 593d 25e9 943e 9ccd 493e 6001 603d
00000050: 8829 753d 8aad 543d ee37 383d e301 893e
00000060: 6958 4a3d 551a 733e f377 103e f848 593d
00000070: 90ac 883d b121 7e3d 5834 903d 34e5 823e
00000080: b1ad 3c3e ba5c 4a3e a8a3 d73d a120 4b3d
00000090: b002 2f3d 5a2d 4d3d c7a2 c83e 2ea5 343d
000000a0: 1705 4f3d d4f2 843e d63b 483e 81bf 6a3d
000000b0: 33ea 203e cef6 923d 3b1f 643d 3dfd 293e
000000c0: ee48 ad3d 0209 933d 3da6 a63d aed6 8f3d
000000d0: 1946 493d 7625 853d d7dc 483d 159a 2a3e
000000e0: 7ff1 5f3d 25b5 8d3d 60a1 7e3d a521 6d3e
000000f0: 2477 453d 47ab 4e3d f49d 663d f8d5 563e
00000100: 287f 023e 63d7 50bd 0f72 b13e 68fe ca3c
00000110: 1427 c0bd 5fb8 b03d 36ef cabc e14b c43d
00000120: 55f3 b53d 1159 a23d 4004 5f3e e78a a4be
00000130: 1d45 963e 3eb6 b5bc 1a66 a1bd 6a53 32bd
00000140: 148c c23d eebc 67bd 192e 0b3e eac0 e63e
00000150: 47c1 5f3e f811 82be 315a f0be cac9 f9bb
00000160: d582 e33d 6e81 d83d 7bb7 6f3d f850 d7bd
00000170: 78f8 d53d 707b 54bf 05da b5bb 493f 29bd
00000180: 5755 85be 6e2a 59be 12e3 01be ef2c ddbd
00000190: 1c53 f6bd 9618 1d3e e45f 06be 7b4c 9ebe
000001a0: 5929 25be 9646 d7bd cb17 ccbd 867e 8abd
000001b0: 3eee 99bc c21a 46bd 6374 e3bd b9bc 42be
000001c0: 3eb9 37bd 4918 3ebc ac96 debe bbd7 edbd
000001d0: e2a2 c6bd 1ba6 863c 1bf8 c6be 42a5 2cbd
000001e0: 7adf 603e 29e2 a13d 60de b0be 73f1 d4be
000001f0: 24cc 02be 8f22 1dbe 2623 cabc 593b 47bd

conv2_3/x1/bn_scale_0 f4 [128]
1.0 1.0 1.0 1.0 1.0 1.0 1.0 1.0
1.0 1.0 1.0 1.0 1.0 1.0 1.0 1.0
1.0 1.0 1.0 1.0 1.0 1.0 1.0 1.0
1.0 1.0 1.0 1.0 1.0 1.0 1.0 1.0
1.0 1.0 1.0 1.0 1.0 1.0 1.0 1.0
1.0 1.0 1.0 1.0 1.0 1.0 1.0 1.0
1.0 1.0 1.0 1.0 1.0 1.0 1.0 1.0
1.0 1.0 1.0 1.0 1.0 1.0 1.0 1.0
1.0 1.0 1.0 1.0 1.0 1.0 1.0 1.0
1.0 1.0 1.0 1.0 1.0 1.0 1.0 1.0
1.0 1.0 1.0 1.0 1.0 1.0 1.0 1.0
1.0 1.0 1.0 1.0 1.0 1.0 1.0 1.0
1.0 1.0 1.0 1.0 1.0 1.0 1.0 1.0
1.0 1.0 1.0 1.0 1.0 1.0 1.0 1.0
1.0 1.0 1.0 1.0 1.0 1.0 1.0 1.0
1.0 1.0 1.0 1.0 1.0 1.0 1.0 1.0
00000000: 0000 803f 0000 803f 0000 803f 0000 803f
00000010: 0000 803f 0000 803f 0000 803f 0000 803f
00000020: 0000 803f 0000 803f 0000 803f 0000 803f
00000030: 0000 803f 0000 803f 0000 803f 0000 803f
00000040: 0000 803f 0000 803f 0000 803f 0000 803f
00000050: 0000 803f 0000 803f 0000 803f 0000 803f
00000060: 0000 803f 0000 803f 0000 803f 0000 803f
00000070: 0000 803f 0000 803f 0000 803f 0000 803f
00000080: 0000 803f 0000 803f 0000 803f 0000 803f
00000090: 0000 803f 0000 803f 0000 803f 0000 803f
000000a0: 0000 803f 0000 803f 0000 803f 0000 803f
000000b0: 0000 803f 0000 803f 0000 803f 0000 803f
000000c0: 0000 803f 0000 803f 0000 803f 0000 803f
000000d0: 0000 803f 0000 803f 0000 803f 0000 803f
000000e0: 0000 803f 0000 803f 0000 803f 0000 803f
000000f0: 0000 803f 0000 803f 0000 803f 0000 803f
00000100: 0000 803f 0000 803f 0000 803f 0000 803f
00000110: 0000 803f 0000 803f 0000 803f 0000 803f
00000120: 0000 803f 0000 803f 0000 803f 0000 803f
00000130: 0000 803f 0000 803f 0000 803f 0000 803f
00000140: 0000 803f 0000 803f 0000 803f 0000 803f
00000150: 0000 803f 0000 803f 0000 803f 0000 803f
00000160: 0000 803f 0000 803f 0000 803f 0000 803f
00000170: 0000 803f 0000 803f 0000 803f 0000 803f
00000180: 0000 803f 0000 803f 0000 803f 0000 803f
00000190: 0000 803f 0000 803f 0000 803f 0000 803f
000001a0: 0000 803f 0000 803f 0000 803f 0000 803f
000001b0: 0000 803f 0000 803f 0000 803f 0000 803f
000001c0: 0000 803f 0000 803f 0000 803f 0000 803f
000001d0: 0000 803f 0000 803f 0000 803f 0000 803f
000001e0: 0000 803f 0000 803f 0000 803f 0000 803f
000001f0: 0000 803f 0000 803f 0000 803f 0000 803f
