inputs/examples/workloads/googlenet_inferred.onnx (onnx, 252354 bytes, 60 tensors)

conv1/7x7_s2_w_0_quantized i1 [64, 3, 7, 7]
000000 08 07 12 0d 6f 6e 6e 78 2e 71 75 61 6e 74 69 7a
       8 7 18 13 111 110 110 120 46 113 117 97 110 116 105 122
000010 65 1a 05 30 2e 31 2e 30 3a fe d6 07 0a 62 0a 06
       101 26 5 48 46 49 46 48 58 -2 -42 7 10 98 10 6
000020 64 61 74 61 5f 30 0a 0c 64 61 74 61 5f 30 5f 73
       100 97 116 97 95 48 10 12 100 97 116 97 95 48 95 115
000030 63 61 6c 65 0a 11 64 61 74 61 5f 30 5f 7a 65 72
       99 97 108 101 10 17 100 97 116 97 95 48 95 122 101 114
000040 6f 5f 70 6f 69 6e 74 12 10 64 61 74 61 5f 30 5f
       111 95 112 111 105 110 116 18 16 100 97 116 97 95 48 95
000050 71 75 61 6e 74 69 7a 65 64 1a 15 64 61 74 61 5f
       113 117 97 110 116 105 122 101 100 26 21 100 97 116 97 95
000060 30 5f 51 75 61 6e 74 69 7a 65 4c 69 6e 65 61 72
       48 95 81 117 97 110 116 105 122 101 76 105 110 101 97 114
000070 22 0e 51 75 61 6e 74 69 7a 65 4c 69 6e 65 61 72
       34 14 81 117 97 110 116 105 122 101 76 105 110 101 97 114
000080 0a f1 02 0a 10 64 61 74 61 5f 30 5f 71 75 61 6e
       10 -15 2 10 16 100 97 116 97 95 48 95 113 117 97 110
000090 74 69 7a 65 64 0a 0c 64 61 74 61 5f 30 5f 73 63
       116 105 122 101 100 10 12 100 97 116 97 95 48 95 115 99
0000a0 61 6c 65 0a 11 64 61 74 61 5f 30 5f 7a 65 72 6f
       97 108 101 10 17 100 97 116 97 95 48 95 122 101 114 111
0000b0 5f 70 6f 69 6e 74 0a 1a 63 6f 6e 76 31 2f 37 78
       95 112 111 105 110 116 10 26 99 111 110 118 49 47 55 120
0000c0 37 5f 73 32 5f 77 5f 30 5f 71 75 61 6e 74 69 7a
       55 95 115 50 95 119 95 48 95 113 117 97 110 116 105 122
0000d0 65 64 0a 16 63 6f 6e 76 31 2f 37 78 37 5f 73 32
       101 100 10 22 99 111 110 118 49 47 55 120 55 95 115 50
0000e0 5f 77 5f 30 5f 73 63 61 6c 65 0a 1b 63 6f 6e 76
       95 119 95 48 95 115 99 97 108 101 10 27 99 111 110 118
0000f0 31 2f 37 78 37 5f 73 32 5f 77 5f 30 5f 7a 65 72
       49 47 55 120 55 95 115 50 95 119 95 48 95 122 101 114

conv1/7x7_s2_w_0_scale f4 [64]
000000 a5 72 01 3c 16 bb c7 3b af 87 4c 3c af d0 fa 3b
       0.007900869 0.0060953004 0.012483521 0.0076542716
000010 15 46 fd 3b f7 ac 30 3c 85 6f 7f 3c a7 94 68 3c
       0.0077293017 0.0107834255 0.015590553 0.014195598
000020 20 2e 1f 3c cf 1c dc 3b c6 72 ce 3b 3c 71 12 3c
       0.009715587 0.0067173014 0.006300303 0.00893813
000030 97 d6 11 3c 48 b5 55 3c 23 e8 90 3c e2 f0 40 3c
       0.00890126 0.013043709 0.017688816 0.011776181
000040 aa ae df 3b 4c 0d 85 3c ee 51 4b 3c 9c 0d 85 3c
       0.0068262415 0.016241692 0.01240967 0.016241841
000050 59 fd c3 3b ec 09 85 3c cf b4 19 3c 8b 14 9a 3c
       0.005981129 0.016240083 0.009381487 0.018808624
000060 95 21 e3 3b 0c b4 29 3c a0 e4 fd 3b 85 42 38 3c
       0.0069314935 0.010357868 0.0077482015 0.011246328
000070 e9 0d 55 3c 28 c2 66 3c d5 67 04 3c 12 8b 24 3c
       0.013003805 0.014084376 0.008081396 0.010042923
000080 a3 8a 33 3c 55 71 f5 3b 19 f8 1d 3c 0f d9 5e 3c
       0.010958347 0.007490317 0.009641671 0.0136015555
000090 8b 96 2d 3c e6 ee 09 3c be dc 3f 3c 8f a9 7b 3c
       0.010594974 0.008418774 0.011710344 0.01536025
0000a0 37 61 a7 3b c4 8c d7 3b 08 f0 b4 3b b7 a4 5e 3c
       0.0051080245 0.00657806 0.005521778 0.013589076
0000b0 a2 e5 1d 3c cb 17 62 3c 16 6d c3 3b 36 f0 de 3b
       0.009637268 0.013799618 0.005963932 0.0068035377
0000c0 16 f1 cb 3b c0 fa 28 3c d5 c3 cd 3b 81 5d b5 3b
       0.006223808 0.01031369 0.0062794485 0.005534828
0000d0 63 2e ee 3b 18 1e 17 3c d7 85 32 3c ed 4b d1 3b
       0.0072687133 0.0092234835 0.010896168 0.006387225
0000e0 89 79 0b 3c 91 7f 82 3c 74 9b 6d 3c b6 75 a1 3b
       0.008512863 0.015929969 0.014502395 0.0049273623
0000f0 7c 69 ae 3b 45 7e 31 3c 53 86 e5 3b e8 7f 0b 3c
       0.0053226333 0.010833328 0.007004538 0.008514382

conv2/3x3_reduce_w_0_quantized i1 [64, 64, 1, 1]
000000 69 6f 6e 5f 33 61 2f 6f 75 74 70 75 74 5f 31 5f
       105 111 110 95 51 97 47 111 117 116 112 117 116 95 49 95
000010 71 75 61 6e 74 69 7a 65 64 0a 1b 69 6e 63 65 70
       113 117 97 110 116 105 122 101 100 10 27 105 110 99 101 112
000020 74 69 6f 6e 5f 33 61 2f 6f 75 74 70 75 74 5f 31
       116 105 111 110 95 51 97 47 111 117 116 112 117 116 95 49
000030 5f 73 63 61 6c 65 0a 20 69 6e 63 65 70 74 69 6f
       95 115 99 97 108 101 10 32 105 110 99 101 112 116 105 111
000040 6e 5f 33 61 2f 6f 75 74 70 75 74 5f 31 5f 7a 65
       110 95 51 97 47 111 117 116 112 117 116 95 49 95 122 101
000050 72 6f 5f 70 6f 69 6e 74 0a 1e 69 6e 63 65 70 74
       114 111 95 112 111 105 110 116 10 30 105 110 99 101 112 116
000060 69 6f 6e 5f 33 62 2f 31 78 31 5f 77 5f 30 5f 71
       105 111 110 95 51 98 47 49 120 49 95 119 95 48 95 113
000070 75 61 6e 74 69 7a 65 64 0a 1a 69 6e 63 65 70 74
       117 97 110 116 105 122 101 100 10 26 105 110 99 101 112 116
000080 69 6f 6e 5f 33 62 2f 31 78 31 5f 77 5f 30 5f 73
       105 111 110 95 51 98 47 49 120 49 95 119 95 48 95 115
000090 63 61 6c 65 0a 1f 69 6e 63 65 70 74 69 6f 6e 5f
       99 97 108 101 10 31 105 110 99 101 112 116 105 111 110 95
0000a0 33 62 2f 31 78 31 5f 77 5f 30 5f 7a 65 72 6f 5f
       51 98 47 49 120 49 95 119 95 48 95 122 101 114 111 95
0000b0 70 6f 69 6e 74 0a 18 69 6e 63 65 70 74 69 6f 6e
       112 111 105 110 116 10 24 105 110 99 101 112 116 105 111 110
0000c0 5f 33 62 2f 31 78 31 5f 31 5f 73 63 61 6c 65 0a
       95 51 98 47 49 120 49 95 49 95 115 99 97 108 101 10
0000d0 1d 69 6e 63 65 70 74 69 6f 6e 5f 33 62 2f 31 78
       29 105 110 99 101 112 116 105 111 110 95 51 98 47 49 120
0000e0 31 5f 31 5f 7a 65 72 6f 5f 70 6f 69 6e 74 0a 1e
       49 95 49 95 122 101 114 111 95 112 111 105 110 116 10 30
0000f0 69 6e 63 65 70 74 69 6f 6e 5f 33 62 2f 31 78 31
       105 110 99 101 112 116 105 111 110 95 51 98 47 49 120 49

conv2/3x3_reduce_w_0_scale f4 [64]
000000 c2 38 27 3c 9e 99 29 3c c9 16 43 3c d0 a1 5c 3c
       0.010206403 0.010351567 0.011907288 0.0134663135
000010 6c 45 26 3c 61 10 09 3c 13 09 dc 3b 4e 4f 50 3c
       0.010148387 0.008365721 0.006714949 0.01271422
000020 9b 31 3e 3c 23 c8 31 3c d0 c4 c3 3b 5a db 20 3c
       0.011608507 0.010850939 0.0059743896 0.0098179225
000030 a9 0b 59 3c f7 21 ff 3b f8 7a 07 3c fb 23 10 3c
       0.013247409 0.0077860313 0.008269064 0.008797641
000040 8d bc 37 3c b8 b9 10 3c 0b ce 15 3c b7 44 d3 3b
       0.011214388 0.008833341 0.009143363 0.0064474004
000050 a2 c8 0b 3c 71 f4 7e 3c d2 31 1d 3c 97 94 fe 3b
       0.008531721 0.015561209 0.009594398 0.007769178
000060 9c 12 57 3c bc 5c 26 3c e3 89 dc 3b 3a 10 08 3c
       0.013126995 0.010153946 0.0067303046 0.00830465
000070 00 e9 04 3c e1 5a 8d 3c 92 7e 04 3c 3a 93 3d 3c
       0.008112192 0.017255249 0.008086817 0.011570746
000080 2d fa 20 3c a0 d0 14 3c 8b 75 c7 3b 8f 4d 36 3c
       0.009825272 0.009082943 0.0060870103 0.01112689
000090 31 50 01 3c 2e c4 65 3c 15 03 dd 3b ef bb 12 3c
       0.007892654 0.014023824 0.006744752 0.00895594
0000a0 21 68 03 3c 94 e9 0c 3c 68 d8 1e 3c 3b 75 ee 3b
       0.008020432 0.008600611 0.00969515 0.0072771586
0000b0 16 25 50 3c a7 0e 00 3c 7a 67 28 3c 33 0a 2d 3c
       0.0127041545 0.007815993 0.010278577 0.010561514
0000c0 fd 4b 65 3c e0 04 5a 3c 5a 79 01 3c 1f 00 e3 3b
       0.013995168 0.013306826 0.007902468 0.0069275047
0000d0 e2 1e da 3b a7 cc 42 3c a3 b6 44 3c 62 78 08 3c
       0.0066565135 0.011889613 0.012006435 0.008329483
0000e0 d2 d8 05 3c 40 9f f3 3b be f6 79 3c 55 e9 05 3c
       0.00816937 0.0074347556 0.015256582 0.0081733065
0000f0 7f c7 10 3c 61 4a df 3b fa d6 e6 3b 2d 1f 10 3c
       0.008836626 0.0068142866 0.00704467 0.008796495

conv2/3x3_w_0_quantized i1 [192, 64, 3, 3]
000000 69 6e 63 65 70 74 69 6f 6e 5f 34 61 2f 33 78 33
       105 110 99 101 112 116 105 111 110 95 52 97 47 51 120 51
000010 5f 31 5f 7a 65 72 6f 5f 70 6f 69 6e 74 0a 1e 69
       95 49 95 122 101 114 111 95 112 111 105 110 116 10 30 105
000020 6e 63 65 70 74 69 6f 6e 5f 34 61 2f 33 78 33 5f
       110 99 101 112 116 105 111 110 95 52 97 47 51 120 51 95
000030 62 5f 30 5f 71 75 61 6e 74 69 7a 65 64 12 1c 69
       98 95 48 95 113 117 97 110 116 105 122 101 100 18 28 105
000040 6e 63 65 70 74 69 6f 6e 5f 34 61 2f 33 78 33 5f
       110 99 101 112 116 105 111 110 95 52 97 47 51 120 51 95
000050 31 5f 71 75 61 6e 74 69 7a 65 64 1a 17 43 6f 6e
       49 95 113 117 97 110 116 105 122 101 100 26 23 67 111 110
000060 76 5f 6e 63 5f 72 65 6e 61 6d 65 5f 34 38 5f 71
       118 95 110 99 95 114 101 110 97 109 101 95 52 56 95 113
000070 75 61 6e 74 22 0b 51 4c 69 6e 65 61 72 43 6f 6e
       117 97 110 116 34 11 81 76 105 110 101 97 114 67 111 110
000080 76 2a 15 0a 08 61 75 74 6f 5f 70 61 64 22 06 4e
       118 42 21 10 8 97 117 116 111 95 112 97 100 34 6 78
000090 4f 54 53 45 54 a0 01 03 2a 0c 0a 05 67 72 6f 75
       79 84 83 69 84 -96 1 3 42 12 10 5 103 114 111 117
0000a0 70 18 01 a0 01 02 2a 15 0a 0c 6b 65 72 6e 65 6c
       112 24 1 -96 1 2 42 21 10 12 107 101 114 110 101 108
0000b0 5f 73 68 61 70 65 40 03 40 03 a0 01 07 2a 11 0a
       95 115 104 97 112 101 64 3 64 3 -96 1 7 42 17 10
0000c0 04 70 61 64 73 40 01 40 01 40 01 40 01 a0 01 07
       4 112 97 100 115 64 1 64 1 64 1 64 1 -96 1 7
0000d0 2a 10 0a 07 73 74 72 69 64 65 73 40 01 40 01 a0
       42 16 10 7 115 116 114 105 100 101 115 64 1 64 1 -96
0000e0 01 07 0a a6 03 0a 18 70 6f 6f 6c 33 2f 33 78 33
       1 7 10 -90 3 10 24 112 111 111 108 51 47 51 120 51
0000f0 5f 73 32 5f 31 5f 71 75 61 6e 74 69 7a 65 64 0a
       95 115 50 95 49 95 113 117 97 110 116 105 122 101 100 10

conv2/3x3_w_0_scale f4 [192]
000000 b1 a3 93 3b 46 49 c2 3b d8 ca 63 3b 46 d8 87 3b
       0.0045055975 0.005929145 0.0034758355 0.004145655
000010 60 6a 8e 3b 80 ae 54 3b 45 2b 97 3b e3 04 5b 3b
       0.004346177 0.0032452643 0.0046133124 0.003341966
000020 ac 71 b8 3b 77 4d 70 3b 79 58 dd 3b 6b a6 3d 3b
       0.005628785 0.0036667266 0.0067549315 0.0028938304
000030 7f f5 40 3b ea e8 36 3c ff a9 84 3b 55 27 65 3b
       0.0029443202 0.0111639295 0.0040485854 0.003496607
000040 92 35 9f 3b a0 a0 80 3b 16 9f 53 3b 6b 60 76 3b
       0.004858681 0.003925398 0.0032290868 0.003759409
000050 5e 4a b7 3b 67 40 76 3b 3b 54 68 3b 8f e1 3f 3b
       0.005593582 0.0037575008 0.0035450596 0.002927873
000060 9a ea 7a 3b 25 c2 3f 3b 7e 50 45 3c d8 1f 3f 3b
       0.0038286806 0.0029260006 0.012043117 0.0029163267
000070 0a c3 3d 3b 1a d7 22 3c 02 29 3f 3b ed d3 36 3b
       0.0028955364 0.0099389795 0.002916873 0.0027897314
000080 bb ae 46 3b 24 2f 05 3c 14 ef ad 3b 7d 2c 3d 3c
       0.003031655 0.008128915 0.0053080413 0.011546251
000090 72 92 72 3b c9 b9 fe 3b a2 cb ab 3b af b1 40 3b
       0.0037013558 0.007773612 0.005242781 0.0029402783
0000a0 75 1a 88 3b bd 04 56 3b b7 ed 3f 3b 92 4b 5d 3b
       0.0041535445 0.0032656633 0.0029285976 0.0033766967
0000b0 4e f7 42 3b 5a 2f 3f 3b 66 58 fb 3b 5d e8 dc 3b
       0.0029749456 0.002917251 0.00767045 0.006741567
0000c0 f4 38 06 3c 9f a8 83 3b 4a fb a5 3b f1 a2 c9 3b
       0.00819229 0.004017904 0.0050653564 0.0061534573
0000d0 20 54 7d 3b 40 40 98 3b af 1f 8b 3b c0 0c 92 3b
       0.0038654879 0.004646331 0.0042457203 0.0044570863
0000e0 ae ff 99 3b 0f e2 39 3b fd 60 45 3b df 70 76 3b
       0.004699669 0.0028363501 0.0030117624 0.0037603898
0000f0 a1 2b 56 3b d8 63 c8 3b 45 a3 0b 3b 1e 45 67 3b
       0.0032679813 0.006115418 0.0021307033 0.0035289
000100 05 47 85 3b f9 0a 9f 3b 44 a0 60 3b 7a 7f 3d 3b
       0.004067304 0.004853603 0.0034275213 0.0028915093
000110 3d c2 83 3b d0 fb 51 3b 05 04 b5 3b 2b b2 9d 3b
       0.0040209577 0.003204096 0.005524161 0.004812499
000120 63 42 90 3b 41 e6 d4 3b 95 2b 58 3b 94 28 5b 3b
       0.004402445 0.006497175 0.0032984961 0.0033440934
000130 3f 44 70 3b f0 0e 91 3b 06 bc 6c 3b 0c 5d 47 3b
       0.0036661772 0.0044268295 0.0036122813 0.003042045
000140 b8 75 a3 3b 60 6c 3e 3b 16 b1 a1 3b c9 db a6 3b
       0.0049883984 0.0029056296 0.0049344404 0.0050921184
000150 2a 34 85 3b 69 19 91 3b ab cf 3e 3b 4b 88 85 3b
       0.0040650563 0.004428078 0.002911548 0.0040750853
000160 ea 77 ad 3b cd 71 37 3b 96 26 52 3b e8 d0 59 3b
       0.005293836 0.0027991415 0.0032066456 0.003323609
000170 38 3c fd 3b 41 03 3b 3b 7b 9d 5f 3b af a4 4a 3b
       0.007728126 0.0028535875 0.0034120965 0.0030920913
000180 38 94 8f 3b 28 06 75 3b b0 97 b8 3b 58 8c 8b 3b
       0.0043816827 0.0037387703 0.005633317 0.0042586736
000190 e0 7a ab 3b 04 c6 87 3b 8f 86 b3 3b 82 5a aa 3b
       0.0052331537 0.0041434783 0.005478687 0.0051987777
0001a0 3c 6b 92 3b 79 97 98 3b f0 d3 8b 3b 28 73 43 3b
       0.0044683497 0.004656729 0.0042672083 0.0029823277
0001b0 0b 04 bb 3b 72 b1 80 3b d2 dc e5 3b 17 4a 6f 3b
       0.005707269 0.003927403 0.007014849 0.0036512667
0001c0 3e 85 6f 3b 2a 67 14 3b e6 84 3b 3b b2 fd 6c 3b
       0.0036547924 0.0022644498 0.002861315 0.0036161956
0001d0 51 99 84 3b 53 dd 80 3b 8d 60 c1 3b dd 30 be 3b
       0.004046597 0.003932634 0.0059014023 0.005804165
0001e0 72 4b 58 3b c6 0d 96 3b 95 d5 a1 3b 7b 3d 61 3b
       0.0033003953 0.0045792786 0.004938791 0.003436892
0001f0 a3 f2 8d 3b d9 de a3 3b c5 c5 51 3b c1 86 4f 3b
       0.004331903 0.0050009307 0.003200875 0.0031666013
000200 ba 33 31 3b 5c ba b6 3b 25 38 32 3c 8a bc 8c 3b
       0.0027038888 0.005576415 0.010877644 0.0042949365
000210 f0 6e bc 3b 15 6f 6f 3b 87 55 bf 3b 0a 4b 6f 3b
       0.0057505295 0.0036534716 0.005839053 0.0036513233
000220 87 f2 4e 3b 35 da ac 3b 6f 22 88 3b 16 b7 2b 3b
       0.0031577663 0.0052750357 0.0041544954 0.0026201657
000230 dd 8f e7 3b 46 ef b2 3b 19 fd 9c 3b 4b d4 9c 3b
       0.0070667104 0.0054606525 0.004790914 0.0047860495
000240 81 4e 4e 3b 73 06 96 3b e7 68 9d 3b 74 f3 9f 3b
       0.0031479897 0.0045784055 0.004803765 0.004881317
000250 ab 50 67 3b f4 35 2c 3b 76 ca bd 3b 40 42 82 3b
       0.0035295885 0.0026277276 0.0057919575 0.003975183
000260 68 5f 4d 3b 5c d9 5c 3b 2e 5c 81 3b fc d1 a7 3b
       0.0031337384 0.0033698892 0.0039477563 0.0051214676
000270 0a 90 85 3b d3 17 32 3b f1 c3 6f 3b 72 27 44 3b
       0.0040760087 0.0027174845 0.0036585296 0.0029930738
000280 44 fb ca 3b f0 a4 e9 3b 00 0a 58 3b 37 5b 92 3b
       0.006194504 0.007130258 0.0032964945 0.00446644
000290 5f 55 56 3b 30 53 39 3b 8c 76 41 3b 65 70 71 3b
       0.0032704694 0.0028278343 0.0029520122 0.0036840674
0002a0 76 7f 99 3b f3 96 54 3b 7e 97 4e 3b 19 04 04 3c
       0.004684384 0.0032438606 0.0031523402 0.008057618
0002b0 2f 9e a3 3b ac 4e d6 3b ff 81 88 3b 80 1e 87 3b
       0.004993222 0.00654014 0.0041658874 0.004123509
0002c0 c4 4b 66 3b 72 5d 89 3b 90 82 62 3b 81 32 00 3c
       0.0035140375 0.0041920478 0.0034562685 0.007824541
0002d0 e3 24 5b 3b 2a 4f 61 3b 19 b8 53 3b 1c 5b 60 3b
       0.0033438734 0.003437946 0.0032305776 0.0034233993
0002e0 0e b5 99 3b 50 9d 9d 3b 5d b9 6c 3b 8f 64 59 3b
       0.004690773 0.004810013 0.0036121227 0.003317151
0002f0 0b a4 81 3b ce 34 8e 3b 45 d3 60 3b 5c 81 d4 3b
       0.003956323 0.004339791 0.0034305614 0.0064851474

inception_3a/pool_proj_w_0_scale f4 [32]
000000 f1 18 ca 3b 46 b7 93 3b 1e c3 c4 3b be a5 b0 3b
       0.006167524 0.004507932 0.006004705 0.0053908518
000010 af ea a4 3b 11 91 85 3b e3 e5 9f 3b 82 82 e2 3b
       0.0050328593 0.004076131 0.0048796996 0.0069125304
000020 08 24 b3 3b ce a1 96 3b 4f af e4 3b d7 c5 ba 3b
       0.0054669417 0.0045969253 0.006978906 0.005699854
000030 9b 51 a9 3b 16 97 b0 3b 7b 72 d8 3b 30 78 a6 3b
       0.005167199 0.0053891046 0.006605444 0.0050802454
000040 66 14 c9 3b 1e 25 78 3b 2c 30 de 3b c5 6a b7 3b
       0.006136465 0.003786392 0.006780645 0.0055974447
000050 2b 54 92 3b 8c d2 88 3b 3d 28 21 3c bd 7e ad 3b
       0.0044656 0.00417549 0.009836254 0.0052946494
000060 2c 51 c0 3b 6e 74 c8 3b 06 9f c6 3b 84 20 66 3c
       0.0058690514 0.006117395 0.0060614375 0.014045838
000070 3a 3e b5 3b a5 96 08 3c 6e 0e 9c 3b 78 f5 af 3b
       0.0055310996 0.008336698 0.0047624623 0.0053698383

inception_3a/5x5_reduce_w_0_scale f4 [16]
000000 01 ae 0e 3c aa b4 99 3b ae 36 fc 3b 66 1f b3 3b
       0.008708478 0.0046907263 0.007696948 0.0054663895
000010 75 12 fa 3b 27 ab d6 3b 05 cf cc 3b f4 60 2e 3c
       0.007631595 0.0065511647 0.0062502646 0.010643233
000020 39 15 28 3c 1b 5d 91 3b c6 76 b0 3b 67 e5 0a 3c
       0.010258966 0.004436148 0.0053852526 0.008477545
000030 6c 84 07 3c 1f be d8 3b 2c bb 43 3c 2b 93 d2 3b
       0.008271318 0.006614461 0.011946481 0.006426235

inception_3a/5x5_w_0_scale f4 [32]
000000 c1 8b 47 3b 97 18 59 3b fb 69 65 3b 7a c8 94 3b
       0.003044829 0.003312623 0.0035005796 0.0045405
000010 08 ac 6a 3b c4 dc af 3b c4 f5 da 3b 1c 69 a6 3b
       0.0035808105 0.0053668935 0.0066821296 0.005078448
000020 14 18 94 3b 20 dc 5b 3b 22 42 d8 3b a1 44 3e 3b
       0.004519472 0.0033547953 0.0065996805 0.0029032605
000030 b5 ed 65 3b 4e 5c e1 3b dc 17 1f 3b 4f 59 c2 3b
       0.0035084311 0.0068774587 0.0024275696 0.0059310566
000040 70 ad 93 3b 05 fd b3 3b 95 14 af 3b 29 e8 95 3b
       0.0045067593 0.0054928088 0.0053430297 0.004574795
000050 b0 0a 9d 3b 8e d1 a8 3b 6b b3 72 3b 06 63 25 3b
       0.004792534 0.005151934 0.003703321 0.0025236025
000060 fa 7b 9e 3b 87 26 39 3b 95 7a 8d 3b f7 73 0a 3c
       0.0048365565 0.0028251724 0.0043175914 0.0084505
000070 16 29 86 3b a2 87 ba 3b 41 43 ac 3b c7 74 e5 3b
       0.0040942533 0.005692438 0.0052570407 0.0070024463

inception_3a/3x3_reduce_w_0_scale f4 [96]
000000 c7 49 9e 3b 1a 7d f0 3b 5f 67 c8 3b 49 39 a1 3b
       0.0048305723 0.007339132 0.0061158384 0.004920159
000010 cc 88 da 3b d5 44 1d 3c 61 b7 c7 3b 70 d5 3c 3c
       0.0066691395 0.00959893 0.0060948585 0.011525497
000020 40 d3 b0 3b bc c6 7b 3b 9c 30 44 3c e1 66 eb 3b
       0.0053962767 0.0038418015 0.01197448 0.007183895
000030 44 d6 59 3c 72 a5 8d 3b eb 40 04 3c 6c 26 9b 3b
       0.013295714 0.004322701 0.008072118 0.004734805
000040 cc 4d 09 3c 3a 8d 09 3c 39 ed b2 3b 03 d1 c7 3b
       0.008380365 0.008395487 0.005460408 0.006097914
000050 d9 2f a6 3b 34 13 5f 3b a0 3e 82 3b 05 f5 d7 3b
       0.005071622 0.0034038546 0.0039747506 0.006590488
000060 94 87 f7 3b 67 2b a6 3b 53 ea d0 3b 05 06 96 3b
       0.007554004 0.005071092 0.00637559 0.0045783543
000070 f9 27 a4 3b 22 53 a4 3b 50 46 ac 3b 1d 3c df 3b
       0.005009648 0.005014793 0.0052574053 0.006812586
000080 c3 99 ed 3b 0c ea d1 3b d1 b3 10 3c 89 1d af 3b
       0.007250996 0.0064060744 0.008831934 0.005344097
000090 fb f4 f2 3b 7f 2d 95 3b 7f 8e c3 3b b9 5f 07 3c
       0.007414458 0.0045525427 0.0059679146 0.008262568
0000a0 9f 63 ee 3b fa 6a 51 3c 62 16 ab 3b 7a 05 eb 3b
       0.0072750594 0.012781853 0.005221174 0.0071722837
0000b0 fe d1 bb 3b 28 37 b6 3b 62 bb 99 3b dd 2e e7 3b
       0.00573182 0.0055607744 0.004691527 0.007055147
0000c0 48 fb 16 3c 93 c9 a8 3b cc 0c c1 3b 30 dd a2 3b
       0.009215184 0.0051509826 0.005891418 0.0049702153
0000d0 11 3f cf 3b 5f e5 85 3b 9a 6b b1 3b 6e 64 8c 3b
       0.006324657 0.004086181 0.0054144384 0.004284433
0000e0 67 e2 81 3b e2 34 78 3b 35 ce cd 3b 02 3a de 3b
       0.003963757 0.0037873317 0.0062806853 0.0067818174
0000f0 8f 97 91 3b d4 c0 bb 3b 20 3b d2 3b 2d a5 8d 3b
       0.004443116 0.005729774 0.0064157397 0.004322669
000100 1e 0b 21 3c 1f 43 b6 3b 92 98 2c 3c 97 45 cc 3b
       0.009829311 0.0055622007 0.0105344225 0.0062338817
000110 45 aa 91 3b 1c 04 a7 3b f5 1d c0 3b 79 ef 2e 3c
       0.0044453465 0.0050969254 0.005862946 0.010677212
000120 df b5 ea 3b e6 74 da 3b 4a bb e6 3b 1a b0 e9 3b
       0.007162794 0.0066667674 0.0070413696 0.0071315886
000130 37 ff c8 3b 49 64 18 3c 80 48 fd 3b bf c8 07 3c
       0.0061339396 0.009301254 0.00772959 0.008287608
000140 a9 70 d0 3b 00 99 08 3c 2d 0a f1 3b ea b8 d7 3b
       0.0063610864 0.008337259 0.0073559494 0.006583323
000150 e7 6e 70 3b a5 f7 cb 3b 37 85 f9 3b 34 57 86 3b
       0.0036687197 0.00622459 0.0076147574 0.004099751
000160 84 48 cd 3c ec 2d b7 3b 7d 45 f1 3b b1 d5 b3 3b
       0.025058992 0.005590191 0.00736302 0.0054881205
000170 cc 99 33 3c a4 dd f8 3b 77 41 c5 3b 7f 34 c1 3b
       0.010961961 0.007594781 0.006019767 0.0058961506

inception_3a/3x3_w_0_scale f4 [128]
000000 a0 3a d2 3b 9e 7d 59 3b bd 85 59 3b 52 97 36 3b
       0.00641568 0.0033186446 0.0033191286 0.002786119
000010 dc 11 a0 3b f1 34 c0 3b e6 20 17 3b e4 6f 5e 3b
       0.0048849415 0.005865686 0.002306038 0.0033941204
000020 41 8f 54 3b a7 2a 48 3b e0 c8 17 3b 44 d1 4b 3b
       0.0032434019 0.0030543 0.0023160502 0.0031100074
000030 a5 98 a4 3b 4c 82 29 3b a4 ab 43 3b 90 b5 5b 3b
       0.0050230795 0.0025865017 0.0029856944 0.0033524968
000040 4b 9d 5c 3b 7d 84 36 3b 82 c2 f1 3b b7 8d 08 3c
       0.003366309 0.0027849965 0.0073779235 0.008334569
000050 dd ce 80 3b 04 3b 94 3b 72 5a 27 3b 84 e1 6d 3b
       0.00393091 0.004523637 0.0025536087 0.0036297748
000060 76 b6 e0 3b 0e 03 89 3b 14 2e 92 3b 60 72 49 3b
       0.0068576885 0.0041812724 0.0044610593 0.0030738339
000070 f8 ad 94 3b 66 48 35 3b 27 5e d0 3b 74 a5 3d 3b
       0.0045373403 0.002766156 0.00635888 0.002893773
000080 36 0f 56 3b 1a 94 57 3b 89 b9 88 3b eb 1c 4f 3b
       0.0032662875 0.0032894672 0.004172508 0.003160293
000090 b0 e4 14 3b ca 7c 2c 3b 3d f9 86 3b c7 26 6a 3b
       0.0022719316 0.0026319497 0.004119067 0.003572868
0000a0 d3 f5 70 3b df a4 7e 3b 45 9e 81 3b 21 65 0a 3c
       0.0036767616 0.0038855595 0.003955635 0.008446963
0000b0 e9 a2 89 3b f6 a8 aa 3b 02 a3 8d 3b d3 81 22 3b
       0.0042003286 0.00520813 0.0043224106 0.002479662
0000c0 a1 39 a7 3b 76 bb 9c 3b ed 65 b0 3b 9d b4 a4 3b
       0.0051033054 0.0047830893 0.0053832442 0.0050264136
0000d0 df 93 8c 3b 9b 7f 61 3b 36 56 84 3b 5a 85 41 3b
       0.0042900885 0.0034408334 0.0040385975 0.0029528947
0000e0 22 43 22 3b 33 d3 7e 3b 13 70 54 3b cc 2c 70 3b
       0.0024759253 0.0038883209 0.0032415434 0.0036647795
0000f0 7f a0 38 3b d4 a8 5c 3b 8d 40 48 3b 0a a4 30 3b
       0.0028171835 0.0033669965 0.0030556053 0.0026953244
000100 38 b8 6e 3b ed 86 36 3b 8e da 9c 3b 46 0c 71 3b
       0.003642572 0.0027851418 0.004786796 0.0036780997
000110 9b fa 35 3b af d5 2a 3b b6 23 ac 3b e8 3b 85 3b
       0.002776778 0.0026067307 0.0052532805 0.0040659793
000120 b3 da 35 3b 81 fb 73 3b ee 08 ac 3b c9 7d 1b 3b
       0.0027748763 0.0037228765 0.005250088 0.0023726097
000130 0e 77 ca 3b 9b 5c 30 3b 93 d1 5c 3b c5 dc 80 3b
       0.006178743 0.0026910666 0.0033694252 0.003932568
000140 58 e3 2c 3b c8 88 28 3b 59 9c 24 3b 9c 4e ad 3b
       0.0026380625 0.0025716294 0.0025117605 0.005288912
000150 8d 64 ae 3b c0 b0 91 3b 49 dd ba 3b d5 52 28 3b
       0.005322045 0.004446119 0.005702649 0.0025684137
000160 00 f9 6f 3b 1d ce 28 3b f4 35 69 3b 93 ee 43 3b
       0.0036616921 0.0025757619 0.0035585137 0.002989684
000170 03 25 3c 3b e0 86 0c 3c f7 aa 75 3b 39 ba a9 3b
       0.0028708584 0.008577079 0.0037485936 0.00517967
000180 05 b1 34 3b 0d 2b 28 3b fa 63 31 3b c4 20 7f 3b
       0.0027571332 0.0025660426 0.0027067647 0.0038929442
000190 da 98 b1 3b f0 2f 57 3b 16 d3 a2 3b 16 8c ab 3b
       0.0054198327 0.003283497 0.004969011 0.0052352054
0001a0 28 0b 63 3b 8e 1d 6b 3b 2f 2b 04 3b 6a 2c b1 3b
       0.00346441 0.003587577 0.002016734 0.005406906
0001b0 1f 04 a8 3b d4 6c df 3b 43 5e 67 3b 3a 5f 28 3b
       0.0051274444 0.0068183932 0.0035303987 0.0025691525
0001c0 e9 90 52 3b 84 d8 38 3b 76 3e 9a 3b 28 67 31 3b
       0.003212983 0.0028205225 0.004707153 0.0027069543
0001d0 d0 f8 88 3b ac a2 76 3b 5b 6a 4e 3b e7 a9 86 3b
       0.0041800514 0.003763358 0.0031496498 0.0041096094
0001e0 28 07 72 3b ab a9 36 3b 37 f9 e3 3b 54 e8 30 3b
       0.0036930535 0.0027872126 0.006957199 0.0026993947
0001f0 9c ea ac 3b b5 3f 90 3b 8e 9c 34 3b 45 3a 61 3b
       0.005276991 0.0044021257 0.0027559134 0.0034367007

inception_3a/1x1_w_0_scale f4 [64]
000000 ee 42 e6 3b 8c b8 1a 3c 8a e0 dc 3b d5 e8 cb 3b
       0.0070270216 0.0094434135 0.0067406343 0.006222824
000010 2d 8f a0 3b 06 97 2e 3c 86 89 fa 3b 37 15 3f 3c
       0.0048998804 0.010656124 0.0076457886 0.011662773
000020 bc 52 f4 3b d2 63 12 3c 3c e7 4f 3c 48 8e bc 3b
       0.007456152 0.008934932 0.012689408 0.005754266
000030 82 3e 4f 3c b0 80 05 3c 24 e6 b1 3b a1 09 9b 3b
       0.01264918 0.008148357 0.005429046 0.0047313725
000040 2f e6 a0 3b 9f b0 af 3b c9 9c a4 3b 31 02 08 3c
       0.0049102525 0.005361631 0.005023573 0.008301304
000050 e8 e3 e5 3b 06 29 0c 3c ce 27 31 3c 4c 7c 4f 3c
       0.007015694 0.008554703 0.010812713 0.012663912
000060 a4 2b c2 3b 80 12 eb 3b 00 6f aa 3b 02 53 28 3c
       0.0059256125 0.007173836 0.0052012205 0.010273697
000070 0f 17 d2 3b 9e 8d 3a 3c 26 b1 4f 3c 8c 80 f4 3b
       0.00641144 0.011386303 0.012676513 0.007461613
000080 53 35 b0 3b aa 44 c5 3b c9 0e ce 3b c5 6e de 3b
       0.0053774505 0.0060201483 0.0062883836 0.006788107
000090 a2 91 d8 3b 65 b0 ea 3b 80 6c ef 3b 57 05 a4 3b
       0.0066091577 0.007162141 0.0073066354 0.0050055194
0000a0 8f c2 87 3c 58 87 f9 3b 73 11 de 3b b8 fc 8e 3b
       0.016572265 0.007615011 0.0067769825 0.0043636225
0000b0 27 85 6d 3c 26 23 bd 3b 77 aa d3 3b d8 0c 9a 3b
       0.014497078 0.0057720123 0.00645953 0.004701238
0000c0 b1 96 38 3c d2 9c 60 3c 02 55 0c 3c e9 b1 2e 3c
       0.011266396 0.013709264 0.008565189 0.010662534
0000d0 88 34 a1 3b 02 43 ce 3b 14 dd f7 3b 91 c7 45 3c
       0.0049195923 0.006294609 0.0075641964 0.012071506
0000e0 b1 df 64 3c d1 32 5c 3c fc d0 b5 3b ed cd 39 3c
       0.013969348 0.01343985 0.0055485945 0.0113406
0000f0 d9 10 bc 3b d8 5e 57 3c 05 fb bf 3b 49 1b 8b 3c
       0.005739313 0.013145171 0.0058587813 0.016980784

inception_3b/pool_proj_w_0_scale f4 [64]
000000 9f 4f 48 3b 3f cc 8a 3b 7b 60 8e 3b 3c 80 64 3b
       0.0030565036 0.004235774 0.0043449975 0.0034866473
000010 33 e2 4c 3b 65 bf 46 3b d7 ec 91 3b a4 b7 72 3b
       0.0031262755 0.0030326482 0.0044532823 0.0037035728
000020 71 1a 4a 3b 86 80 d6 3b 9b 8c 37 3b 82 9f 70 3b
       0.0030838514 0.006546083 0.0028007391 0.0036716168
000030 0b c8 7b 3b f9 41 52 3b fd ae 94 3b 3f c9 5d 3b
       0.0038418795 0.003208278 0.004537462 0.0033841876
000040 3c 4c 3a 3b 10 4f 47 3b f7 79 9a 3b 79 d4 32 3b
       0.0028426787 0.0030412115 0.0047142464 0.0027287288
000050 47 a3 ae 3b ab a5 94 3b 57 e1 96 3b 10 78 cd 3b
       0.005329523 0.0045363507 0.0046044993 0.006270416
000060 1c 40 aa 3b 78 c0 95 3b e5 ff 0d 3c e1 ef bd 3b
       0.0051956307 0.004570063 0.008666967 0.005796418
000070 61 ec ce 3b f5 d6 46 3b 61 db c5 3b 09 67 6b 3b
       0.0063147997 0.0030340527 0.006038115 0.0035919568
000080 a5 1b 8f 3b 8d 04 52 3b 4b 4a d2 3b 88 2f cc 3b
       0.004367309 0.003204617 0.006417548 0.006231252
000090 02 95 5e 3b 19 44 63 3b 39 2e 2e 3b bc fb 73 3b
       0.0033963327 0.003467804 0.0026577844 0.0037228903
0000a0 82 af a1 3b 42 c8 92 3b db 0c 89 3b 3c 04 6a 3b
       0.0049342522 0.004479439 0.0041824407 0.003570809
0000b0 e6 d9 83 3b a6 b4 ac 3b 53 ce 4b 3b f1 ed 52 3b
       0.0040237783 0.0052705584 0.003109832 0.003218528
0000c0 61 dd b5 3b f3 4d 6e 3b d9 4c 4e 3b ce 8c 8f 3b
       0.005550072 0.003636238 0.003147891 0.004380799
0000d0 eb 6b 74 3b 4a 87 b6 3b 9b 26 55 3b 6b da 5a 3b
       0.003729577 0.005570327 0.0032524231 0.0033394347
0000e0 1f 00 70 3b 48 1b a2 3b d9 0f a7 3b 1e c9 8f 3b
       0.0036621166 0.0049471 0.0050983247 0.0043879887
0000f0 47 c8 8d 3b b8 f5 90 3b 2b c1 67 3b cf 5b 77 3b
       0.0043268534 0.004423823 0.003536294 0.0037743931

inception_3b/5x5_reduce_w_0_scale f4 [32]
000000 46 da c7 3b 7c d1 ca 3b 0b f4 9b 3b d8 1d bc 3b
       0.0060990183 0.0061895233 0.004759317 0.0057408623
000010 77 1c 8d 3b e1 5e 85 3b f4 d8 c8 3b 40 58 bb 3b
       0.004306372 0.0040701483 0.0061293785 0.0057173073
000020 15 25 9d 3b c1 d3 88 3b 2e 03 17 3c 01 89 ff 3b
       0.0047956803 0.0041756337 0.009217067 0.0077983146
000030 be af ff 3b e2 0e 17 3c 7f 9b 9e 3b 76 80 9f 3b
       0.0078029325 0.009219857 0.004840314 0.0048676087
000040 3c 0d 04 3c a7 fd d3 3b 36 55 d5 3b cd 6b e1 3b
       0.008059796 0.0064694467 0.006510402 0.006879306
000050 12 d7 03 3c 0b 16 8f 3b 38 f2 82 3b 7b a9 b5 3b
       0.008046882 0.0043666414 0.00399616 0.0055438853
000060 a8 6c cf 3b 27 a9 8d 3b 89 19 8a 3b 60 7e e4 3b
       0.0063300915 0.004323143 0.00421447 0.006973073
000070 0c c1 0e 3c 27 72 29 3c f5 0d ec 3b 0a 59 81 3b
       0.008713018 0.010342157 0.0072038122 0.003947382

inception_3b/5x5_w_0_scale f4 [96]
000000 bd 0a 37 3b e7 3e 6b 3b d9 97 9e 3b 16 0d 16 3b
       0.0027929984 0.0035895647 0.004839879 0.0022895983
000010 60 93 96 3b ca 08 04 3b ed e2 8c 3b 32 1f 4d 3b
       0.004595205 0.002014684 0.0042995126 0.0031299111
000020 33 8c 10 3b cc 9a bb 3b d1 5b 95 3b d2 53 f8 3a
       0.0022056221 0.0057252403 0.0045580645 0.0018945879
000030 23 7c 08 3b 02 6a 4e 3b 94 c4 93 3b 83 53 62 3b
       0.0020825944 0.003149629 0.004509518 0.003453464
000040 2c 1a 3a 3b f9 c6 6f 3b 8c 20 21 3b e4 c6 56 3b
       0.0028396947 0.0036587103 0.002458605 0.0032772357
000050 53 b8 16 3b 46 2c 01 3b 49 ef 78 3b 4b 2d fb 3a
       0.002299805 0.0019710227 0.0037984422 0.0019163279
000060 c2 31 1f 3b a1 2f 0c 3b cd f3 5e 3b b4 04 7d 3b
       0.0024291133 0.0021390694 0.0034019828 0.003860754
000070 8a df 21 3b 80 7d 08 3b ea b9 c9 3a a6 9f 03 3b
       0.002469989 0.0020826757 0.001539049 0.0020084172
000080 6e 58 4f 3b 17 93 ec 3a 68 4a 72 3b dc 3d 77 3b
       0.0031638402 0.0018049207 0.003697062 0.003772608
000090 62 f7 d2 3a 42 d1 30 3b ac 5d 65 3b 34 20 cb 3a
       0.0016095454 0.0026980196 0.003499846 0.0015497268
0000a0 94 32 1b 3b d1 0f 2f 3b 17 4a 09 3b 2d ee 31 3b
       0.002368127 0.0026712308 0.0020948702 0.002715002
0000b0 6b 21 2b 3b 89 f6 56 3b 0e 07 81 3b 79 d5 6a 3b
       0.0026112448 0.0032800755 0.0039376086 0.0035832806
0000c0 77 8d 90 3b 22 f2 85 3b b9 62 1c 3b fa b1 47 3b
       0.004411395 0.0040877024 0.0023862554 0.0030471073
0000d0 a8 73 09 3b 59 bb 0e 3b f3 f0 02 3b 12 2b 31 3b
       0.0020973478 0.0021779148 0.0019980043 0.0027033729
0000e0 a0 58 02 3b 6c ab 20 3b 03 0c e4 3a 1a df 18 3b
       0.001988925 0.0024516238 0.0017398599 0.0023326338
0000f0 11 be 0a 3b 1b 39 80 3b 67 39 89 3b 02 0c 51 3b
       0.0021170417 0.0039130575 0.004187751 0.0031898026
000100 14 fb 75 3b 08 5c 16 3b ed e9 6d 3b ee 5c 36 3b
       0.0037533687 0.0022943038 0.003630276 0.0027826387
000110 f6 cd ef 3a c2 3c 22 3b ed 57 15 3b 68 a3 24 3b
       0.0018295634 0.0024755453 0.0022788004 0.0025121812
000120 e9 3e ee 3a e3 49 95 3b d7 3f 21 3b 5e c8 01 3b
       0.0018176708 0.004555927 0.0024604702 0.0019803266
000130 34 0d 30 3b 80 45 6e 3b 5c 51 a0 3b 42 89 3d 3b
       0.0026863338 0.0036357343 0.0048925113 0.0028920923
000140 16 e2 f1 3a 82 ed 61 3b 0c f5 13 3b 64 46 80 3b
       0.001845422 0.003447384 0.002257648 0.003914641
000150 77 96 49 3b 7a 5a 15 3b ef 99 22 3b be eb 61 3b
       0.003075985 0.0022789524 0.002481099 0.0034472789
000160 ad f1 58 3b 93 44 24 3b 5c 13 d4 3a 60 b7 9e 3b
       0.0033103034 0.0025065287 0.0016180086 0.0048436373
000170 93 ce 28 3b e3 48 59 3b d3 4b 20 3b 9d b4 17 3b
       0.0025757893 0.0033155016 0.0024459257 0.0023148425

inception_3b/3x3_reduce_w_0_scale f4 [128]
000000 08 2f d4 3b 2b b0 9e 3b 1c b7 e2 3b 49 92 8b 3b
       0.006475333 0.004842778 0.006918801 0.004259382
000010 2e dd 88 3b 40 b1 68 3b 3f 70 90 3b 5a 67 54 3b
       0.0041767573 0.003550604 0.004407912 0.0032410235
000020 f0 87 fc 3b 33 64 88 3b 70 80 ca 3b 9b 23 ca 3b
       0.0077066347 0.0041623353 0.0061798617 0.0061687953
000030 c0 54 f8 3b 57 34 ac 3b 98 f6 76 3b 45 07 72 3b
       0.0075784624 0.005255263 0.0037683602 0.0036930603
000040 fd 7a 82 3b be c3 93 3b c2 0d 83 3b 5d 8f 0a 3c
       0.0039819465 0.0045094183 0.003999443 0.008457032
000050 aa b0 b5 3b f4 d1 c0 3b 6a 4f 85 3b 8f b6 c3 3b
       0.0055447416 0.0058844034 0.004068305 0.0059726904
000060 62 b4 4c 3b 8b d2 74 3b 47 26 76 3b f0 18 a9 3b
       0.0031235446 0.0037356939 0.0037559436 0.0051604435
000070 31 7f d5 3b bc 8a 6b 3b 1c fb 81 3b 61 eb d3 3b
       0.0065154065 0.0035940846 0.003966702 0.0064672683
000080 1c 8b 8d 3b 97 aa 7c 3b 5a 99 d0 3b 65 41 dc 3b
       0.0043195616 0.0038553828 0.006365937 0.006721663
000090 2c 19 80 3b 87 0d 75 3b 13 03 91 3b 35 8e 48 3b
       0.0039092507 0.0037392096 0.0044254153 0.003060234
0000a0 f5 bb 02 3c a0 69 be 3b be 37 67 3b 14 7c 40 3b
       0.007979383 0.0058109313 0.0035281028 0.0029370831
0000b0 a4 04 97 3b da 78 a7 3b 75 07 1c 3c af d4 83 3b
       0.0046087075 0.005110842 0.009523262 0.0040231566
0000c0 05 74 13 3c b0 df 80 3b 5a 61 23 3c e5 6b ab 3b
       0.008999829 0.0039329156 0.009971941 0.005231368
0000d0 b6 75 10 3c 7b 48 e4 3b fc 3b 86 3b 91 71 ac 3b
       0.008817127 0.006966648 0.004096506 0.0052625616
0000e0 bd fe 7e 3b 6a a2 96 3b 1e 2c 96 3b ba 2e a5 3b
       0.003890916 0.004596998 0.004582896 0.0050409706
0000f0 69 0b 05 3c c6 1c af 3b 49 01 ab 3b 91 2a 7b 3b
       0.008120396 0.0053440062 0.005218659 0.0038324932
000100 19 c3 63 3b 8a 98 92 3b eb 38 80 3b 19 19 85 3b
       0.0034753738 0.0044737505 0.003913035 0.0040618298
000110 ff 89 bb 3b 9b 6b 99 3b a1 ad b8 3b 4e fb 97 3b
       0.0057232375 0.004682017 0.0056359326 0.004638112
000120 2b cf ad 3b 4a 29 b7 3b a8 1d 55 3b 0e cc ba 3b
       0.0053042374 0.005589639 0.0032518897 0.0057005947
000130 d3 14 74 3b ce 6b dd 3b b7 bb 60 3b cd fe 80 3b
       0.0037243858 0.006757236 0.0034291574 0.0039366246
000140 7e 4c c6 3b 35 bc 65 3b 47 09 2c 3c d3 77 87 3b
       0.006051599 0.0035054807 0.010500259 0.004134157
000150 f8 18 fc 3b 02 0e 7c 3b 49 42 b7 3b 7b b7 71 3b
       0.007693406 0.0038460498 0.0055926186 0.0036883045
000160 b1 55 92 3b 76 9c 80 3b 2e 13 84 3b d8 15 96 3b
       0.0044657816 0.0039249016 0.0040306067 0.0045802407
000170 f0 f8 84 3b bc 12 55 3b 48 52 8a 3b e1 46 cf 3b
       0.004057996 0.0032512387 0.0042212345 0.006325588
000180 64 35 4c 3b 9b 16 a3 3b ff 39 86 3b 48 ad 0d 3c
       0.0031159753 0.00497706 0.004096269 0.0086472705
000190 02 fb 8d 3b 14 f1 bc 3b 31 51 8a 3b 65 df 90 3b
       0.004332901 0.0057660434 0.0042211046 0.004421162
0001a0 71 30 a4 3b 4a 25 a4 3b c3 ce 78 3b 16 c1 bc 3b
       0.0050106575 0.005009328 0.0037965036 0.0057603223
0001b0 f9 f9 91 3b 98 84 8e 3b b2 79 dc 3b 4b 6a a2 3b
       0.004454848 0.0043493025 0.0067283744 0.0049565188
0001c0 b3 c1 8c 3b e6 19 80 3b f5 32 d9 3b ad f7 f1 3b
       0.0042955517 0.0039093373 0.006628389 0.0073842616
0001d0 38 fa d0 3b a3 4d 58 3b 90 7c 5c 3b cd 80 a5 3b
       0.0063774846 0.003300526 0.003364358 0.0050507546
0001e0 5c da a0 3b 0b c1 4c 3b ff 50 78 3b 02 10 ac 3b
       0.004908843 0.0031242992 0.0037890074 0.0052509317
0001f0 43 a7 bc 3b 10 7e 7d 3b 3d 64 eb 3b 77 7b 97 3b
       0.005757244 0.0038679875 0.00718358 0.0046228725

inception_3b/3x3_w_0_scale f4 [192]
000000 d0 4b 95 3b b0 d2 63 3b b5 45 1b 3b c4 e6 64 3b
       0.0045561567 0.003476303 0.0023692672 0.0034927586
000010 88 52 51 3b a1 1f 8b 3b f6 0f 18 3b e3 cf 03 3b
       0.0031940062 0.004245714 0.0023202873 0.0020112924
000020 0a 59 31 3b 2e e0 1c 3b 20 04 20 3b 0e be 7b 3b
       0.0027061128 0.0023937332 0.0024416521 0.0038412842
000030 e0 76 35 3b e9 38 42 3b 42 6b 03 3b de c6 31 3b
       0.0027689263 0.0029635972 0.0020052944 0.002712659
000040 72 78 29 3b fa 9e ff 3a 3b 17 e4 3a 6b 45 57 3b
       0.0025859145 0.0019502335 0.0017401943 0.0032847773
000050 2a f2 23 3b 4b d8 11 3b 3b 9b 1f 3b 6f 00 2b 3b
       0.0025016167 0.0022254165 0.0024354 0.0026092788
000060 9b fd 5e 3b f0 bc 0e 3b b3 e4 b9 3b c5 9b 09 3b
       0.0034025672 0.0021780096 0.005673015 0.0020997387
000070 8c 59 1a 3c 96 d0 2a 3b b0 9c 09 3b 56 19 2c 3b
       0.009420764 0.0026064268 0.0020997934 0.0026260219
000080 f6 e7 27 3b a4 72 31 3b 0c cc 20 3b 71 3c 0f 3b
       0.0025620437 0.0027076388 0.0024535684 0.0021856094
000090 f3 1c 0a 3b 63 3a 71 3b c1 52 0a 3b 6d 66 43 3b
       0.0021074384 0.0036808483 0.0021106454 0.002981569
0000a0 ad ea 90 3b 72 03 05 3b b1 b8 10 3b d0 53 7d 3b
       0.004422507 0.0020296243 0.002208274 0.0038654692
0000b0 18 1c 2e 3b cc 1d d6 3a a6 a3 6a 3b 35 08 10 3b
       0.0026567038 0.0016335784 0.0035803108 0.0021977548
0000c0 a3 1d 35 3b 2e 78 63 3b 46 97 00 3b 5c 81 c2 3b
       0.0027636073 0.0034709084 0.0019621416 0.005935831
0000d0 4f c8 f8 3a a5 e7 ec 3a 7e d2 04 3b 37 09 f0 3a
       0.0018980595 0.0018074407 0.0020267065 0.0018313293
0000e0 b2 00 0a 3b f1 39 74 3b ae 15 e3 3a af 34 22 3b
       0.0021057543 0.003726598 0.0017325187 0.002475064
0000f0 b5 61 0b 3b e9 42 13 3b f9 df 7a 3b 54 11 fe 3a
       0.0021267955 0.0022470301 0.003828047 0.0019383826
000100 2a 3e 22 3b ab 38 dc 3a 3f 3f fa 3a 40 0a 66 3b
       0.002475629 0.0016801556 0.0019092335 0.0035101324
000110 00 aa 22 3b bb a1 0c 3b 12 af 07 3b 43 35 0c 3b
       0.0024820566 0.0021458704 0.0020703715 0.002139405
000120 d9 16 16 3b 9a 77 3e 3b 1b 99 3c 3b f1 80 7d 3b
       0.0022901802 0.0029062987 0.0028777781 0.0038681591
000130 08 ba 29 3b 89 46 79 3b f8 3b 16 3b a6 b4 4a 3b
       0.0025898237 0.0038036427 0.0022923928 0.0030930429
000140 96 dc 03 3b f0 7d 2d 3b 06 ec 21 3b 28 2b 2e 3b
       0.0020120493 0.002647277 0.0024707331 0.0026576016
000150 1a 7f 43 3b 41 d8 00 3b 7e 51 fa 3a cf 64 2e 3b
       0.0029830397 0.0019660147 0.0019097773 0.002661038
000160 a7 2a 9a 3b 90 14 3c 3b 60 66 1b 3b f0 3a 24 3b
       0.0047047916 0.002869878 0.0023712143 0.0025059544
000170 68 a1 0a 3b 80 23 ab 3b 81 55 2b 3b 93 17 11 3b
       0.0021153335 0.005222738 0.0026143494 0.0022139295
000180 2c b6 0e 3b 96 97 58 3b 18 6b f3 3a ec 5f 4b 3b
       0.0021776063 0.0033049337 0.0018571345 0.0031032516
000190 eb 39 30 3b 2e 70 72 3b c9 ce 13 3b e9 1d 0d 3b
       0.002688999 0.0036993134 0.0022553673 0.002153272
0001a0 d3 2a 5e 3b d7 ad 21 3b 80 7d 3d 3b d2 bb 6a 3b
       0.0033900037 0.0024670267 0.0028913915 0.0035817516
0001b0 a2 62 23 3b fa ac a8 3b 0d b5 30 3b 06 c0 08 3b
       0.0024930616 0.0051475735 0.0026963383 0.0020866408
0001c0 b1 3e 25 3b 25 6f 2a 3b 39 df 84 3b a2 26 26 3b
       0.002521437 0.0026006189 0.0040549305 0.0025352617
0001d0 54 6d 03 3b 1f b0 e1 3a a6 f8 4a 3b f2 01 24 3b
       0.0020054178 0.0017218626 0.003097096 0.0025025574
0001e0 26 01 08 3b f8 ea 6e 3b 2b 13 da 3a c9 53 06 3b
       0.0020752638 0.003645597 0.0016637793 0.0020496717
0001f0 b9 9b 12 3b 23 42 61 3b 92 ae 0f 3b 3d 27 29 3b
       0.002237065 0.0034371696 0.002192412 0.0025810741
000200 e9 c6 8e 3b 4c 84 75 3b 7f ae 0e 3b bd 5d 65 3b
       0.004357208 0.0037462888 0.0021771488 0.00349985
000210 97 b5 13 3b 9c 8e d5 3a c4 2a 41 3b a4 4c f0 3a
       0.0022538656 0.0016293111 0.0029474953 0.0018333388
000220 3e 81 00 3b af 89 fe 3a 8f cf 6e 3b 7e 15 44 3b
       0.0019608284 0.0019419695 0.0036439633 0.0029920037
000230 f7 52 52 3b a8 5a 99 3b 2f 8a 0b 3b f5 9f 2c 3b
       0.0032092908 0.0046799965 0.002129208 0.002634046
000240 db 9b 29 3b 76 ba 32 3b 17 29 ff 3a ac fd 1f 3b
       0.002588025 0.0027271784 0.0019467202 0.0024412675
000250 55 f4 fd 3a 9a d7 34 3b ca b6 1d 3b c2 4a 4f 3b
       0.0019375185 0.002759433 0.002406525 0.0031630252
000260 17 21 3d 3b b6 c4 27 3b e7 0b ee 3a 7e bf 09 3b
       0.0028858834 0.0025599427 0.0018161506 0.002101868
000270 c9 f9 36 3b 46 25 61 3b 0d 4b f8 3a 1f b7 38 3b
       0.002791988 0.0034354492 0.0018943265 0.002818532
000280 ef 2f 31 3b 1e a2 53 3b 2f c2 21 3b 6f 1f 0a 3b
       0.0027036627 0.0032292674 0.0024682393 0.0021075865
000290 e6 9d 00 3b 7a d5 15 3b aa 0c 0d 3b 0b ec b7 3b
       0.0019625365 0.0022862838 0.002152244 0.0056128553
0002a0 64 da 12 3b 7d 1b f5 3a 52 27 15 3b d3 93 24 3b
       0.0022408003 0.0018700209 0.0022759032 0.0025112524
0002b0 76 7a 30 3b 8f 8b 5c 3b 1c cb 23 3b 83 ff f9 3a
       0.002692846 0.003365252 0.0024992889 0.0019073341
0002c0 3f 41 fb 3a 1e 25 1d 3b f0 40 fe 3a 8f 0a 30 3b
       0.0019169225 0.0023978422 0.0019398015 0.0026861762
0002d0 56 c3 47 3b c3 4b ff 3a 2c 65 37 3b ec af 10 3b
       0.003048142 0.0019477535 0.0027983887 0.0022077514
0002e0 66 b2 1a 3b 6f a3 76 3b 21 44 e7 3a d8 ef fa 3a
       0.002360487 0.0037634035 0.0017644205 0.0019144965
0002f0 f5 1c 01 3b e7 b1 aa 3b 0e 44 3f 3b aa 58 67 3b
       0.0019701098 0.005209196 0.002918485 0.003530065

inception_3b/1x1_w_0_scale f4 [128]
000000 8b d2 8e 3b e8 5a 83 3b f4 85 84 3b b9 85 db 3b
       0.004358595 0.0040086396 0.004044289 0.0066992906
000010 1e 0e 1d 3c 36 bd 7b 3b fd 32 ff 3b eb 09 81 3b
       0.009585885 0.003841234 0.0077880607 0.00393795
000020 ed f6 17 3c 0b e5 09 3c 22 e7 91 3b b1 05 7b 3b
       0.00927518 0.0084164245 0.004452602 0.0038302953
000030 72 39 28 3c be 1b 02 3c 89 fd 7d 3b 97 a3 bb 3b
       0.010267602 0.007941185 0.0038755855 0.0057262885
000040 c5 01 0b 3c 7b 20 9f 3b f3 0b 5a 3b cd af ac 3b
       0.008484309 0.004856167 0.0033271282 0.0052699805
000050 da 33 d0 3b 96 6d 08 3c a6 d5 58 3b 57 8e 89 3b
       0.0063538374 0.008326909 0.0033086329 0.0041978764
000060 13 49 03 3c 40 aa 98 3b 92 34 c5 3b b4 f4 8d 3b
       0.008013028 0.0046589673 0.0060182298 0.0043321494
000070 c1 f0 90 3b c7 19 98 3b 9b 54 e5 3b 77 c2 ae 3b
       0.0044232314 0.004641745 0.006998611 0.0053332406
000080 c1 f0 60 3b d4 ea 1b 3c 5d 9f 9e 3b c2 41 a2 3b
       0.0034323188 0.009516437 0.004840775 0.0049516866
000090 a9 e3 60 3b cf 81 a4 3b 32 bd d9 3b 98 47 75 3b
       0.0034315384 0.005020357 0.0066448683 0.0037426706
0000a0 bf f2 15 3c 85 91 80 3b 40 48 c4 3b 74 1b 80 3b
       0.009152113 0.0039235973 0.005990058 0.0039095227
0000b0 91 a7 b2 3b 60 3d 45 3b 27 45 07 3c bf cc 1b 3c
       0.0054521044 0.0030096397 0.008256233 0.0095092645
0000c0 62 c5 8a 3b ea 18 b4 3b 2e 81 90 3b bf 34 f8 3b
       0.0042349556 0.005496134 0.0044099307 0.007574647
0000d0 35 ae 79 3b 00 15 b3 3b e8 b9 22 3c 15 93 27 3c
       0.003809822 0.00546515 0.009932019 0.010227938
0000e0 00 10 e3 3b 4a 34 f0 3b 27 ec d3 3b 51 03 e0 3b
       0.0069293976 0.007330452 0.0064673605 0.006836333
0000f0 01 9b db 3b c3 96 e7 3b b0 85 c4 3b 31 6b 00 3c
       0.0067018275 0.0070675327 0.005997382 0.007838056
000100 a5 96 68 3b 7b f0 9a 3b aa fb d9 3b 02 a5 ba 3b
       0.0035490182 0.0047283745 0.006652315 0.00569594
000110 ec 6c e1 3b c1 a9 0a 3c ee f1 9a 3b 1b 0d c2 3b
       0.0068794396 0.008463324 0.0047285473 0.0059219724
000120 fa 87 80 3b e9 a6 ad 3b 2f 10 b8 3b d6 8b 01 3c
       0.0039224597 0.0052994383 0.0056171636 0.007906875
000130 14 6f 93 3b 7d 1e 05 3c 60 36 9b 3b 39 af 2c 3c
       0.0044993255 0.008124945 0.0047367066 0.010539823
000140 6a 2d 69 3b 9b 07 15 3c 04 df 86 3b 2c 57 ed 3b
       0.0035580047 0.009096052 0.004115941 0.0072430577
000150 75 8a b3 3b 36 fa 2d 3c f7 d0 9e 3b cb 8b 93 3b
       0.005479152 0.010618737 0.004846688 0.0045027486
000160 f5 30 8b 3b f3 57 dc 3b c8 7a cd 3b 4b f1 64 3b
       0.0042477795 0.0067243516 0.00627074 0.003493386
000170 31 1e b3 3b 00 76 2d 3c 23 4b d3 3b 50 45 7d 3b
       0.0054662456 0.010587215 0.006448166 0.003864605
000180 9a ec 6d 3b 7b cc 98 3b db 67 c5 3b 73 65 8b 3b
       0.0036304356 0.004663048 0.0060243434 0.004254037
000190 f9 49 94 3b 27 b5 a9 3b 93 a5 09 3c 61 8e ac 3b
       0.00452542 0.0051790657 0.008401292 0.0052659963
0001a0 f7 7d 21 3c ed f2 9b 3b 5a 4a 45 3b 6d e7 aa 3b
       0.0098566925 0.0047591836 0.0030104131 0.0052155764
0001b0 d8 07 5f 3b 04 a9 df 3b 3a bc 5b 3b 01 0d bc 3b
       0.0034031775 0.006825568 0.003352894 0.005738855
0001c0 ee db b2 3b bf e5 31 3c 92 2f ff 3b 0e b4 8f 3b
       0.0054583466 0.010857998 0.0077876532 0.004385478
0001d0 5f d8 d0 3b db 89 bd 3b 80 14 88 3b ff ac 8b 3b
       0.0063734497 0.005784256 0.0041528344 0.004262566
0001e0 f3 75 b2 3b ab e6 da 3b 57 8d dd 3b 65 61 59 3b
       0.0054461895 0.00668033 0.006761234 0.0033169624
0001f0 1a 7f 94 3b cc e2 19 3c 4b 93 50 3b 4e 5a 17 3c
       0.0045317532 0.0093924515 0.0031826075 0.009237839

inception_4a/pool_proj_w_0_scale f4 [64]
000000 32 1f a3 3b 30 a2 75 3b a1 da 50 3b 57 ff 4d 3b
       0.004978084 0.0037480704 0.0031868594 0.0031432712
000010 73 f6 38 3b 5f fa 3c 3b 94 35 3d 3b 4a 5a 46 3b
       0.0028223067 0.0028835756 0.0028871046 0.0030266219
000020 7e ed ac 3b d2 d1 8c 3b 78 d1 29 3b 79 ef 8c 3b
       0.0052773347 0.0042974735 0.0025912207 0.0043010083
000030 83 bd 27 3b b4 a6 3a 3b 5f 86 5c 3b e8 ee 30 3b
       0.0025595136 0.002848071 0.0033649427 0.0026997868
000040 92 8f 27 3b 58 3a 5d 3b e5 fc 53 3b 27 0f 44 3b
       0.0025567752 0.00337567 0.0032346782 0.0029916258
000050 4f 69 55 3b b3 81 2e 3b 84 ec 89 3b 82 dd 58 3b
       0.003256399 0.00266276 0.004209103 0.0033091013
000060 5b 33 81 3b 67 e2 90 3b 5a 8e 52 3b ed 80 8a 3b
       0.0039428896 0.0044215205 0.0032128305 0.004226795
000070 fd 36 91 3b a1 98 51 3b 7f 09 2c 3b e2 3c 3a 3b
       0.004431604 0.0031981843 0.0026250777 0.0028417637
000080 49 55 b9 3b 60 41 65 3b 2b a4 51 3b 45 e7 97 3b
       0.0056559187 0.0034981593 0.003198872 0.004635724
000090 9a ae 31 3b a8 51 19 3b f5 e4 9e 3b f1 59 38 3b
       0.0027112127 0.0023394618 0.004849071 0.002812978
0000a0 ac 3b 1a 3b 8b ea 81 3b 03 b8 48 3b 11 da 79 3b
       0.0023534102 0.0039647273 0.0030627258 0.0038124362
0000b0 2f a0 56 3b 87 c1 68 3b 46 ad 56 3b c9 84 f3 3a
       0.0032749285 0.0035515742 0.0032757088 0.0018579002
0000c0 a0 d9 56 3b c2 a9 2d 3b 05 e6 53 3b dd 79 8d 3b
       0.0032783523 0.0026498889 0.0032333147 0.0043175058
0000d0 b1 ad 8e 3b 52 ae 79 3b 2a a3 43 3b 04 42 c2 3b
       0.0043542017 0.0038098288 0.0029851892 0.00592828
0000e0 8d ff 4f 3b 3c 07 2a 3b 44 53 3c 3b 9e df 3a 3b
       0.0031738013 0.0025944253 0.0028736154 0.0028514634
0000f0 fb 56 2c 3c 33 cf 91 3b c5 a1 65 3b 73 5e 54 3b
       0.010518785 0.004449749 0.003503905 0.003240493

inception_4a/5x5_reduce_w_0_scale f4 [16]
000000 81 60 83 3b 5b 7c 97 3b 58 9d 97 3b a4 fb 2f 3b
       0.004009307 0.0046229786 0.004626911 0.002685287
000010 d6 08 31 3b 52 28 bd 3b f2 05 57 3b 63 1c e2 3b
       0.0027013323 0.005772629 0.003280994 0.0069003566
000020 f2 81 96 3b c6 f2 8f 3b 6c 46 7a 3b 95 2c 02 3c
       0.0045931274 0.0043929545 0.0038188947 0.0079451995
000030 d1 59 b9 3b ed 51 b3 3b e8 36 75 3b de ba a4 3b
       0.005656459 0.005472413 0.003741676 0.005027159

inception_4a/5x5_w_0_scale f4 [48]
000000 b1 9f 20 3b 94 7f 52 3b f4 95 45 3b e8 b2 45 3b
       0.0024509246 0.00321195 0.0030149193 0.003016645
000010 49 18 28 3b 5e 85 57 3b 69 db 7e 3b 32 87 0d 3b
       0.002564924 0.003288589 0.0038888103 0.0021595475
000020 1f 0d f9 3a 54 9c 0e 3b 2d 1d 02 3b d5 4f 6c 3b
       0.0019001103 0.002176066 0.0019853816 0.0036058326
000030 aa be 31 3b 25 e9 41 3b 4c 36 04 3b ca 9b 06 3b
       0.0027121701 0.0029588428 0.0020173965 0.0020539635
000040 72 03 07 3b 16 e2 42 3b 89 f7 00 3b eb b0 56 3b
       0.0020601419 0.0029736809 0.0019678792 0.003275926
000050 06 d9 76 3b 8e 1d 97 3b 51 e2 c0 3b 96 87 ed 3a
       0.0037665977 0.0046116775 0.005886354 0.0018122073
000060 2b 07 17 3b ab 0f b2 3b 07 74 26 3b 4f 84 36 3b
       0.0023045044 0.0054339967 0.0025398748 0.0027849858
000070 46 a4 50 3b e6 5f 13 3b d2 d5 06 3b df 9a 29 3b
       0.0031836196 0.002248758 0.0020574224 0.0025879664
000080 3e 53 63 3b 78 d6 a4 3b ad 0d 94 3b c3 87 0d 3b
       0.0034687067 0.0050304495 0.004518232 0.0021595813
000090 34 97 95 3b 0d 2b ff 3a 3a d3 53 3b 00 e8 15 3b
       0.004565144 0.0019467786 0.0032321946 0.0022873878
0000a0 1a 43 65 3b 5d cc 3c 3c 72 5a 55 3b 19 63 02 3b
       0.0034982623 0.011523333 0.003255513 0.0019895493
0000b0 96 d5 2b 3b 77 86 86 3b d3 63 38 3b 46 e7 a7 3b
       0.0026219836 0.004105385 0.0028135672 0.0051240055

inception_4a/3x3_reduce_w_0_scale f4 [96]
000000 84 44 e3 3b d1 08 9d 3b 92 bd 91 3b 6a 20 95 3b
       0.006935658 0.0047923108 0.0044476474 0.004550983
000010 48 c5 80 3b 5a 17 9d 3b 3c a3 0c 3c 10 19 81 3b
       0.0039297678 0.0047940435 0.00858384 0.0039397553
000020 4a 1d 84 3b 89 4b 92 3b 32 22 8a 3b 4d 7c b6 3b
       0.004031812 0.004464571 0.004215502 0.005569017
000030 84 ee b7 3b d7 21 64 3b 35 be 81 3b 1b 91 98 3b
       0.00561315 0.003481021 0.003959442 0.00465597
000040 0a c4 70 3b 5a 00 e7 3b 52 80 9e 3b de b6 68 3b
       0.0036737942 0.0070496025 0.0048370743 0.0035509388
000050 73 1c 8a 3b 98 1a 5b 3b a7 a5 b5 3b 89 57 54 3b
       0.004214817 0.00334326 0.005543429 0.0032400808
000060 dc 26 87 3b 4f c5 69 3b 22 45 94 3b 2c 2c 7e 3b
       0.0041245054 0.0035670584 0.004524843 0.0038783653
000070 fc 52 70 3b b1 61 4e 3b c0 91 97 3b 5e 5f a9 3b
       0.0036670556 0.0031491334 0.004625529 0.0051688394
000080 c5 92 fd 3b 3d 78 6b 3b dc 34 56 3b 78 fe 88 3b
       0.0077384436 0.0035929822 0.0032685315 0.0041807257
000090 da cd a9 3b 14 e6 4b 3b 48 00 84 3b a9 be fe 3b
       0.00518201 0.003111248 0.004028354 0.0077741933
0000a0 42 7a a0 3b a3 7d 0a 3c 9e 39 a4 3b 4b d2 a7 3b
       0.0048973868 0.008452806 0.0050117513 0.0051215044
0000b0 ed e6 a3 3b 63 fe a5 3b 31 0d d5 3b f0 28 18 3c
       0.0050018937 0.0050657257 0.0065018167 0.009287104
0000c0 bf 54 ad 3b d2 a0 a4 3b 02 09 d3 3b d2 7d 56 3b
       0.0052896435 0.005024054 0.006440283 0.0032728803
0000d0 5f 16 b6 3b 1b 4f 98 3b 01 33 c3 3b 1f 85 0e 3c
       0.005556866 0.004648102 0.005957008 0.008698731
0000e0 29 ac 52 3b 7e e5 98 3b 70 9f 6d 3b 32 bb ac 3b
       0.0032146072 0.0046660295 0.0036258362 0.005271339
0000f0 47 8d 2b 3b 5e a0 89 3b e3 4a 4d 3b 54 d6 ce 3b
       0.0026176737 0.0042000255 0.0031325154 0.006312171
000100 46 d4 71 3b d8 e6 9c 3b da 03 9a 3b a8 29 a3 3b
       0.0036900206 0.004788261 0.004700166 0.004979331
000110 ec f8 53 3b 5f 53 86 3b 1d 09 cf 3b d3 a6 82 3b
       0.0032344414 0.004099294 0.006318225 0.003987172
000120 8d 2e b6 3b ad e6 af 3b 30 8f b8 3b c1 fc 69 3b
       0.0055597485 0.005368075 0.0056323037 0.0035703632
000130 2e 14 f1 3b 2e 38 83 3b 8b 0d fc 3b f6 1a b5 3b
       0.007357142 0.0040045 0.007692044 0.0055268956
000140 54 d9 6b 3b 62 d8 a2 3b 9d 48 87 3b 3b d1 48 3b
       0.0035987692 0.0049696425 0.004128529 0.003064229
000150 f0 06 b4 3b 09 bf 48 3b 66 44 74 3b cd 3b ce 3b
       0.005493991 0.0030631444 0.0037272214 0.00629375
000160 19 ed a0 3b f9 87 c8 3b 0b 03 80 3b b2 76 6d 3b
       0.0049110767 0.006119725 0.0039066128 0.0036234078
000170 ed ca 90 3b 57 9d 97 3b a3 a9 4b 3b 35 9e 82 3b
       0.004418722 0.0046269107 0.0031076453 0.003986145
