inputs/examples/workloads/kws_DS_CNN_inferred.onnx (onnx, 59725 bytes, 19 tensors)

functional_1/batch_normalization_1/FusedBatchNormV3;functional_1/depthwise_conv2d/depthwise;functional_1/depthwise_conv2d/BiasAdd;functional_1/conv2d_4/Conv2D;functional_1/depthwise_conv2d/BiasAdd/ReadVariableOp/resource f4 [64, 1, 3, 3]
000000 08 06 12 0b 74 66 6c 69 74 65 32 6f 6e 6e 78 3a
       2.8123115e-32 1.7861895e+25 5.521098e+28 0.00094769045
000010 ae eb 01 0a b6 06 0a 07 69 6e 70 75 74 5f 31 0a
       6.2554505e-33 1.0383938e-34 3.0478287e+32 8.540193e-33
000020 1a 66 75 6e 63 74 69 6f 6e 61 6c 5f 31 2f 63 6f
       1.8986815e+28 7.225071e+28 1.7033016e+19 7.031015e+28
000030 6e 76 32 64 2f 43 6f 6e 76 32 44 0a d6 01 66 75
       1.3168217e+22 1.8512034e+28 9.4465474e-33 2.9156873e+32
000040 6e 63 74 69 6f 6e 61 6c 5f 31 2f 61 63 74 69 76
       1.8465465e+25 1.0901193e+27 2.0198361e+20 1.1837556e+33
000050 61 74 69 6f 6e 2f 52 65 6c 75 3b 66 75 6e 63 74
       7.22507e+28 6.2035743e+22 2.2131215e+23 7.207591e+31
000060 69 6f 6e 61 6c 5f 31 2f 62 61 74 63 68 5f 6e 6f
       2.7489706e+20 1.6131957e-10 4.5080227e+21 7.377277e+28
000070 72 6d 61 6c 69 7a 61 74 69 6f 6e 2f 46 75 73 65
       1.0901006e+27 7.1456883e+31 2.1685555e-10 7.185615e+22
000080 64 42 61 74 63 68 4e 6f 72 6d 56 33 3b 66 75 6e
       7.1387534e+31 6.388011e+28 4.9925298e-08 1.8986854e+28
000090 63 74 69 6f 6e 61 6c 5f 31 2f 63 6f 6e 76 32 64
       7.225071e+28 1.7033016e+19 7.031015e+28 1.3168217e+22
0000a0 2f 42 69 61 73 41 64 64 2f 52 65 61 64 56 61 72
       2.6892877e+20 1.6842295e+22 2.6438915e+20 4.4632683e+30
0000b0 69 61 62 6c 65 4f 70 2f 72 65 73 6f 75 72 63 65
       1.094709e+27 2.185608e-10 7.5327497e+28 6.7130534e+22
0000c0 3b 66 75 6e 63 74 69 6f 6e 61 6c 5f 31 2f 63 6f
       1.8986854e+28 7.225071e+28 1.7033016e+19 7.031015e+28
0000d0 6e 76 32 64 2f 42 69 61 73 41 64 64 3b 66 75 6e
       1.3168217e+22 2.6892877e+20 1.6842295e+22 1.8986854e+28
0000e0 63 74 69 6f 6e 61 6c 5f 31 2f 63 6f 6e 76 32 64
       7.225071e+28 1.7033016e+19 7.031015e+28 1.3168217e+22
0000f0 5f 34 2f 43 6f 6e 76 32 44 3b 66 75 6e 63 74 69
       175.20457 1.4344194e-08 2.918531e+32 1.8465465e+25
000100 6f 6e 61 6c 5f 31 2f 63 6f 6e 76 32 64 2f 43 6f
       1.0901193e+27 3.2317378e+21 1.4344194e-08 6.040687e+28
000110 6e 76 32 44 12 e7 01 54 46 4c 49 54 45 32 4f 4e
       713.85046 2.23171e+12 3.4582723e+12 8.6904454e+08
000120 4e 58 5f 46 41 46 5f 66 75 6e 63 74 69 6f 6e 61
       14294.076 2.6359592e+23 7.207591e+31 2.7489706e+20
000130 6c 5f 31 2f 61 63 74 69 76 61 74 69 6f 6e 2f 52
       1.6131957e-10 1.846545e+25 1.8464884e+25 1.8836801e+11
000140 65 6c 75 3b 66 75 6e 63 74 69 6f 6e 61 6c 5f 31
       0.0037448641 4.3987845e+21 1.85236e+28 3.2512377e-09
000150 2f 62 61 74 63 68 5f 6e 6f 72 6d 61 6c 69 7a 61
       7.142689e+31 1.7285338e+28 2.7375776e+20 2.8870515e+20
000160 74 69 6f 6e 2f 46 75 73 65 64 42 61 74 63 68 4e
       1.85236e+28 1.943262e+31 2.241189e+20 9.74708e+08
000170 6f 72 6d 56 33 3b 66 75 6e 63 74 69 6f 6e 61 6c
       6.5268936e+13 2.9185278e+32 1.8465465e+25 1.0901193e+27
000180 5f 31 2f 63 6f 6e 76 32 64 2f 42 69 61 73 41 64
       3.2317378e+21 1.4344194e-08 1.4672213e+25 1.4274142e+22
000190 64 2f 52 65 61 64 56 61 72 69 61 62 6c 65 4f 70
       6.20357e+22 2.4717727e+20 1.0395289e+21 2.5674403e+29
0001a0 2f 72 65 73 6f 75 72 63 65 3b 66 75 6e 63 74 69
       1.8178587e+31 4.472574e+21 2.9185375e+32 1.8465465e+25
0001b0 6f 6e 61 6c 5f 31 2f 63 6f 6e 76 32 64 2f 42 69
       1.0901193e+27 3.2317378e+21 1.4344194e-08 1.4672213e+25
0001c0 61 73 41 64 64 3b 66 75 6e 63 74 69 6f 6e 61 6c
       1.4274142e+22 2.9185373e+32 1.8465465e+25 1.0901193e+27
0001d0 5f 31 2f 63 6f 6e 76 32 64 5f 34 2f 43 6f 6e 76
       3.2317378e+21 1.4344194e-08 1.6404794e-10 1.2090071e+33
0001e0 32 44 3b 66 75 6e 63 74 69 6f 6e 61 6c 5f 31 2f
       2.2108513e+23 7.207591e+31 2.7489706e+20 1.6131957e-10
0001f0 63 6f 6e 76 32 64 2f 43 6f 6e 76 32 44 31 1a e7
       1.2090096e+33 175.39139 1.4344194e-08 -7.281532e+23
000200 01 54 46 4c 49 54 45 32 4f 4e 4e 58 5f 46 41 46
       5.1990532e+07 1.1486073e-08 9.073429e+14 12369.593
000210 5f 66 75 6e 63 74 69 6f 6e 61 6c 5f 31 2f 61 63
       1.8986897e+28 7.225071e+28 1.7033016e+19 4.153918e+21
000220 74 69 76 61 74 69 6f 6e 2f 52 65 6c 75 3b 66 75
       2.840936e+20 1.85236e+28 1.10892845e+27 2.9185406e+32
000230 6e 63 74 69 6f 6e 61 6c 5f 31 2f 62 61 74 63 68
       1.8465465e+25 1.0901193e+27 8.0793444e+20 4.296496e+24
000240 5f 6e 6f 72 6d 61 6c 69 7a 61 74 69 6f 6e 2f 46
       4.7424223e+30 1.7860411e+25 1.8464889e+25 11227.608
000250 75 73 65 64 42 61 74 63 68 4e 6f 72 6d 56 33 3b
       1.6930496e+22 4.5080137e+21 4.739949e+30 0.0027364746
000260 66 75 6e 63 74 69 6f 6e 61 6c 5f 31 2f 63 6f 6e
       4.3987845e+21 1.85236e+28 3.2512377e-09 1.8521706e+28
000270 76 32 64 2f 42 69 61 73 41 64 64 2f 52 65 61 64
       2.0754407e-10 1.7858912e+31 2.0772097e-10 1.6631273e+22
000280 56 61 72 69 61 62 6c 65 4f 70 2f 72 65 73 6f 75
       1.8313732e+25 6.976833e+22 3.4749216e+30 3.035399e+32
000290 72 63 65 3b 66 75 6e 63 74 69 6f 6e 61 6c 5f 31
       0.00350019 4.3987845e+21 1.85236e+28 3.2512377e-09
0002a0 2f 63 6f 6e 76 32 64 2f 42 69 61 73 41 64 64 3b
       1.8521706e+28 2.0754407e-10 1.7858912e+31 0.0034849795
0002b0 66 75 6e 63 74 69 6f 6e 61 6c 5f 31 2f 63 6f 6e
       4.3987845e+21 1.85236e+28 3.2512377e-09 1.8521706e+28
0002c0 76 32 64 5f 34 2f 43 6f 6e 76 32 44 3b 66 75 6e
       1.6443335e+19 6.040664e+28 713.85046 1.8986854e+28
0002d0 63 74 69 6f 6e 61 6c 5f 31 2f 63 6f 6e 76 32 64
       7.225071e+28 1.7033016e+19 7.031015e+28 1.3168217e+22
0002e0 2f 43 6f 6e 76 32 44 31 22 04 43 6f 6e 76 2a 12
       1.8512034e+28 2.8550438e-09 6.0354573e+28 5.3788517e-28
0002f0 0a 09 64 69 6c 61 74 69 6f 6e 73 40 01 40 01 a0
       1.7229861e+25 1.8464873e+25 3.8036153 -1.0947902e-19
000300 01 07 2a 0c 0a 05 67 72 6f 75 70 18 01 a0 01 02
       1.3098431e-31 4.5758163e+30 3.1078562e-24 9.523342e-38
000310 2a 15 0a 0c 6b 65 72 6e 65 6c 5f 73 68 61 70 65
       1.0637502e-31 1.8754495e+28 1.7701427e+31 7.09478e+22
000320 40 0a 40 04 a0 01 07 2a 11 0a 04 70 61 64 73 40
       2.2574198e-36 1.1990972e-13 1.6345676e+29 3.8030016
000330 04 40 01 40 05 40 01 a0 01 07 2a 10 0a 07 73 74
       2.0195322 -1.0947907e-19 3.3531984e-29 7.701849e+31
000340 72 69 64 65 73 40 02 40 02 a0 01 07 0a a4 05 0a
       6.7415293e+22 2.0351837 9.751903e-35 6.4345694e-33
000350 e7 01 54 46 4c 49 54 45 32 4f 4e 4e 58 5f 46 41
       13568.476 3396.581 8.6532416e+08 12.398277
000360 46 5f 66 75 6e 63 74 69 6f 6e 61 6c 5f 31 2f 61
       2.920314e+32 1.8465465e+25 1.0901193e+27 2.0198361e+20
000370 63 74 69 76 61 74 69 6f 6e 2f 52 65 6c 75 3b 66
       1.1837556e+33 7.22507e+28 6.2035743e+22 2.2131215e+23
000380 75 6e 63 74 69 6f 6e 61 6c 5f 31 2f 62 61 74 63
       7.207591e+31 2.7489706e+20 1.6131957e-10 4.5080227e+21
000390 68 5f 6e 6f 72 6d 61 6c 69 7a 61 74 69 6f 6e 2f
       7.377277e+28 1.0901006e+27 7.1456883e+31 2.1685555e-10
0003a0 46 75 73 65 64 42 61 74 63 68 4e 6f 72 6d 56 33
       7.185615e+22 7.1387534e+31 6.388011e+28 4.9925298e-08
0003b0 3b 66 75 6e 63 74 69 6f 6e 61 6c 5f 31 2f 63 6f
       1.8986854e+28 7.225071e+28 1.7033016e+19 7.031015e+28
0003c0 6e 76 32 64 2f 42 69 61 73 41 64 64 2f 52 65 61
       1.3168217e+22 2.6892877e+20 1.6842295e+22 2.6438915e+20
0003d0 64 56 61 72 69 61 62 6c 65 4f 70 2f 72 65 73 6f
       4.4632683e+30 1.094709e+27 2.185608e-10 7.5327497e+28
0003e0 75 72 63 65 3b 66 75 6e 63 74 69 6f 6e 61 6c 5f
       6.7130534e+22 1.8986854e+28 7.225071e+28 1.7033016e+19
0003f0 31 2f 63 6f 6e 76 32 64 2f 42 69 61 73 41 64 64
       7.031015e+28 1.3168217e+22 2.6892877e+20 1.6842295e+22

functional_1/activation_3/Relu;functional_1/batch_normalization_3/FusedBatchNormV3;functional_1/depthwise_conv2d_1/depthwise;functional_1/depthwise_conv2d_1/BiasAdd;functional_1/conv2d_4/Conv2D;functional_1/depthwise_conv2d_1/BiasAdd/ReadVariableOp/resource f4 [64]
000000 43 e4 4b bf 00 8c 79 3f f3 86 2b 3e e2 12 48 bf
       -0.79645175 0.9747925 0.16750698 -0.7815381
000010 74 b1 89 be d0 23 a7 3f b8 51 84 be d0 72 8b 3b
       -0.26893198 1.3057804 -0.25843596 0.00425563
000020 0f 78 49 bf 22 28 5a 3f 20 74 34 bf 15 76 c9 be
       -0.7869882 0.8521749 -0.7048969 -0.39347902
000030 1b 50 85 3e 01 b7 8c bf 16 05 2b bf ea 5b 22 3e
       0.26037678 -1.0993348 -0.66804636 0.15855375
000040 80 8d c7 be 46 09 a5 bf 83 dd 2e bf 9a b1 86 3f
       -0.38975143 -1.2893455 -0.6830675 1.052295
000050 4c 32 3e be 75 6c c5 3f a6 88 0c bf 04 fb df 3e
       -0.18573874 1.5423723 -0.5489601 0.43746197
000060 09 01 63 bf 69 8b 18 bf 82 43 e4 3e 4e c9 c7 be
       -0.88673455 -0.59587723 0.44582754 -0.3902077
000070 fa c5 13 bf 2e 39 41 bf e8 87 45 3f 54 4f 1f bc
       -0.57723963 -0.75477874 0.771605 -0.009723503
000080 27 9b 8f bf cf 0c f3 3d 0d 64 e8 3e 46 ba 23 bf
       -1.1219224 0.118676774 0.45388833 -0.63956106
000090 ce aa 6f 3f 44 a6 20 3c 6e b8 05 bf ff 03 cb be
       0.9362 0.009805266 -0.5223454 -0.39651486
0000a0 a8 c0 e6 be ae 71 e1 bd 7f 78 8d 3f a1 5c b0 be
       -0.4506886 -0.11008011 1.1052397 -0.3444567
0000b0 0b 77 9c 3f c7 d9 04 bf c2 42 5e be 11 55 90 be
       1.2223829 -0.518948 -0.21705154 -0.281899
0000c0 82 64 c3 be 46 f6 cf be e5 ec 92 3f fe 0e 9b be
       -0.3816262 -0.4061758 1.1478544 -0.30284876
0000d0 14 d5 94 3f fa 7b 93 3f 33 ac 4f 3f ff df 5a be
       1.1627526 1.152221 0.8112213 -0.2137451
0000e0 93 33 3c bf de 22 ae 3e 57 34 1a 3e 14 67 ad 3f
       -0.73516196 0.34010977 0.15059029 1.3547082
0000f0 63 d8 0a bf b7 a9 44 3f 82 cc 76 be f4 3e 8b 3f
       -0.5423643 0.76821464 -0.24101451 1.0878587

functional_1/activation_1/Relu;functional_1/batch_normalization_1/FusedBatchNormV3;functional_1/depthwise_conv2d/depthwise;functional_1/depthwise_conv2d/BiasAdd;functional_1/conv2d_4/Conv2D;functional_1/depthwise_conv2d/BiasAdd/ReadVariableOp/resource f4 [64]
000000 45 8f a1 3e a5 11 34 3f cc fb ef 3e 13 df 1e bd
       0.31554618 0.70339423 0.46871793 -0.03878696
000010 72 38 a3 3e 0c b1 48 be fe e3 5d 3e 8f b3 34 3f
       0.31879002 -0.19598788 0.21669003 0.70586485
000020 b0 73 1f bc 60 6a 46 3b 54 b2 8e 3d 67 58 2d 3d
       -0.009732172 0.0030275807 0.06967607 0.042320635
000030 48 f9 5c 3d 73 59 2a 3e 75 34 15 3e f5 46 bf 3d
       0.05394867 0.16635685 0.14570792 0.09339706
000040 a5 bd d0 bd 06 a4 00 3f 3c 17 ee 3b f6 cc 0e 3d
       -0.10192422 0.5025028 0.0072659533 0.034863435
000050 be 6c 78 3e 97 da fc 3e be ad 4a be aa 7c 9d be
       0.24260232 0.4938552 -0.1979284 -0.30759174
000060 4d 48 06 3f 2b 98 15 3e e7 44 06 3f ec 65 aa bc
       0.5245407 0.14608829 0.52448887 -0.020800553
000070 f8 0b a1 3c 98 36 85 3c 89 0d 75 3d 67 97 d8 3e
       0.019659027 0.016261384 0.05982736 0.4230301
000080 65 27 37 be b2 f0 56 be 98 60 ee 3d ad 95 03 3f
       -0.17886122 -0.20990255 0.116395175 0.5140026
000090 94 2d 3e 3e a8 22 a4 3e f4 96 5d 3f 9c 48 01 3f
       0.18572074 0.3205769 0.8655846 0.5050142
0000a0 c8 67 3e bc 8c a6 a0 bd 60 ce 44 be be 06 9b 3e
       -0.011621423 -0.07844266 -0.19219351 0.3027858
0000b0 10 f6 f1 3c be 8e 3c 3e c2 55 48 3f 44 2e 25 3f
       0.029536277 0.18413827 0.78255856 0.6452372
0000c0 a5 d5 4d be d1 92 05 3e 74 7d 7a 3e 20 63 6c 3b
       -0.2010103 0.13044287 0.24461919 0.0036069825
0000d0 19 67 a4 3e 46 c4 cd 3d 0e 5e 15 bd 70 91 10 3d
       0.32109907 0.10047202 -0.03646665 0.03529495
0000e0 3b 9f 2b 3e 26 a1 54 3e 80 5b 35 3c cb a6 36 3f
       0.1675996 0.20764598 0.011069179 0.71348256
0000f0 31 95 d5 3e 96 82 d0 3e 62 d4 b8 3e 5c 2f 31 bc
       0.41715387 0.4072463 0.36099535 -0.010814514

functional_1/dense/MatMul f4 [12, 64]
000000 31 2f 46 75 73 65 64 42 61 74 63 68 4e 6f 72 6d
       2.512285e+32 57.09907 4.296496e+24 4.6893707e+27
000010 56 33 3b 66 75 6e 63 74 69 6f 6e 61 6c 5f 31 2f
       2.2100738e+23 7.207591e+31 2.7489706e+20 1.6131957e-10
000020 64 65 70 74 68 77 69 73 65 5f 63 6f 6e 76 32 64
       7.618455e+31 1.8497116e+31 7.036842e+28 1.3168217e+22
000030 2f 64 65 70 74 68 77 69 73 65 3b 66 75 6e 63 74
       2.8397273e+29 1.8693621e+25 2.2123849e+23 7.207591e+31
000040 69 6f 6e 61 6c 5f 31 2f 64 65 70 74 68 77 69 73
       2.7489706e+20 1.6131957e-10 7.618455e+31 1.8497116e+31
000050 65 5f 63 6f 6e 76 32 64 2f 42 69 61 73 41 64 64
       7.036842e+28 1.3168217e+22 2.6892877e+20 1.6842295e+22
000060 3b 66 75 6e 63 74 69 6f 6e 61 6c 5f 31 2f 63 6f
       1.8986854e+28 7.225071e+28 1.7033016e+19 7.031015e+28
000070 6e 76 32 64 5f 34 2f 43 6f 6e 76 32 44 3b 66 75
       1.3168217e+22 175.20457 1.4344194e-08 2.918531e+32
000080 6e 63 74 69 6f 6e 61 6c 5f 31 2f 64 65 70 74 68
       1.8465465e+25 1.0901193e+27 1.2926951e+22 4.617323e+24
000090 77 69 73 65 5f 63 6f 6e 76 32 64 2f 42 69 61 73
       7.1842534e+22 1.8521762e+28 2.0754407e-10 1.7858912e+31
0000a0 41 64 64 2f 52 65 61 64 56 61 72 69 61 62 6c 65
       2.0772097e-10 1.6631273e+22 1.8313732e+25 6.976833e+22
0000b0 4f 70 2f 72 65 73 6f 75 72 63 65 31 1a 8c 02 54
       3.4749216e+30 3.035399e+32 3.3380414e-09 2.242785e+12
0000c0 46 4c 49 54 45 32 4f 4e 4e 58 5f 46 41 46 5f 66
       3.4582723e+12 8.6904454e+08 14294.076 2.6359592e+23
0000d0 75 6e 63 74 69 6f 6e 61 6c 5f 31 2f 61 63 74 69
       7.207591e+31 2.7489706e+20 1.6131957e-10 1.846545e+25
0000e0 76 61 74 69 6f 6e 5f 31 2f 52 65 6c 75 3b 66 75
       1.8464884e+25 3.2513545e-09 1.10892845e+27 2.9185406e+32
0000f0 6e 63 74 69 6f 6e 61 6c 5f 31 2f 62 61 74 63 68
       1.8465465e+25 1.0901193e+27 8.0793444e+20 4.296496e+24
000100 5f 6e 6f 72 6d 61 6c 69 7a 61 74 69 6f 6e 5f 31
       4.7424223e+30 1.7860411e+25 1.8464889e+25 3.2513545e-09
000110 2f 46 75 73 65 64 42 61 74 63 68 4e 6f 72 6d 56
       1.943262e+31 2.241189e+20 9.74708e+08 6.5268936e+13
000120 33 3b 66 75 6e 63 74 69 6f 6e 61 6c 5f 31 2f 64
       2.9185278e+32 1.8465465e+25 1.0901193e+27 1.2926951e+22
000130 65 70 74 68 77 69 73 65 5f 63 6f 6e 76 32 64 2f
       4.617323e+24 7.1842534e+22 1.8521762e+28 2.0754407e-10
000140 64 65 70 74 68 77 69 73 65 3b 66 75 6e 63 74 69
       7.618455e+31 1.8497116e+31 2.9185375e+32 1.8465465e+25
000150 6f 6e 61 6c 5f 31 2f 64 65 70 74 68 77 69 73 65
       1.0901193e+27 1.2926951e+22 4.617323e+24 7.1842534e+22
000160 5f 63 6f 6e 76 32 64 2f 42 69 61 73 41 64 64 3b
       1.8521762e+28 2.0754407e-10 1.7858912e+31 0.0034849795
000170 66 75 6e 63 74 69 6f 6e 61 6c 5f 31 2f 63 6f 6e
       4.3987845e+21 1.85236e+28 3.2512377e-09 1.8521706e+28
000180 76 32 64 5f 34 2f 43 6f 6e 76 32 44 3b 66 75 6e
       1.6443335e+19 6.040664e+28 713.85046 1.8986854e+28
000190 63 74 69 6f 6e 61 6c 5f 31 2f 64 65 70 74 68 77
       7.225071e+28 1.7033016e+19 6.734813e+22 4.7147442e+33
0001a0 69 73 65 5f 63 6f 6e 76 32 64 2f 42 69 61 73 41
       1.6533674e+19 1.2090096e+33 43.847847 15.211282
0001b0 64 64 2f 52 65 61 64 56 61 72 69 61 62 6c 65 4f
       1.8832589e+11 6.277674e+13 2.6914583e+20 3.8490854e+09
0001c0 70 2f 72 65 73 6f 75 72 63 65 31 22 04 43 6f 6e
       7.1480485e+22 4.861348e+30 2.4041647e-18 1.8511984e+28
0001d0 76 2a 12 0a 09 64 69 6c 61 74 69 6f 6e 73 40 01
       7.03763e-33 1.1286085e+27 7.22507e+28 3.5347647e-38
0001e0 40 01 a0 01 07 2a 0c 0a 05 67 72 6f 75 70 18 40
       5.877651e-38 6.748659e-33 7.5019915e+28 2.3818638
0001f0 a0 01 02 2a 15 0a 0c 6b 65 72 6e 65 6c 5f 73 68
       1.1546883e-13 1.6929723e+26 7.037709e+22 4.597181e+24
000200 61 70 65 40 03 40 03 a0 01 07 2a 11 0a 04 70 61
       3.584984 -1.1117311e-19 1.3412794e-28 2.7671935e+20
000210 64 73 40 01 40 01 40 01 40 01 a0 01 07 2a 10 0a
       3.534762e-38 3.5265727e-38 5.877651e-38 6.941252e-33
000220 07 73 74 72 69 64 65 73 40 01 40 01 a0 01 07 0a
       4.8418177e+30 1.8174325e+31 3.5265727e-38 6.500319e-33
000230 93 06 0a 8c 02 54 46 4c 49 54 45 32 4f 4e 4e 58
       -1.0633112e-31 5.1990536e+07 1.1486073e-08 9.073429e+14
000240 5f 46 41 46 5f 66 75 6e 63 74 69 6f 6e 61 6c 5f
       12369.593 1.8986897e+28 7.225071e+28 1.7033016e+19
000250 31 2f 61 63 74 69 76 61 74 69 6f 6e 5f 31 2f 52
       4.153918e+21 2.840936e+20 1.85236e+28 1.881119e+11
000260 65 6c 75 3b 66 75 6e 63 74 69 6f 6e 61 6c 5f 31
       0.0037448641 4.3987845e+21 1.85236e+28 3.2512377e-09
000270 2f 62 61 74 63 68 5f 6e 6f 72 6d 61 6c 69 7a 61
       7.142689e+31 1.7285338e+28 2.7375776e+20 2.8870515e+20
000280 74 69 6f 6e 5f 31 2f 46 75 73 65 64 42 61 74 63
       1.85236e+28 11212.343 1.6930496e+22 4.5080137e+21
000290 68 4e 6f 72 6d 56 33 3b 66 75 6e 63 74 69 6f 6e
       4.739949e+30 0.0027364746 4.3987845e+21 1.85236e+28
0002a0 61 6c 5f 31 2f 64 65 70 74 68 77 69 73 65 5f 63
       3.2512377e-09 2.8397273e+29 1.8693621e+25 4.120934e+21
0002b0 6f 6e 76 32 64 2f 64 65 70 74 68 77 69 73 65 3b
       1.4344194e-08 6.734836e+22 4.7147442e+33 0.0035011417
0002c0 66 75 6e 63 74 69 6f 6e 61 6c 5f 31 2f 64 65 70
       4.3987845e+21 1.85236e+28 3.2512377e-09 2.8397273e+29
0002d0 74 68 77 69 73 65 5f 63 6f 6e 76 32 64 2f 42 69
       1.8693621e+25 4.120934e+21 1.4344194e-08 1.4672213e+25
0002e0 61 73 41 64 64 3b 66 75 6e 63 74 69 6f 6e 61 6c
       1.4274142e+22 2.9185373e+32 1.8465465e+25 1.0901193e+27
0002f0 5f 31 2f 63 6f 6e 76 32 64 5f 34 2f 43 6f 6e 76
       3.2317378e+21 1.4344194e-08 1.6404794e-10 1.2090071e+33
000300 32 44 3b 66 75 6e 63 74 69 6f 6e 61 6c 5f 31 2f
       2.2108513e+23 7.207591e+31 2.7489706e+20 1.6131957e-10
000310 64 65 70 74 68 77 69 73 65 5f 63 6f 6e 76 32 64
       7.618455e+31 1.8497116e+31 7.036842e+28 1.3168217e+22
000320 2f 42 69 61 73 41 64 64 2f 52 65 61 64 56 61 72
       2.6892877e+20 1.6842295e+22 2.6438915e+20 4.4632683e+30
000330 69 61 62 6c 65 4f 70 2f 72 65 73 6f 75 72 63 65
       1.094709e+27 2.185608e-10 7.5327497e+28 6.7130534e+22
000340 31 12 fc 01 66 75 6e 63 74 69 6f 6e 61 6c 5f 31
       9.2596284e-38 4.3987845e+21 1.85236e+28 3.2512377e-09
000350 2f 61 63 74 69 76 61 74 69 6f 6e 5f 31 2f 52 65
       7.205948e+31 7.145193e+31 1.7181067e+19 6.203547e+22
000360 6c 75 3b 66 75 6e 63 74 69 6f 6e 61 6c 5f 31 2f
       2.2131215e+23 7.207591e+31 2.7489706e+20 1.6131957e-10
000370 62 61 74 63 68 5f 6e 6f 72 6d 61 6c 69 7a 61 74
       4.5080227e+21 7.377277e+28 1.0901006e+27 7.1456883e+31
000380 69 6f 6e 5f 31 2f 46 75 73 65 64 42 61 74 63 68
       1.7181067e+19 2.512285e+32 57.09907 4.296496e+24
000390 4e 6f 72 6d 56 33 3b 66 75 6e 63 74 69 6f 6e 61
       4.6893707e+27 2.2100738e+23 7.207591e+31 2.7489706e+20
0003a0 6c 5f 31 2f 64 65 70 74 68 77 69 73 65 5f 63 6f
       1.6131957e-10 7.618455e+31 1.8497116e+31 7.036842e+28
0003b0 6e 76 32 64 2f 64 65 70 74 68 77 69 73 65 3b 66
       1.3168217e+22 2.8397273e+29 1.8693621e+25 2.2123849e+23
0003c0 75 6e 63 74 69 6f 6e 61 6c 5f 31 2f 64 65 70 74
       7.207591e+31 2.7489706e+20 1.6131957e-10 7.618455e+31
0003d0 68 77 69 73 65 5f 63 6f 6e 76 32 64 2f 42 69 61
       1.8497116e+31 7.036842e+28 1.3168217e+22 2.6892877e+20
0003e0 73 41 64 64 3b 66 75 6e 63 74 69 6f 6e 61 6c 5f
       1.6842295e+22 1.8986854e+28 7.225071e+28 1.7033016e+19
0003f0 31 2f 63 6f 6e 76 32 64 5f 34 2f 43 6f 6e 76 32
       7.031015e+28 1.3168217e+22 175.20457 1.4344194e-08

functional_1/dense/BiasAdd/ReadVariableOp/resource f4 [12]
000000 f2 a1 55 bd 09 00 31 bc e3 98 34 bd ed 94 73 bd
       -0.052156396 -0.010803231 -0.044091117 -0.0594682
000010 36 dc a5 bb 97 23 7d bd 79 39 0b be 07 a2 b0 3c
       -0.0050616516 -0.06180152 -0.13596143 0.021561636
000020 9e 88 2e bd 26 10 d0 bd 6d ca ec bc 11 b0 eb 3d
       -0.042610757 -0.1015933 -0.028905118 0.115081914

functional_1/conv2d_4/Conv2D i1 [64, 64, 1, 1]
000000 69 6f 6e 61 6c 5f 31 2f 63 6f 6e 76 32 64 5f 31
       105 111 110 97 108 95 49 47 99 111 110 118 50 100 95 49
000010 2f 42 69 61 73 41 64 64 3b 66 75 6e 63 74 69 6f
       47 66 105 97 115 65 100 100 59 102 117 110 99 116 105 111
000020 6e 61 6c 5f 31 2f 63 6f 6e 76 32 64 5f 34 2f 43
       110 97 108 95 49 47 99 111 110 118 50 100 95 52 47 67
000030 6f 6e 76 32 44 3b 66 75 6e 63 74 69 6f 6e 61 6c
       111 110 118 50 68 59 102 117 110 99 116 105 111 110 97 108
000040 5f 31 2f 63 6f 6e 76 32 64 5f 31 2f 43 6f 6e 76
       95 49 47 99 111 110 118 50 100 95 49 47 67 111 110 118
000050 32 44 31 22 04 52 65 6c 75 0a db 0a 0a e1 01 66
       50 68 49 34 4 82 101 108 117 10 -37 10 10 -31 1 102
000060 75 6e 63 74 69 6f 6e 61 6c 5f 31 2f 61 63 74 69
       117 110 99 116 105 111 110 97 108 95 49 47 97 99 116 105
000070 76 61 74 69 6f 6e 5f 32 2f 52 65 6c 75 3b 66 75
       118 97 116 105 111 110 95 50 47 82 101 108 117 59 102 117
000080 6e 63 74 69 6f 6e 61 6c 5f 31 2f 62 61 74 63 68
       110 99 116 105 111 110 97 108 95 49 47 98 97 116 99 104
000090 5f 6e 6f 72 6d 61 6c 69 7a 61 74 69 6f 6e 5f 32
       95 110 111 114 109 97 108 105 122 97 116 105 111 110 95 50
0000a0 2f 46 75 73 65 64 42 61 74 63 68 4e 6f 72 6d 56
       47 70 117 115 101 100 66 97 116 99 104 78 111 114 109 86
0000b0 33 3b 66 75 6e 63 74 69 6f 6e 61 6c 5f 31 2f 63
       51 59 102 117 110 99 116 105 111 110 97 108 95 49 47 99
0000c0 6f 6e 76 32 64 5f 31 2f 42 69 61 73 41 64 64 2f
       111 110 118 50 100 95 49 47 66 105 97 115 65 100 100 47
0000d0 52 65 61 64 56 61 72 69 61 62 6c 65 4f 70 2f 72
       82 101 97 100 86 97 114 105 97 98 108 101 79 112 47 114
0000e0 65 73 6f 75 72 63 65 3b 66 75 6e 63 74 69 6f 6e
       101 115 111 117 114 99 101 59 102 117 110 99 116 105 111 110
0000f0 61 6c 5f 31 2f 63 6f 6e 76 32 64 5f 31 2f 42 69
       97 108 95 49 47 99 111 110 118 50 100 95 49 47 66 105

functional_1/activation_8/Relu;functional_1/batch_normalization_8/FusedBatchNormV3;functional_1/conv2d_4/BiasAdd/ReadVariableOp/resource;functional_1/conv2d_4/BiasAdd;functional_1/conv2d_4/Conv2D f4 [64]
000000 33 8d 3f bf 6a 97 06 3f d2 54 6b bf 99 a9 fc 3e
       -0.7482483 0.5257479 -0.919263 0.49348143
000010 55 10 23 40 59 45 d8 3f 28 8f 45 be be 53 0e 3f
       2.5478718 1.6896163 -0.19292891 0.5559653
000020 77 cd b1 3e e7 3d 30 40 a0 6e 04 c0 81 19 87 3f
       0.3472707 2.7537782 -2.069252 1.0554658
000030 78 62 95 3f 70 41 25 be 6b 99 10 3e ea 6b 97 3f
       1.1670675 -0.16138244 0.14121024 1.1829808
000040 2e e5 f9 3e 31 d9 0d be 90 4e a9 3f ae 6e d4 3e
       0.48807663 -0.13852383 1.32271 0.41490692
000050 f8 83 4b 3f d1 86 c8 3f 06 19 74 be 48 07 af 3f
       0.79498243 1.5666143 -0.2383767 1.3674097
000060 1b 9a 08 bf 52 7c b6 be 25 fc 11 bf 2a a9 59 be
       -0.53360146 -0.35641724 -0.5702537 -0.21255937
000070 30 77 9e be aa be 17 40 d8 b2 d6 3f ae a1 fa be
       -0.30950308 2.3710122 1.6773329 -0.48951477
000080 8c 2c 92 3e 16 26 0b 3e 3d 99 55 3f 82 e7 d4 3f
       0.28549612 0.13588747 0.8343695 1.663315
000090 c6 e2 bb 3f 48 96 6b 3e 97 21 cc 3f f5 e7 ac 3e
       1.4678581 0.23006546 1.5947751 0.3377072
0000a0 ec da 7c 3f 0d d7 28 3f 23 9a 5d bd 80 7d eb 3e
       0.9877155 0.6595314 -0.054102074 0.45994186
0000b0 0f f0 60 3f 8c b5 d5 3f 3b d1 87 3f 53 0d 21 bf
       0.878663 1.6696029 1.0610727 -0.62910956
0000c0 b2 27 62 3e d9 0d 67 be 73 57 4e 3f 02 6d 35 3e
       0.22085455 -0.22563876 0.80602187 0.17717364
0000d0 58 f0 29 3f ac cd 74 3f 3e 52 9e 3f c0 f1 0e 3e
       0.6638236 0.9562633 1.2368848 0.13959408
0000e0 b7 24 82 3f 51 fd b4 3f 95 8a 32 3f 0b 5a 07 3f
       1.0167454 1.4139806 0.6974271 0.5287177
0000f0 0d 02 b4 3e 87 07 00 40 bf 70 5c be f3 8e 17 40
       0.35157815 2.0004594 -0.21527384 2.3681

functional_1/conv2d_3/Conv2D i1 [64, 64, 1, 1]
000000 75 6e 63 74 69 6f 6e 61 6c 5f 31 2f 61 63 74 69
       117 110 99 116 105 111 110 97 108 95 49 47 97 99 116 105
000010 76 61 74 69 6f 6e 5f 34 2f 52 65 6c 75 3b 66 75
       118 97 116 105 111 110 95 52 47 82 101 108 117 59 102 117
000020 6e 63 74 69 6f 6e 61 6c 5f 31 2f 62 61 74 63 68
       110 99 116 105 111 110 97 108 95 49 47 98 97 116 99 104
000030 5f 6e 6f 72 6d 61 6c 69 7a 61 74 69 6f 6e 5f 34
       95 110 111 114 109 97 108 105 122 97 116 105 111 110 95 52
000040 2f 46 75 73 65 64 42 61 74 63 68 4e 6f 72 6d 56
       47 70 117 115 101 100 66 97 116 99 104 78 111 114 109 86
000050 33 3b 66 75 6e 63 74 69 6f 6e 61 6c 5f 31 2f 63
       51 59 102 117 110 99 116 105 111 110 97 108 95 49 47 99
000060 6f 6e 76 32 64 5f 32 2f 42 69 61 73 41 64 64 2f
       111 110 118 50 100 95 50 47 66 105 97 115 65 100 100 47
000070 52 65 61 64 56 61 72 69 61 62 6c 65 4f 70 2f 72
       82 101 97 100 86 97 114 105 97 98 108 101 79 112 47 114
000080 65 73 6f 75 72 63 65 3b 66 75 6e 63 74 69 6f 6e
       101 115 111 117 114 99 101 59 102 117 110 99 116 105 111 110
000090 61 6c 5f 31 2f 63 6f 6e 76 32 64 5f 32 2f 42 69
       97 108 95 49 47 99 111 110 118 50 100 95 50 47 66 105
0000a0 61 73 41 64 64 3b 66 75 6e 63 74 69 6f 6e 61 6c
       97 115 65 100 100 59 102 117 110 99 116 105 111 110 97 108
0000b0 5f 31 2f 63 6f 6e 76 32 64 5f 34 2f 43 6f 6e 76
       95 49 47 99 111 110 118 50 100 95 52 47 67 111 110 118
0000c0 32 44 3b 66 75 6e 63 74 69 6f 6e 61 6c 5f 31 2f
       50 68 59 102 117 110 99 116 105 111 110 97 108 95 49 47
0000d0 63 6f 6e 76 32 64 5f 32 2f 43 6f 6e 76 32 44 31
       99 111 110 118 50 100 95 50 47 67 111 110 118 50 68 49
0000e0 0a e2 01 66 75 6e 63 74 69 6f 6e 61 6c 5f 31 2f
       10 -30 1 102 117 110 99 116 105 111 110 97 108 95 49 47
0000f0 62 61 74 63 68 5f 6e 6f 72 6d 61 6c 69 7a 61 74
       98 97 116 99 104 95 110 111 114 109 97 108 105 122 97 116

functional_1/activation_6/Relu;functional_1/batch_normalization_6/FusedBatchNormV3;functional_1/conv2d_3/BiasAdd/ReadVariableOp/resource;functional_1/conv2d_3/BiasAdd;functional_1/conv2d_4/Conv2D;functional_1/conv2d_3/Conv2D f4 [64]
000000 37 fa 10 3f 76 32 8d be 04 43 60 be 85 2d 0d 3f
       0.566318 -0.2757756 -0.21900564 0.5514758
000010 48 0b af 3e 26 be 4e 3e 35 02 92 3e dd de 78 3e
       0.34188294 0.20189723 0.2851731 0.24303766
000020 95 1d 7b bd 09 78 6f 3f c7 73 4c 3f fb 88 7a be
       -0.06130751 0.93542534 0.7986416 -0.24466316
000030 d6 c5 8f be 4c 76 48 3e 19 35 b4 be 76 30 b9 3e
       -0.28080624 0.19576377 -0.3519676 0.36169785
000040 bc 02 88 3d 26 61 45 3f 04 4f 42 3e e0 1d 30 bd
       0.066411465 0.7710136 0.18975455 -0.04299724
000050 af 53 b2 3e ff 01 ca 3e 2e 95 ca 3e 33 6d 7c bf
       0.3482947 0.39454648 0.3956694 -0.98604125
000060 7b ef c1 be 8e 3f 45 bf 3d c3 7d 3f cf 6d b9 3e
       -0.37878022 -0.770501 0.99126035 0.3621659
000070 8e 88 fa 3e 99 1c a2 be 73 b8 16 3e 4b b2 06 bf
       0.48932308 -0.31662443 0.147188 -0.52615803
000080 f0 4b 29 3f 9f 4b b9 bd b1 c9 26 3e cd e9 8a 3e
       0.66131496 -0.09047627 0.16287877 0.271315
000090 b0 3b a4 be f9 9d 01 bf bc 4e 0a bf 89 50 8a 3f
       -0.32076788 -0.5063167 -0.5402639 1.0805827
0000a0 96 e1 a9 be 42 11 0a 3f a2 3c 11 be aa fe d8 3e
       -0.3317992 0.53932583 -0.14183286 0.42381793
0000b0 5e 23 25 3f e8 7f 01 bf 9a 23 69 3d a6 39 7b 3e
       0.6450709 -0.50585794 0.056918718 0.2453371
0000c0 20 b5 f7 3e 18 47 42 3f cc 90 25 3e 6c 5c f7 3e
       0.48380375 0.7588973 0.16168517 0.483127
0000d0 b2 dd 38 be 72 5d 03 bf 90 02 eb 3d 69 5b db bd
       -0.1805332 -0.5131446 0.11475098 -0.107107945
0000e0 08 de c8 3e 29 82 48 3f b0 fb 96 3e 96 1e 7f bf
       0.39231896 0.7832361 0.29488897 -0.99656045
0000f0 fe 3d 55 3f e6 92 c8 3e d6 70 ab 3c 89 35 8b 3e
       0.8329772 0.39174575 0.020927828 0.27189282

functional_1/conv2d_2/Conv2D i1 [64, 64, 1, 1]
000000 6f 6e 76 32 64 5f 33 2f 42 69 61 73 41 64 64 2f
       111 110 118 50 100 95 51 47 66 105 97 115 65 100 100 47
000010 52 65 61 64 56 61 72 69 61 62 6c 65 4f 70 2f 72
       82 101 97 100 86 97 114 105 97 98 108 101 79 112 47 114
000020 65 73 6f 75 72 63 65 3b 66 75 6e 63 74 69 6f 6e
       101 115 111 117 114 99 101 59 102 117 110 99 116 105 111 110
000030 61 6c 5f 31 2f 63 6f 6e 76 32 64 5f 33 2f 42 69
       97 108 95 49 47 99 111 110 118 50 100 95 51 47 66 105
000040 61 73 41 64 64 3b 66 75 6e 63 74 69 6f 6e 61 6c
       97 115 65 100 100 59 102 117 110 99 116 105 111 110 97 108
000050 5f 31 2f 63 6f 6e 76 32 64 5f 34 2f 43 6f 6e 76
       95 49 47 99 111 110 118 50 100 95 52 47 67 111 110 118
000060 32 44 3b 66 75 6e 63 74 69 6f 6e 61 6c 5f 31 2f
       50 68 59 102 117 110 99 116 105 111 110 97 108 95 49 47
000070 63 6f 6e 76 32 64 5f 33 2f 43 6f 6e 76 32 44 31
       99 111 110 118 50 100 95 51 47 67 111 110 118 50 68 49
000080 0a e2 01 66 75 6e 63 74 69 6f 6e 61 6c 5f 31 2f
       10 -30 1 102 117 110 99 116 105 111 110 97 108 95 49 47
000090 62 61 74 63 68 5f 6e 6f 72 6d 61 6c 69 7a 61 74
       98 97 116 99 104 95 110 111 114 109 97 108 105 122 97 116
0000a0 69 6f 6e 5f 37 2f 46 75 73 65 64 42 61 74 63 68
       105 111 110 95 55 47 70 117 115 101 100 66 97 116 99 104
0000b0 4e 6f 72 6d 56 33 3b 66 75 6e 63 74 69 6f 6e 61
       78 111 114 109 86 51 59 102 117 110 99 116 105 111 110 97
0000c0 6c 5f 31 2f 64 65 70 74 68 77 69 73 65 5f 63 6f
       108 95 49 47 100 101 112 116 104 119 105 115 101 95 99 111
0000d0 6e 76 32 64 5f 33 2f 64 65 70 74 68 77 69 73 65
       110 118 50 100 95 51 47 100 101 112 116 104 119 105 115 101
0000e0 3b 66 75 6e 63 74 69 6f 6e 61 6c 5f 31 2f 64 65
       59 102 117 110 99 116 105 111 110 97 108 95 49 47 100 101
0000f0 70 74 68 77 69 73 65 5f 63 6f 6e 76 32 64 5f 33
       112 116 104 119 105 115 101 95 99 111 110 118 50 100 95 51

functional_1/conv2d_1/Conv2D i1 [64, 64, 1, 1]
000000 5f 31 2f 61 76 65 72 61 67 65 5f 70 6f 6f 6c 69
       95 49 47 97 118 101 114 97 103 101 95 112 111 111 108 105
000010 6e 67 32 64 2f 41 76 67 50 6f 6f 6c 12 3d 54 46
       110 103 50 100 47 65 118 103 80 111 111 108 18 61 84 70
000020 4c 49 54 45 32 4f 4e 4e 58 5f 54 72 61 6e 73 70
       76 73 84 69 50 79 78 78 88 95 84 114 97 110 115 112
000030 6f 73 65 64 5f 66 75 6e 63 74 69 6f 6e 61 6c 5f
       111 115 101 100 95 102 117 110 99 116 105 111 110 97 108 95
000040 31 2f 61 76 65 72 61 67 65 5f 70 6f 6f 6c 69 6e
       49 47 97 118 101 114 97 103 101 95 112 111 111 108 105 110
000050 67 32 64 2f 41 76 67 50 6f 6f 6c 1a 3d 54 46 4c
       103 50 100 47 65 118 103 80 111 111 108 26 61 84 70 76
000060 49 54 45 32 4f 4e 4e 58 5f 54 72 61 6e 73 70 6f
       73 84 69 50 79 78 78 88 95 84 114 97 110 115 112 111
000070 73 65 64 5f 66 75 6e 63 74 69 6f 6e 61 6c 5f 31
       115 101 100 95 102 117 110 99 116 105 111 110 97 108 95 49
000080 2f 61 76 65 72 61 67 65 5f 70 6f 6f 6c 69 6e 67
       47 97 118 101 114 97 103 101 95 112 111 111 108 105 110 103
000090 32 64 2f 41 76 67 50 6f 6f 6c 22 09 54 72 61 6e
       50 100 47 65 118 103 80 111 111 108 34 9 84 114 97 110
0000a0 73 70 6f 73 65 2a 11 0a 04 70 65 72 6d 40 00 40
       115 112 111 115 101 42 17 10 4 112 101 114 109 64 0 64
0000b0 02 40 03 40 01 a0 01 07 0a a0 01 0a 3d 54 46 4c
       2 64 3 64 1 -96 1 7 10 -96 1 10 61 84 70 76
0000c0 49 54 45 32 4f 4e 4e 58 5f 54 72 61 6e 73 70 6f
       73 84 69 50 79 78 78 88 95 84 114 97 110 115 112 111
0000d0 73 65 64 5f 66 75 6e 63 74 69 6f 6e 61 6c 5f 31
       115 101 100 95 102 117 110 99 116 105 111 110 97 108 95 49
0000e0 2f 61 76 65 72 61 67 65 5f 70 6f 6f 6c 69 6e 67
       47 97 118 101 114 97 103 101 95 112 111 111 108 105 110 103
0000f0 32 64 2f 41 76 67 50 6f 6f 6c 0a 1a 66 75 6e 63
       50 100 47 65 118 103 80 111 111 108 10 26 102 117 110 99

functional_1/conv2d/Conv2D i1 [64, 1, 10, 4]
000000 3e 48 15 3f d6 22 0c be 54 56 52 3d c6 08 91 3e
       62 72 21 63 -42 34 12 -66 84 86 82 61 -58 8 -111 62
000010 02 53 ac 3d 19 79 05 bf 01 fb dc 3d 6c cb 5a be
       2 83 -84 61 25 121 5 -65 1 -5 -36 61 108 -53 90 -66
000020 5a 44 3b bf 85 9d c7 3e 99 7f 14 3f 0f 25 5d 3d
       90 68 59 -65 -123 -99 -57 62 -103 127 20 63 15 37 93 61
000030 ea 1c 50 bd 17 be f2 3e 4c a2 dc be 67 4f 62 3f
       -22 28 80 -67 23 -66 -14 62 76 -94 -36 -66 103 79 98 63
000040 6c f2 a4 3e 65 af 31 bf 37 b7 24 bf 35 16 bc be
       108 -14 -92 62 101 -81 49 -65 55 -73 36 -65 53 22 -68 -66
000050 bb f0 1e bf 24 24 4e be b0 2d 22 3c 60 72 2e be
       -69 -16 30 -65 36 36 78 -66 -80 45 34 60 96 114 46 -66
000060 42 87 fd 3e 69 34 90 be 2a e0 03 08 40 10 01 42
       66 -121 -3 62 105 52 -112 -66 42 -32 3 8 64 16 1 66
000070 d6 01 66 75 6e 63 74 69 6f 6e 61 6c 5f 31 2f 61
       -42 1 102 117 110 99 116 105 111 110 97 108 95 49 47 97
000080 63 74 69 76 61 74 69 6f 6e 2f 52 65 6c 75 3b 66
       99 116 105 118 97 116 105 111 110 47 82 101 108 117 59 102
000090 75 6e 63 74 69 6f 6e 61 6c 5f 31 2f 62 61 74 63
       117 110 99 116 105 111 110 97 108 95 49 47 98 97 116 99
0000a0 68 5f 6e 6f 72 6d 61 6c 69 7a 61 74 69 6f 6e 2f
       104 95 110 111 114 109 97 108 105 122 97 116 105 111 110 47
0000b0 46 75 73 65 64 42 61 74 63 68 4e 6f 72 6d 56 33
       70 117 115 101 100 66 97 116 99 104 78 111 114 109 86 51
0000c0 3b 66 75 6e 63 74 69 6f 6e 61 6c 5f 31 2f 63 6f
       59 102 117 110 99 116 105 111 110 97 108 95 49 47 99 111
0000d0 6e 76 32 64 2f 42 69 61 73 41 64 64 2f 52 65 61
       110 118 50 100 47 66 105 97 115 65 100 100 47 82 101 97
0000e0 64 56 61 72 69 61 62 6c 65 4f 70 2f 72 65 73 6f
       100 86 97 114 105 97 98 108 101 79 112 47 114 101 115 111
0000f0 75 72 63 65 3b 66 75 6e 63 74 69 6f 6e 61 6c 5f
       117 114 99 101 59 102 117 110 99 116 105 111 110 97 108 95

functional_1/activation_4/Relu;functional_1/batch_normalization_4/FusedBatchNormV3;functional_1/conv2d_2/BiasAdd/ReadVariableOp/resource;functional_1/conv2d_2/BiasAdd;functional_1/conv2d_4/Conv2D;functional_1/conv2d_2/Conv2D f4 [64]
000000 48 b4 0f 3f 06 98 9c bf c1 27 06 bf 19 4c 7d bf
       0.5613446 -1.2233894 -0.5240441 -0.9894424
000010 5d 93 12 3f 77 80 8c 3f 29 4b 85 bf bc 1b b6 3e
       0.5725611 1.0976704 -1.0413562 0.35568035
000020 5f a8 a5 3e 06 1b 8c 3e c4 d5 f9 3e 26 86 a1 3f
       0.3235502 0.27364367 0.48795903 1.2619064
000030 52 6f 2d 3f 94 da bc bd 65 48 a3 3f d6 b1 23 3f
       0.67747986 -0.09221378 1.2756468 0.6394323
000040 11 dc 54 be bc 24 f7 3e 42 9c 95 3f 69 08 f7 3d
       -0.20787074 0.48270214 1.1688311 0.12062151
000050 7c 54 b4 be 60 a4 21 3e 8b aa e3 be 49 8d 82 be
       -0.35220706 0.1578536 -0.4446605 -0.25498417
000060 a9 64 ad bf dc b8 e7 bd c2 ca 42 bf cd a3 96 3f
       -1.3546344 -0.11314556 -0.76090634 1.1768738
000070 a8 14 dc be 54 19 88 3c 54 55 c1 3d f0 88 71 be
       -0.4298451 0.01661364 0.09440103 -0.23587394
000080 bb 47 0c 3f 3e af 5b 3e dd d2 10 3e 54 57 bd 3e
       0.5479695 0.21453568 0.14142938 0.3698069
000090 f3 72 36 3f 58 db a8 be 3e 48 15 3f d6 22 0c be
       0.7126915 -0.32979846 0.5831336 -0.13685164
0000a0 54 56 52 3d c6 08 91 3e 02 53 ac 3d 19 79 05 bf
       0.05135186 0.28327006 0.0841427 -0.52137905
0000b0 01 fb dc 3d 6c cb 5a be 5a 44 3b bf 85 9d c7 3e
       0.10790063 -0.21366662 -0.7315117 0.38987365
0000c0 99 7f 14 3f 0f 25 5d 3d ea 1c 50 bd 17 be f2 3e
       0.580072 0.05399042 -0.050808825 0.47410652
0000d0 4c a2 dc be 67 4f 62 3f 6c f2 a4 3e 65 af 31 bf
       -0.43092573 0.8840241 0.32216203 -0.69408256
0000e0 37 b7 24 bf 35 16 bc be bb f0 1e bf 24 24 4e be
       -0.64342064 -0.36735693 -0.62086076 -0.20130974
0000f0 b0 2d 22 3c 60 72 2e be 42 87 fd 3e 69 34 90 be
       0.009898588 -0.17035818 0.49517256 -0.28164986

functional_1/activation/Relu;functional_1/batch_normalization/FusedBatchNormV3;functional_1/conv2d/BiasAdd/ReadVariableOp/resource;functional_1/conv2d/BiasAdd;functional_1/conv2d_4/Conv2D;functional_1/conv2d/Conv2D f4 [64]
000000 49 03 03 be f7 e0 39 be c4 cc 23 3d 31 d8 8d be
       -0.12794222 -0.18152224 0.0399902 -0.27704003
000010 10 87 a7 bc 36 0c 9d 3c 2d 1d 8d 3d b7 06 04 be
       -0.020450145 0.019170862 0.068903305 -0.12893187
000020 b5 51 c7 bd 3e ed 4c 3b 31 f1 9a 3d 31 60 08 3d
       -0.09732381 0.0031269337 0.07565535 0.03329486
000030 15 9b 67 bc 1a 90 39 be 96 29 82 bd cc d1 1d bd
       -0.0141360955 -0.18121377 -0.06355588 -0.038530156
000040 fd a7 b1 be b9 9a 32 3d 55 84 d5 bd 58 11 18 3c
       -0.34698477 0.043604586 -0.10425631 0.009281479
000050 62 f4 6d 3c 09 7d 2b 3e 11 d6 a3 3c 9e dc 30 3d
       0.014523597 0.16746916 0.019999536 0.043179147
000060 00 22 99 3d f7 13 4a be c7 cd e2 bc 86 8e 09 bd
       0.07477188 -0.19734178 -0.027686013 -0.033583187
000070 e3 56 67 be 57 4e bc 3d 6c cc 8e bc 46 f0 be bd
       -0.22591738 0.0919463 -0.01743146 -0.09323172
000080 e4 25 e4 3c 01 cf 79 be af 60 25 bd 1f b1 4d 3e
       0.027850099 -0.24395372 -0.040375408 0.20087098
000090 ad 8a 6a ba 42 d2 a9 bd 40 44 88 3e 99 c4 b7 bd
       -0.0008947056 -0.082920566 0.2661457 -0.08973045
0000a0 ab b7 ab bd c5 a1 45 3b 49 e6 04 3e b8 eb a2 3d
       -0.08384641 0.0030156237 0.12978472 0.07955116
0000b0 6a 21 94 bb 8e e1 14 3e ee 8b 4a be 17 d9 ff bd
       -0.004520585 0.14539167 -0.19779941 -0.124925785
0000c0 0d c9 7e bd 84 3c 96 3d 6c 75 b8 3c 2a 41 cd bd
       -0.062203456 0.07335761 0.022516929 -0.10022195
0000d0 51 04 aa 3d 46 08 55 be 78 3c a4 be 5a 91 72 be
       0.083016045 -0.20803937 -0.32077384 -0.2368826
0000e0 df 85 16 3c a3 a9 82 3d b7 d8 5e bd f6 c9 e4 bd
       0.009187191 0.06380012 -0.054405894 -0.111713335
0000f0 2c 2f aa 3d cf 47 9b 3d 53 02 4d bd a6 52 a7 bd
       0.083097786 0.07582056 -0.050051045 -0.08170061

functional_1/activation_2/Relu;functional_1/batch_normalization_2/FusedBatchNormV3;functional_1/conv2d_1/BiasAdd/ReadVariableOp/resource;functional_1/conv2d_1/BiasAdd;functional_1/conv2d_4/Conv2D;functional_1/conv2d_1/Conv2D f4 [64]
000000 4c 91 10 3f 5c cb 26 bf d9 53 82 3e 80 f5 b6 3e
       0.56471705 -0.6515405 0.25454596 0.35734177
000010 10 53 55 3f d6 6e 0d 3f 68 7a e1 be 7a 44 59 3f
       0.8332987 0.5524725 -0.440387 0.8487011
000020 dc e9 34 bd f2 56 dd 3e a7 93 d3 3e 62 68 d8 3e
       -0.04416834 0.43230397 0.41323587 0.42267138
000030 42 c6 76 3f 94 75 bc 3d 07 6d 7f 3f e5 f7 d9 3e
       0.9639627 0.09202114 0.9977574 0.4257194
000040 76 b2 a5 3e b8 af 24 3d db e4 b0 3f d3 e9 88 3e
       0.32362717 0.04020664 1.3819841 0.26740894
000050 c3 5b f9 3e b1 4f 53 3f 64 c7 53 3f f5 6b f9 be
       0.4870282 0.82543474 0.8272612 -0.48715177
000060 a4 1b 00 3f 39 36 08 3f a8 12 34 3f 58 ea de be
       0.50042176 0.5320774 0.7034097 -0.43538165
000070 1f f1 f5 3d 84 c3 09 bd c6 a3 cb 3e da cd 4d bd
       0.12008881 -0.033633724 0.39773387 -0.050245143
000080 55 79 b8 3e 66 d3 23 3c a8 64 40 3e 2f 4f 2f 3f
       0.3603007 0.009999132 0.18788397 0.684802
000090 66 91 3a 3f 16 e1 bc 3e a2 ff c8 3e c2 74 48 bf
       0.7287811 0.36890477 0.39257532 -0.7830316
0000a0 68 0a 08 3f 63 c3 db be ca d6 3a 3f 80 2b 10 3e
       0.5314088 -0.42922506 0.7298399 0.14079094
0000b0 a4 51 b5 3e cf 63 f8 3e 18 de a2 3e d5 91 82 be
       0.3541385 0.48513648 0.3181007 -0.25501886
0000c0 11 2d b8 3e cd 83 a8 3e b6 ac 30 3f c5 4b 6a 3f
       0.35971883 0.32913056 0.69013536 0.91521865
0000d0 38 41 d4 3e 68 32 22 be 56 f2 44 3e fd fd bc 3d
       0.41456008 -0.15839541 0.19233069 0.09228132
0000e0 c6 db 43 3e 64 85 2f 3f 57 cf 03 3f 48 d9 86 3e
       0.19126806 0.6856291 0.5148825 0.26337647
0000f0 f2 f2 27 3e bd 21 e0 be 42 37 f3 bc da f4 9c bc
       0.1640127 -0.4377574 -0.029689435 -0.019159723

functional_1/batch_normalization_7/FusedBatchNormV3;functional_1/depthwise_conv2d_3/depthwise;functional_1/depthwise_conv2d_3/BiasAdd;functional_1/conv2d_4/Conv2D;functional_1/depthwise_conv2d_3/BiasAdd/ReadVariableOp/resource f4 [64, 1, 3, 3]
000000 b6 a0 41 bd 7e c9 72 3f 13 1f 95 3f d3 db 5b bf
       -0.047272407 0.948387 1.1650108 -0.858823
000010 47 bd 0b bf 32 9c 99 be 18 25 81 3f 5e c2 69 bf
       -0.5458569 -0.3000198 1.0089445 -0.91312206
000020 db f6 1c be 76 86 79 3f fa 12 a3 3f d4 25 1e 3f
       -0.15328543 0.97470796 1.2740166 0.6177647
000030 a9 12 a9 3f 8e a0 cf 3f 28 d1 dc 3e 78 49 97 3f
       1.320882 1.6220872 0.43128324 1.1819296
000040 b1 be 11 bf c9 9d 29 bf 54 fc 04 be 3c 5a 37 bf
       -0.56931597 -0.66256386 -0.1298688 -0.7162206
000050 c6 ba 90 3f 0d fa 23 3f 3d 7b 53 bf 7e 31 08 bf
       1.1306999 0.6405342 -0.8260992 -0.5320052
000060 cc 2c 80 bf 68 92 6b 3f 04 67 51 bf d1 68 1f bf
       -1.0013671 0.92020273 -0.81797814 -0.6226931
000070 95 67 8b 3f 09 aa 6a bf 13 86 98 3f a8 13 6f bd
       1.0890986 -0.91665703 1.1915916 -0.058368355
000080 02 b6 1a bf 0d f0 03 bf 62 e1 0e bf 0e 53 fb be
       -0.6043397 -0.51538163 -0.55812657 -0.49086803
000090 df fc 89 3f ef 20 5b bf 30 20 32 bf 02 95 4e be
       1.0780295 -0.8559713 -0.69580364 -0.2017403
0000a0 4c ec ce be 98 0c 4a bf 70 6c 36 be fa 79 2c 3f
       -0.40414655 -0.78925467 -0.17814803 0.6737362
0000b0 bb 33 f3 be 83 36 39 bf fd ae 86 bf 55 38 57 bf
       -0.47500405 -0.72348803 -1.0522152 -0.8407033
0000c0 ff 50 25 bf 0a 52 a4 be d8 52 14 bf 90 10 4c 3f
       -0.64576715 -0.3209384 -0.5793891 0.7971277
0000d0 d7 56 90 3f d4 58 88 be 62 fc c7 3e 07 57 d9 be
       1.1276501 -0.2663027 0.3905974 -0.4244921
0000e0 83 a1 28 3f 2e b1 ae 3f 80 41 50 bf 2a af 02 08
       0.6587145 1.3647821 -0.81349945 3.9326356e-34
0000f0 40 08 01 08 03 08 03 10 01 42 e2 01 66 75 6e 63
       3.8829223e-34 2.5841367e-29 8.3114e-38 4.3987845e+21
000100 74 69 6f 6e 61 6c 5f 31 2f 62 61 74 63 68 5f 6e
       1.85236e+28 3.2512377e-09 7.142689e+31 1.7285338e+28
000110 6f 72 6d 61 6c 69 7a 61 74 69 6f 6e 5f 33 2f 46
       2.7375776e+20 2.8870515e+20 1.85236e+28 11212.843
000120 75 73 65 64 42 61 74 63 68 4e 6f 72 6d 56 33 3b
       1.6930496e+22 4.5080137e+21 4.739949e+30 0.0027364746
000130 66 75 6e 63 74 69 6f 6e 61 6c 5f 31 2f 64 65 70
       4.3987845e+21 1.85236e+28 3.2512377e-09 2.8397273e+29
000140 74 68 77 69 73 65 5f 63 6f 6e 76 32 64 5f 31 2f
       1.8693621e+25 4.120934e+21 1.4344194e-08 1.6131946e-10
000150 64 65 70 74 68 77 69 73 65 3b 66 75 6e 63 74 69
       7.618455e+31 1.8497116e+31 2.9185375e+32 1.8465465e+25
000160 6f 6e 61 6c 5f 31 2f 64 65 70 74 68 77 69 73 65
       1.0901193e+27 1.2926951e+22 4.617323e+24 7.1842534e+22
000170 5f 63 6f 6e 76 32 64 5f 31 2f 42 69 61 73 41 64
       1.8521762e+28 1.6443335e+19 1.4672154e+25 1.4274142e+22
000180 64 3b 66 75 6e 63 74 69 6f 6e 61 6c 5f 31 2f 63
       2.9185373e+32 1.8465465e+25 1.0901193e+27 3.2317378e+21
000190 6f 6e 76 32 64 5f 34 2f 43 6f 6e 76 32 44 3b 66
       1.4344194e-08 1.6404794e-10 1.2090071e+33 2.2108513e+23
0001a0 75 6e 63 74 69 6f 6e 61 6c 5f 31 2f 64 65 70 74
       7.207591e+31 2.7489706e+20 1.6131957e-10 7.618455e+31
0001b0 68 77 69 73 65 5f 63 6f 6e 76 32 64 5f 31 2f 42
       1.8497116e+31 7.036842e+28 1.3168217e+22 43.798214
0001c0 69 61 73 41 64 64 2f 52 65 61 64 56 61 72 69 61
       15.211282 1.8832589e+11 6.277674e+13 2.6914583e+20
0001d0 62 6c 65 4f 70 2f 72 65 73 6f 75 72 63 65 6a 1b
       3.8490854e+09 7.1480485e+22 4.861348e+30 1.9388786e-22
0001e0 0a 08 6c 6f 63 61 74 69 6f 6e 12 0f 44 53 5f 43
       7.304818e+28 1.8464862e+25 7.2196245e-30 223.32526
0001f0 4e 4e 5f 65 78 74 65 72 6e 61 6c 6a 0f 0a 06 6f
       6.590826e+22 4.5448236e+30 7.144165e+25 4.148315e+28
000200 66 66 73 65 74 12 05 32 38 39 32 38 6a 0e 0a 06
       7.1839e+22 7.745815e-09 4.2491796e-05 2.5965505e-35
000210 6c 65 6e 67 74 68 12 04 32 33 30 34 70 01 5a 21
       1.1257941e+24 1.721018e-36 1.6409902e-07 7.3863176e-19
000220 0a 07 69 6e 70 75 74 5f 31 12 16 0a 14 08 01 12
       1.8029629e+28 1.7615109e+19 7.225659e-33 4.071518e-28
000230 10 0a 02 08 01 0a 02 08 01 0a 02 08 31 0a 02 08
       3.913228e-34 3.913221e-34 3.913221e-34 3.913243e-34
000240 0a 62 1a 0a 08 49 64 65 6e 74 69 74 79 12 0e 0a
       7.4332694e-33 6.737792e+22 7.398478e+31 6.8405256e-33
000250 0c 08 01 12 08 0a 02 08 01 0a 02 08 0c 6a 9d 02
       4.071514e-28 3.9132244e-34 3.913221e-34 2.3129945e-37
000260 0a 82 02 66 75 6e 63 74 69 6f 6e 61 6c 5f 31 2f
       1.5407661e+23 7.207591e+31 2.7489706e+20 1.6131957e-10
000270 61 63 74 69 76 61 74 69 6f 6e 5f 37 2f 52 65 6c
       1.846545e+25 1.8464884e+25 1.3317548e-05 1.10892845e+27
000280 75 3b 66 75 6e 63 74 69 6f 6e 61 6c 5f 31 2f 62
       2.9185406e+32 1.8465465e+25 1.0901193e+27 8.0793444e+20
000290 61 74 63 68 5f 6e 6f 72 6d 61 6c 69 7a 61 74 69
       4.296496e+24 4.7424223e+30 1.7860411e+25 1.8464889e+25
0002a0 6f 6e 5f 37 2f 46 75 73 65 64 42 61 74 63 68 4e
       1.3317548e-05 1.943262e+31 2.241189e+20 9.74708e+08
0002b0 6f 72 6d 56 33 3b 66 75 6e 63 74 69 6f 6e 61 6c
       6.5268936e+13 2.9185278e+32 1.8465465e+25 1.0901193e+27
0002c0 5f 31 2f 64 65 70 74 68 77 69 73 65 5f 63 6f 6e
       1.2926951e+22 4.617323e+24 7.1842534e+22 1.8521762e+28
0002d0 76 32 64 5f 33 2f 64 65 70 74 68 77 69 73 65 3b
       1.6443335e+19 6.734814e+22 4.7147442e+33 0.0035011417
0002e0 66 75 6e 63 74 69 6f 6e 61 6c 5f 31 2f 64 65 70
       4.3987845e+21 1.85236e+28 3.2512377e-09 2.8397273e+29
0002f0 74 68 77 69 73 65 5f 63 6f 6e 76 32 64 5f 33 2f
       1.8693621e+25 4.120934e+21 1.4344194e-08 1.6313845e-10
000300 42 69 61 73 41 64 64 3b 66 75 6e 63 74 69 6f 6e
       1.7858912e+31 0.0034849795 4.3987845e+21 1.85236e+28
000310 61 6c 5f 31 2f 63 6f 6e 76 32 64 5f 34 2f 43 6f
       3.2512377e-09 1.8521706e+28 1.6443335e+19 6.040664e+28
000320 6e 76 32 44 3b 66 75 6e 63 74 69 6f 6e 61 6c 5f
       713.85046 1.8986854e+28 7.225071e+28 1.7033016e+19
000330 31 2f 64 65 70 74 68 77 69 73 65 5f 63 6f 6e 76
       6.734813e+22 4.7147442e+33 1.6533674e+19 1.2090096e+33
000340 32 64 5f 33 2f 42 69 61 73 41 64 64 2f 52 65 61
       5.201236e-08 2.6892877e+20 1.6842295e+22 2.6438915e+20
000350 64 56 61 72 69 61 62 6c 65 4f 70 2f 72 65 73 6f
       4.4632683e+30 1.094709e+27 2.185608e-10 7.5327497e+28
000360 75 72 63 65 31 12 16 0a 14 08 01 12 10 0a 02 08
       6.7130534e+22 7.225659e-33 4.071518e-28 3.913228e-34
000370 01 0a 02 08 40 0a 02 08 19 0a 02 08 05 6a 9d 02
       3.913221e-34 3.91325e-34 3.913232e-34 2.3129929e-37
000380 0a 82 02 66 75 6e 63 74 69 6f 6e 61 6c 5f 31 2f
       1.5407661e+23 7.207591e+31 2.7489706e+20 1.6131957e-10
000390 61 63 74 69 76 61 74 69 6f 6e 5f 35 2f 52 65 6c
       1.846545e+25 1.8464884e+25 8.3234676e-07 1.10892845e+27
0003a0 75 3b 66 75 6e 63 74 69 6f 6e 61 6c 5f 31 2f 62
       2.9185406e+32 1.8465465e+25 1.0901193e+27 8.0793444e+20
0003b0 61 74 63 68 5f 6e 6f 72 6d 61 6c 69 7a 61 74 69
       4.296496e+24 4.7424223e+30 1.7860411e+25 1.8464889e+25
0003c0 6f 6e 5f 35 2f 46 75 73 65 64 42 61 74 63 68 4e
       8.3234676e-07 1.943262e+31 2.241189e+20 9.74708e+08
0003d0 6f 72 6d 56 33 3b 66 75 6e 63 74 69 6f 6e 61 6c
       6.5268936e+13 2.9185278e+32 1.8465465e+25 1.0901193e+27
0003e0 5f 31 2f 64 65 70 74 68 77 69 73 65 5f 63 6f 6e
       1.2926951e+22 4.617323e+24 7.1842534e+22 1.8521762e+28
0003f0 76 32 64 5f 32 2f 64 65 70 74 68 77 69 73 65 3b
       1.6443335e+19 6.7348135e+22 4.7147442e+33 0.0035011417

functional_1/activation_7/Relu;functional_1/batch_normalization_7/FusedBatchNormV3;functional_1/depthwise_conv2d_3/depthwise;functional_1/depthwise_conv2d_3/BiasAdd;functional_1/conv2d_4/Conv2D;functional_1/depthwise_conv2d_3/BiasAdd/ReadVariableOp/resource f4 [64]
000000 40 67 07 bf 73 f9 39 bf bf 76 27 bf c5 fb 40 3f
       -0.5289192 -0.72646254 -0.6541557 0.7538417
000010 3b d9 80 3f 43 dc 0f 3f 64 ad 2f bf a4 d6 ab 3f
       1.0066293 0.5619547 -0.6862395 1.3424878
000020 bd 0d ff be cc 83 a8 3f 6f 31 5d bf 3e df 7c 3f
       -0.4981517 1.3165221 -0.86403555 0.9877814
000030 03 1b 6b 3f 42 11 b4 3f 32 85 99 bd 36 e9 ae 3f
       0.9183809 1.4067767 -0.07496108 1.366492
000040 05 4b 94 3f 3f 37 9c 3f 37 6c 6b 3f 09 84 ed 3c
       1.1585394 1.220436 0.91962 0.028993623
000050 4d 5a 5e 3f 4a ae 57 3f 52 22 53 bf 47 7d 27 3f
       0.8685654 0.8425032 -0.82474244 0.65425533
000060 44 c8 34 3f 04 63 3c 3f 7a 35 bc 3f c5 96 6d 3f
       0.7061808 0.73588586 1.470382 0.9280818
000070 84 f9 58 be 35 11 e9 3e 08 2b 33 bf 61 78 3b 3f
       -0.21188933 0.4552094 -0.69987535 0.7323056
000080 7e 68 b7 3f 3d ab 5f 3f 44 c8 39 bf ea 64 56 be
       1.4328763 0.87370664 -0.72571206 -0.20936933
000090 ff 52 3f bf 5f 00 19 bf 71 b0 89 bf e7 e2 97 bf
       -0.74736017 -0.5976619 -1.0756971 -1.186612
0000a0 f0 a1 a1 3f cc 9a e4 3c 0d fc 52 3f 72 d0 aa 3f
       1.2627544 0.027905844 0.8241585 1.3344862
0000b0 d4 9c 86 3f b4 dd 18 bf cb 59 1c bf 58 18 47 3f
       1.051661 -0.5971329 -0.61074513 0.7777152
0000c0 9a 45 33 bf 52 a9 25 bf ca f6 ff be d7 5a cb 3f
       -0.7002808 -0.6471149 -0.49992973 1.5887097
0000d0 74 01 12 bf 13 bb b6 3e 9c 29 7a bf 6b c7 10 bf
       -0.5703347 0.356896 -0.9771974 -0.5655429
0000e0 05 f0 9c bf 83 6b 91 3f f2 b8 c8 3f fe ec 94 3f
       -1.2260748 1.1360935 1.5681441 1.1634824
0000f0 4d 99 a6 3f 1e d4 d6 be a2 5f 02 bf ca a0 3d bf
       1.3015534 -0.41958708 -0.50927174 -0.7407347
