inputs/examples/workloads/mobilenetv1_inferred.onnx (onnx, 64939 bytes, 8 tensors)

MobilenetV1/MobilenetV1/Conv2d_4_depthwise/depthwise_bias_fused_bn f4 [128]
000000 10 b8 3f 3d 4c 54 56 3e b0 99 01 40 cf 43 1a 40
       0.046806395 0.20930594 2.0250053 2.4103887
000010 7f fb 0b 40 e0 ca 5e 3d 39 9b 13 40 00 a8 16 3d
       2.187225 0.054392695 2.306349 0.03678131
000020 89 45 73 40 e8 ca 0c bf 30 22 75 3d 29 2d 8e 40
       3.801119 -0.5499711 0.059847057 4.4430127
000030 08 2f e2 3f 10 cf 15 bd ff fa 8a 40 9c 9e 20 3e
       1.7670603 -0.036574423 4.343139 0.15685505
000040 a9 87 e2 3f 6c c6 54 40 00 76 35 3c da 2b 10 40
       1.769765 3.3246107 0.011075497 2.2526765
000050 40 76 f2 bc a8 b8 ec 3f 61 7e 8c 40 dc 4f f5 3e
       -0.029597402 1.8493853 4.390427 0.4791249
000060 48 c2 9a 40 00 6c 56 3c 00 ef 4b bc 90 00 4c 40
       4.836216 0.013087273 -0.012447119 3.1875343
000070 02 f2 fb 3f 00 12 6b bc 95 93 09 40 88 08 4e 3e
       1.968323 -0.014347553 2.1496327 0.20120442
000080 1a 2f 32 3e 60 9c e7 3d 80 73 b0 bc f0 e2 3c 3e
       0.1740078 0.11309123 -0.02153945 0.18445945
000090 bb 7a 21 3f 3a 22 c9 40 70 1b 45 3d 40 9c 5b 3c
       0.63077897 6.285428 0.04812187 0.013403952
0000a0 40 c3 78 3c 64 29 80 bf 39 cf ee 3f cc b0 ca 3c
       0.01518327 -1.0012631 1.8656989 0.024742506
0000b0 1e ad 7a 40 3c 41 35 be ed 8b 0f 40 05 fa 12 40
       3.9168162 -0.17700666 2.2429154 2.29651
0000c0 c8 7b f5 3d 18 a8 5f c0 05 1a 4e 40 40 ff eb 3c
       0.119865 -3.4946346 3.220338 0.028808236
0000d0 38 68 86 40 72 fc 09 3f 4c d4 29 40 52 f1 1f 40
       4.200222 0.53900826 2.6535826 2.499104
0000e0 30 43 41 bf 83 d0 05 40 b0 0d e4 3d a6 bb 37 40
       -0.75493145 2.0908515 0.11135423 2.8708282
0000f0 94 18 4b 40 00 01 35 3c 18 c3 f7 3f bc 15 be 3e
       3.1733751 0.011047602 1.9356413 0.37125957
000100 a6 18 f9 3f 5d 27 1b 3e f6 b7 f0 3f d6 bf 82 3e
       1.9460647 0.15151735 1.880614 0.25536984
000110 17 dd 25 40 af 09 8d 40 fc 26 e3 3e 80 c9 ed 3f
       2.5916193 4.407432 0.4436568 1.8577118
000120 68 c1 20 3e 59 a4 9f bf 20 35 4f bd c0 c2 19 3d
       0.15698779 -1.247203 -0.050587773 0.037539244
000130 b2 ae a7 3e 8e b0 81 bd 08 00 2d 3e 30 70 a1 bf
       0.3275047 -0.06332503 0.16894543 -1.2612362
000140 ef 71 42 40 de 35 e2 3e bc 74 3e 3e a2 fd e8 bf
       3.038204 0.44181722 0.18599218 -1.8202403
000150 16 d4 61 bf 60 00 ea 3f ee d6 5a 40 78 db 7d 3e
       -0.8821424 1.8281364 3.4193683 0.24790752
000160 80 8b 6d 3c 3b fa 90 bf e8 43 7a 3e e4 ff ce 3e
       0.014498591 -1.1326364 0.24439967 0.40429604
000170 40 04 7f 3c ee 94 5e 3e 46 d9 54 40 6c cd 17 40
       0.015564978 0.217365 3.3257613 2.371913
000180 d5 ca cc 3e c0 8d 8e bc 67 cd 9f 40 36 b0 0c 40
       0.399985 -0.017401576 4.9938235 2.198255
000190 80 81 7b 3d a0 bd d6 bc 60 06 2f 3e 80 53 fe 3c
       0.061402798 -0.026213467 0.17092276 0.031045675
0001a0 14 c5 b2 40 22 fa 97 3e 8e b6 47 40 6b 17 12 3f
       5.5865574 0.29683024 3.1205173 0.57066983
0001b0 d1 15 20 40 62 24 9a 3f 20 8f a9 40 30 40 f5 3f
       2.5013316 1.2042353 5.2987213 1.9160213
0001c0 54 f9 86 40 cb 76 e7 bf c0 57 25 3c aa cf de 3f
       4.2179356 -1.8083128 0.010091722 1.7407124
0001d0 07 df 80 40 47 cd 21 3f ec 92 ba bf 70 5c a7 40
       4.027225 0.63203853 -1.4576087 5.230034
0001e0 26 b2 94 40 b7 74 25 41 e0 ab 9b 3c 20 2b 16 bd
       4.6467466 10.340995 0.019002855 -0.03666222
0001f0 99 eb 6b 3d 3c 86 40 40 00 68 99 39 a0 73 af 40
       0.05759773 3.008193 0.0002925992 5.4828644

MobilenetV1/MobilenetV1/Conv2d_3_pointwise/Conv2D_bias_fused_bn f4 [128]
000000 67 30 b8 bf 57 23 c0 bf 39 98 25 c0 44 74 ca bf
       -1.4389771 -1.5010785 -2.587416 -1.5816731
000010 e3 05 9d be 3f 43 23 3f 38 9f 0a 40 7d 2d 4f bf
       -0.30668554 0.63774484 2.165968 -0.80928785
000020 a3 57 7d 3f d4 a1 8a 3f fa 33 29 40 54 14 fa 3f
       0.9896185 1.0830636 2.6437974 1.9537454
000030 97 b0 4a bf b4 a2 b0 3f 1c 53 1f 40 6e b8 2c c0
       -0.79175705 1.3799653 2.4894476 -2.6987567
000040 b1 e3 cd bf ea 97 2a 40 97 f7 e2 3f b4 38 b1 bf
       -1.6085111 2.665522 1.7731808 -1.384543
000050 e0 ec 85 3c 38 a8 7d bd 86 39 b7 3f 9c df f4 bf
       0.016348302 -0.061928004 1.431443 -1.913074
000060 31 1b 49 3f 3d 6c d8 3f 6f e8 2b c0 24 cf 60 bf
       0.78557116 1.6908032 -2.6860616 -0.8781607
000070 5e e0 da 3f 5a d0 a5 bd 38 c9 5b bf f8 4c ce bd
       1.7099721 -0.080963805 -0.8585391 -0.100732744
000080 98 64 bd 3e ee fd 2e 40 7b 16 f9 3f 0b 74 33 c0
       0.3699081 2.7342486 1.9459985 -2.8039577
000090 79 51 54 bf 3d 3f f7 3f 20 0b d7 bf 1d d3 ae c0
       -0.8293682 1.9316174 -1.680027 -5.4632707
0000a0 43 ad 88 c0 bc a5 1c 40 37 70 bb 3f 00 17 66 3d
       -4.27115 2.4476156 1.464362 0.05617428
0000b0 5c b2 36 bf 5b c4 e8 3f 7a e0 a5 40 ac 2b cb 3e
       -0.71365905 1.8184923 5.183652 0.39681756
0000c0 8d c1 3d c0 0f 18 a3 3f 7d 7a 8e 40 da a0 62 c0
       -2.9649384 1.2741717 4.452452 -3.5410676
0000d0 57 35 16 40 36 91 44 3f 6e 65 e5 3f 0d c5 88 40
       2.3470056 0.76784074 1.7921579 4.274054
0000e0 62 64 07 40 9e 85 d5 3e f0 a3 6f be 9a fa 85 40
       2.1155019 0.41703504 -0.23402381 4.186841
0000f0 c4 3b b8 3f 20 e5 36 3f 34 4a 0e c0 6f 6a 8e 40
       1.4393239 0.71443367 -2.223279 4.4504924
000100 86 90 bd 3f 70 6c ff 3e 06 d9 0c c0 f4 a1 13 3e
       1.480973 0.4988742 -2.200746 0.14417249
000110 0e 03 ac 3f 9b 32 8b c0 8c 12 4e 3e c9 2f 87 c0
       1.3438432 -4.3499274 0.20124263 -4.224583
000120 92 a5 8e 40 d0 5f 92 3f 38 f5 47 3f b5 6e 33 c0
       4.457711 1.143549 0.7810855 -2.803632
000130 7c d7 6e bf 31 16 0f 40 bc d0 1b c0 58 af e5 3d
       -0.93297553 2.2357295 -2.4346151 0.11215085
000140 09 2a 98 3f 9a ab 73 c0 87 5c 60 40 c1 0f ab 3f
       1.1887828 -3.8073487 3.5056474 1.3364183
000150 9f 12 12 3f 53 4e c5 bf 12 0e 34 3e 64 30 6c 3f
       0.57059664 -1.5414528 0.17583492 0.9226134
000160 c8 9e c4 3f 00 5e 50 3e 65 dc 08 40 00 50 01 c1
       1.5360956 0.20348358 2.1384518 -8.082031
000170 38 f1 d8 3d 3d 45 0d c0 9e d8 1d 3f 5f 82 81 3e
       0.10592884 -2.207351 0.61658657 0.25294778
000180 92 28 08 bf b0 eb 13 3f a0 ad f7 3f b7 f0 40 3f
       -0.53186905 0.57781506 1.9349861 0.753673
000190 5e 29 7f c0 07 cc a3 bf 2e 8c 92 3d 9e 27 92 3f
       -3.9868999 -1.2796639 0.071556434 1.141834
0001a0 60 02 87 bf 89 7c af c0 9a 6a d0 3f 50 bd 87 3d
       -1.05476 -5.483952 1.6282532 0.06627905
0001b0 06 df 37 3f 1c 52 b7 3e 78 bf 70 3f 0f e4 00 40
       0.7182468 0.35804832 0.9404216 2.0139196
0001c0 b4 3c a5 3f 36 2d 04 3f 18 fb b3 3f c1 a1 6a 3f
       1.290915 0.51631486 1.4061003 0.91653067
0001d0 20 52 9d 3f fe 46 44 40 97 8d 97 3f b7 ca 93 3f
       1.2290688 3.066833 1.1840085 1.1546239
0001e0 7a d5 d7 bf 3c 8e 3e 3f 01 8c e2 3f 92 af 4f 40
       -1.6862023 0.7443578 1.7698976 3.245091
0001f0 1d be af bf 80 b6 43 3d f0 d7 12 bd 78 16 82 bf
       -1.3729893 0.047781467 -0.035850465 -1.0163107

MobilenetV1/MobilenetV1/Conv2d_3_depthwise/depthwise_bias_fused_bn f4 [128]
000000 50 eb 8c 3f 57 42 16 40 bc 6d fb be 88 53 8a be
       1.1009312 2.347799 -0.49107158 -0.27016854
000010 04 96 0b 3f c0 ce 8f 3f 3a e6 73 3f 1d ec 8e 3f
       0.5452578 1.123497 0.9527317 1.1165806
000020 72 00 2a 40 9a 8a c1 bd 69 b6 84 3f b7 0e 01 3f
       2.6562772 -0.09450264 1.0368167 0.5041308
000030 b3 9f 81 3f 14 a3 fe be 1a 09 95 3e 09 5c 79 3e
       1.0126861 -0.49733794 0.29108506 0.24351515
000040 5d 42 16 bf 36 b8 12 3e 17 fa 95 3f 62 94 e2 3e
       -0.5869501 0.14328083 1.1716946 0.44253832
000050 08 0c 92 3e c1 5d 7a bf ef 34 f8 3f aa a1 79 bd
       0.28524804 -0.9779931 1.9391154 -0.06094519
000060 69 2f 21 40 e1 fb d3 c0 75 ec 9a 3e 75 c3 85 bf
       2.5185187 -6.624497 0.30258527 -1.0450274
000070 8c db 8a 3d d8 97 6e bd e2 1b 0f 40 05 35 11 3f
       0.067801565 -0.05825028 2.2360768 0.56721526
000080 5a b9 1d 3f d5 ef 9b 3f 93 82 c0 3f 89 6a b9 3f
       0.6161095 1.2182566 1.5039848 1.4485637
000090 a7 43 bb bf 80 41 0e 3f 84 58 e4 bd f0 4d 38 3e
       -1.4630021 0.55568695 -0.111496955 0.17998481
0000a0 93 de 00 40 16 25 80 bd ff 5a de 3e 4b 1b 0e 40
       2.0135849 -0.062570736 0.434288 2.2204158
0000b0 b5 49 81 40 7d 1e b5 c0 90 8b 17 3d 44 ed 9a 3f
       4.0402474 -5.6599717 0.03699833 1.2103658
0000c0 f3 dd 10 40 8e 70 9b 3f b3 20 e1 3f 10 40 43 bf
       2.2635467 1.2143724 1.7588104 -0.76269627
0000d0 af f1 64 41 08 ec ac 3f 7c 87 a3 be a3 26 8d be
       14.309005 1.3509531 -0.31939304 -0.2756854
0000e0 d1 d5 ad bf 87 e0 36 40 5b 2c 29 3f d2 e2 81 3f
       -1.3580877 2.857454 0.66083306 1.0147345
0000f0 b6 b6 5e bf c5 02 55 40 a4 05 f7 be d5 e6 3d 3f
       -0.86997545 3.328294 -0.4824649 0.74180347
000100 7d 0c 60 3d 1d 2f d5 be 10 2c e3 bf ce d1 6b be
       0.05469941 -0.41637507 -1.7747822 -0.23029253
000110 87 b6 a3 3f 1b a1 eb bd 1f 49 75 bf cb 28 93 3f
       1.2790078 -0.11505338 -0.958147 1.1496824
000120 24 89 de 3f b8 27 98 3d 14 d7 5a 3f 78 ee 56 bf
       1.7385602 0.07429451 0.85484433 -0.83957624
000130 59 d2 15 40 03 83 3e 40 1c ba b3 be aa ed a5 3e
       2.3409636 2.9767463 -0.35102928 0.32407886
000140 cc c9 c0 3d 6e 89 28 3f 5e ce 6d 3e c4 3c a4 3e
       0.0941349 0.658347 0.23223254 0.3207761
000150 8e 64 fe 3f dd 28 c3 bf da 43 b9 3f 9b a8 a1 3e
       1.9874437 -1.5246845 1.4473832 0.31573948
000160 7d 0f e0 3f b0 07 21 3b 80 d6 12 3e 28 6f cb 3e
       1.7504727 0.0024571232 0.14339638 0.39733243
000170 b7 6b 4b bf 00 af 67 3d 85 62 90 bd b4 b3 bc 3f
       -0.79461235 0.056563377 -0.07050041 1.4742341
000180 d4 e3 e1 be f2 94 53 40 fb e0 79 3e dd 24 ae be
       -0.44119132 3.305966 0.2440223 -0.340125
000190 e0 22 cb 3d e6 81 61 3d 10 37 e1 40 7a ea f2 3e
       0.09918761 0.05505552 7.0379715 0.47444516
0001a0 1e 86 93 be 80 b4 48 bb 01 0a d5 be c0 4a 1c bc
       -0.2881326 -0.0030625165 -0.41609195 -0.009539306
0001b0 a5 a6 b9 3e 30 48 3f 3f fe 19 94 3f b2 1c ba 3f
       0.36259952 0.74719524 1.1570432 1.4540007
0001c0 47 40 d8 bd 08 b8 4a 3f 06 50 c5 3f 48 5c eb bd
       -0.10559135 0.7918706 1.5415046 -0.114922106
0001d0 5c 3d 1f be 8c aa d4 3f ec b2 d8 3f 07 91 bf 3f
       -0.1555075 1.6614547 1.6929603 1.4966134
0001e0 31 5c 82 3f 7f 0a b7 3e 39 39 a2 3f 73 c6 48 3f
       1.0184385 0.35750195 1.2673713 0.7842781
0001f0 11 33 3e bf 9c 4e 96 3f 2c 4a 1d 40 40 c2 ac 3f
       -0.7429667 1.174274 2.457652 1.349678

MobilenetV1/MobilenetV1/Conv2d_2_pointwise/Conv2D_bias_fused_bn f4 [128]
000000 98 fe 29 40 61 9c 09 c0 78 43 29 c0 af 5e fc 3e
       2.6561642 -2.1501696 -2.644743 0.49290988
000010 53 ed 56 c0 33 b0 c8 3f e0 a7 d3 be 36 8c 54 40
       -3.3582351 1.5678772 -0.41339016 3.3210578
000020 fa 9d 10 c1 f6 34 91 40 26 b2 d2 3f 32 5c bd bf
       -9.0385685 4.537715 1.6460617 -1.4793761
000030 c6 04 10 c0 b4 7e e5 3e de 7c bb 3f 67 70 0c 40
       -2.2502913 0.4482323 1.4647481 2.1943605
000040 dc 54 a5 40 09 ed 02 40 93 fb 2a 40 40 1a 99 be
       5.166609 2.0457175 2.6716049 -0.2990284
000050 4b ac 7b bf 4f 1a 60 c0 00 b2 e0 bb fa af 3a bf
       -0.98309773 -3.5016057 -0.0068571568 -0.7292477
000060 36 a1 cd 3e 3c 41 db 3f ac d8 4c 3f 06 d2 8a bf
       0.40162057 1.7129283 0.80018115 -1.0845344
000070 61 18 1e bf 70 b7 a7 3f 88 cc 32 40 70 66 1b 40
       -0.6175595 1.3102856 2.7937336 2.4281273
000080 78 7a 59 40 62 98 18 c0 68 1c e6 3d cb cb 49 bf
       3.3981 -2.3843007 0.11235887 -0.7882659
000090 9a 39 d8 3f e4 71 d9 3e aa f3 04 c1 ea 4e a3 3f
       1.6892579 0.42469704 -8.309488 1.2758458
0000a0 d2 16 ae 3f 16 c1 9a be 2b 70 60 40 fb c6 78 40
       1.3600714 -0.30225438 3.5068462 3.8871448
0000b0 aa d3 3a 40 ae 74 21 40 b0 d8 f1 3e a4 23 a0 bf
       2.919169 2.5227466 0.47235632 -1.2510877
0000c0 20 67 9e 3d 7a af 30 3f ce 91 8f bf a9 68 2e bf
       0.07734513 0.69017756 -1.1216371 -0.6812845
0000d0 b4 45 e4 3f 03 fb c2 bf c1 84 65 bf 33 75 0b 40
       1.7833772 -1.5232853 -0.8965569 2.1790283
0000e0 b6 f8 e4 bd 5d 99 c9 3f d4 d0 30 3f e8 5a 23 40
       -0.1118025 1.5749928 0.69068646 2.5524235
0000f0 c0 bd 60 3f 69 bc 34 40 38 95 96 3f 3c 73 1e 40
       0.87789536 2.8239996 1.1764288 2.4757833
000100 32 92 3d c0 9a 66 56 40 d2 bd 90 c0 7c 43 23 3e
       -2.962048 3.3500123 -4.5231714 0.15943712
000110 8e b4 75 c0 d0 61 43 40 50 27 7a 40 ef d8 31 bf
       -3.8391452 3.052845 3.9086494 -0.6947164
000120 b9 21 7f 3f 1a 1e 82 be 2e ac f1 be 58 a3 53 40
       0.9966083 -0.2541359 -0.47201675 3.3068447
000130 6d 41 8f bf ca 2f d8 3e 81 ce 06 c0 7b a1 6e bf
       -1.1191841 0.4222396 -2.106354 -0.9321515
000140 58 09 4a c0 8a 7f 42 40 ae 11 2f 3e d4 98 03 bf
       -3.1568203 3.0390344 0.17096588 -0.5140507
000150 27 ae f2 3f 7d 40 ab bf bd 75 d3 c0 c3 b4 ca bf
       1.8959397 -1.3379055 -6.6081223 -1.5836414
000160 b7 d0 d7 3f ba 87 07 3f 2a 5f 96 be b9 7a 75 3f
       1.686057 0.5294148 -0.2936948 0.95890385
000170 a0 89 c7 3e 4c 6f 01 c0 cc af 80 bf 3c a0 3c 3e
       0.38972187 -2.022418 -1.0053649 0.184205
000180 90 62 29 40 37 b3 e0 3e 82 cb 14 c0 20 da 91 c0
       2.6466408 0.4388673 -2.3249211 -4.5578766
000190 26 37 92 40 d6 d4 69 40 b0 e3 a0 3f da 8f ce 3f
       4.569232 3.6536155 1.2569485 1.613765
0001a0 f2 c4 c4 3f 12 3f f3 3f c4 87 d4 c0 7b 57 42 c0
       1.5372603 1.9003623 -6.641573 -3.0365894
0001b0 50 0f d6 3e 89 ab 29 3f 4e 05 5f c0 d2 94 15 bf
       0.41808558 0.66277367 -3.4846988 -0.58430207
0001c0 d2 0e 72 3f 25 2a 28 3f 71 79 7c 3f 83 64 5a 40
       0.94553864 0.6568931 0.98622805 3.4123847
0001d0 e7 ed a8 3d 9b 3e bd 40 cf 82 15 3f fd 45 06 40
       0.08248501 5.9138923 0.58402723 2.0980217
0001e0 ac b1 91 c0 38 c1 89 3f 77 82 5a c0 1f 43 5a 3f
       -4.5529385 1.0762091 -3.414213 0.8525867
0001f0 88 82 44 3f c5 86 9a 40 9c 8c 32 40 22 4c cd 3f
       0.76761675 4.8289514 2.789832 1.6038859

MobilenetV1/MobilenetV1/Conv2d_2_depthwise/depthwise_bias_fused_bn f4 [64]
000000 60 97 f5 3f 18 ec 42 3d fe e6 4c 3f 6f ff 90 3f
       1.9186821 0.047588438 0.80039966 1.1327952
000010 c9 fe a1 3f be 61 e1 3f da cd 35 3f b0 ed 42 3d
       1.2655879 1.7607954 0.7101723 0.047589958
000020 cc ac 9c 3f cd 94 97 40 7b 6f 21 3f d0 24 39 40
       1.2240233 4.736914 0.6306073 2.8928719
000030 be 40 89 3e 42 a3 17 40 8c 5e c0 3d 7c 25 1d 3e
       0.26807207 2.3693395 0.093930334 0.1534633
000040 1c ae 91 3f f9 5a 87 3f c0 95 1d 3c 8d b7 20 bf
       1.1381259 1.0574638 0.009618223 -0.62780076
000050 22 2f b9 3f 48 a6 94 3f 80 53 5d bd f4 ed 03 40
       1.4467509 1.1613245 -0.05403471 2.0613985
000060 a8 90 69 3e 60 e1 98 3c a5 d8 af 3d 2a e2 bc 40
       0.22809088 0.018662155 0.085862435 5.902608
000070 ae 85 0a 40 d1 bd 59 40 00 3c f2 3d f8 b2 b4 3d
       2.1644092 3.4022105 0.1182785 0.08823198
000080 a0 ff 2a bd b9 77 0f bf 4b 32 c9 be 11 59 e8 3e
       -0.04174769 -0.5604206 -0.39296183 0.45380452
000090 88 b2 e6 3d 27 c8 3d bf 00 0b a6 bc 80 dc d6 bb
       0.11264521 -0.74133533 -0.020268917 -0.0065570474
0000a0 e4 20 ad 40 d0 3c 3b bf d4 ad f8 3f d4 de 2f 3f
       5.410265 -0.7313967 1.9428048 0.68699384
0000b0 3d 9e 53 bf 06 f7 9f be 78 92 59 3e 82 1e 04 3f
       -0.8266333 -0.3124315 0.2124728 0.5160905
0000c0 80 c8 b8 3f d4 ac 0c 3f ca 77 6e 3f a3 fd 19 3f
       1.4436188 0.54951215 0.93151534 0.60152644
0000d0 b2 80 05 40 7f 4f bc be 60 b2 8b 3c 0f c0 c6 3f
       2.08598 -0.367794 0.01705283 1.5527362
0000e0 78 5b 8d 40 74 7c ac 40 be 10 bc 3f fd b3 53 40
       4.4174156 5.390192 1.4692609 3.3078606
0000f0 fa a2 76 bf b8 17 d5 3e a4 37 d5 3f 78 ae 15 3e
       -0.9634243 0.41619658 1.6657605 0.14617336

MobilenetV1/MobilenetV1/Conv2d_1_pointwise/Conv2D_bias_fused_bn f4 [64]
000000 a5 8c f5 3f e4 50 b3 bf 30 c6 ad 40 88 1c 6f 3f
       1.9183546 -1.4009061 5.430443 0.9340291
000010 e0 f5 50 3d 74 6d b1 c0 aa a7 e0 3f 5e e0 c4 c0
       0.051015735 -5.544611 1.7551167 -6.1523886
000020 d0 54 e8 40 24 fb 5b 40 a6 36 55 3e 48 5d ba 3e
       7.260353 3.4372034 0.20821628 0.36399293
000030 f9 42 3b c0 38 7c bd c0 a5 df c1 c0 36 55 5a bf
       -2.9259627 -5.9214134 -6.0585504 -0.8528627
000040 72 a8 35 40 30 6a 89 40 1f 47 75 3f ec c9 35 bf
       2.838406 4.2942123 0.9581165 -0.71011233
000050 63 d4 03 c1 12 b8 41 bf a0 60 1b 3f 74 96 7e 41
       -8.239352 -0.75671494 0.60694313 15.911732
000060 ef e8 13 40 1b 93 cf c0 ce 49 90 41 73 30 8f 40
       2.3110921 -6.486707 18.036037 4.474664
000070 12 60 41 41 40 a4 5a 40 9e 36 29 40 0a 6b 26 c0
       12.085955 3.416275 2.6439586 -2.6002831
000080 bd 66 e8 40 b0 3d 43 c1 2e 54 f5 bd 79 94 0b 3f
       7.2625413 -12.20256 -0.119789466 0.54523426
000090 60 14 aa c0 7d c2 bf bf fb bc 89 40 92 14 a4 bf
       -5.314987 -1.4981228 4.304319 -1.2818778
0000a0 51 20 82 40 17 7c 82 bd 6c c8 0b 40 e8 d5 ee 3e
       4.066445 -0.063713245 2.1841078 0.46647573
0000b0 3d 36 b6 bf 2e 63 a4 40 06 ec 7b c0 c0 0e 1d 3f
       -1.4235302 5.137107 -3.9362807 0.6135063
0000c0 0f bd 48 bf e6 a0 2e c0 36 39 fe 3f b2 f8 27 3f
       -0.7841348 -2.7285705 1.9861209 0.65613854
0000d0 e8 a4 2f 3d 15 5f cb bd 32 e5 a4 3f e9 56 8a c0
       0.042881876 -0.09930245 1.2882445 -4.323109
0000e0 36 4f 5b 3f 47 d2 a3 40 80 7c 92 40 86 de d2 bf
       0.8566774 5.1194186 4.5776978 -1.6474159
0000f0 89 00 ad bf 21 2c 9f c0 fc 99 47 c1 7c 13 8a 40
       -1.3515788 -4.974137 -12.475094 4.3148785

MobilenetV1/MobilenetV1/Conv2d_1_depthwise/depthwise_bias_fused_bn f4 [32]
000000 76 e7 95 bf e6 23 04 3f e6 d5 07 3f 2c c8 d8 be
       -1.1711261 0.51617277 0.5306076 -0.4234022
000010 5e be d4 3f 15 f6 72 3f a4 ee 80 3e 0f 29 25 c0
       1.6620595 0.9490674 0.25182068 -2.580631
000020 3f 43 5a bf 9c 2a 49 bf 1d 03 76 bf 5e 32 86 40
       -0.8525886 -0.7858064 -0.960985 4.1936483
000030 76 5a 25 40 f6 37 0a bf e7 c1 6b be fc 40 0d 40
       2.5836463 -0.5399164 -0.23023187 2.2070913
000040 42 84 6a 3d 4a ea bf 40 75 ed 54 3f 12 14 ef 3e
       0.057255037 5.9973497 0.8317483 0.46695
000050 36 4c 46 bf 86 cf 95 40 88 68 80 bf 96 26 d4 3f
       -0.7746004 4.6815825 -1.00319 1.6574275
000060 b4 21 45 3e e2 38 f0 3f 0b 5a d7 40 bc cd 68 bf
       0.19251138 1.8767359 6.7297416 -0.90938926
000070 46 44 33 40 60 8a 1b 3f 1b 69 73 bf fe 5e 89 40
       2.801042 0.6075802 -0.95082253 4.2928457

MobilenetV1/MobilenetV1/Conv2d_0/Conv2D_bias_fused_bn f4 [32]
000000 cf 52 9e bf fa a5 11 40 78 61 b2 be a3 30 d9 be
       -1.2369021 2.2757554 -0.34839988 -0.4241992
000010 90 87 d5 3f fa 79 19 40 ea d9 95 3e dc c2 46 40
       1.6681995 2.3980699 0.29267818 3.1056433
000020 da f8 bc be a6 80 a1 bf 11 37 65 bf 10 b5 1d 40
       -0.3690861 -1.2617385 -0.8953715 2.4641762
000030 f0 9a 3e 40 2f 50 eb 3f d7 4f 29 3f 64 27 44 40
       2.9782066 1.8383845 0.6613745 3.0649042
000040 7d 49 b1 bf 16 e3 25 40 84 10 05 40 57 83 0a 40
       -1.3850552 2.5919852 2.079133 2.1642663
000050 1d 38 16 bf c0 d6 12 bd 83 3d 0e c0 f8 b7 50 40
       -0.5867937 -0.035849333 -2.2225044 3.2612286
000060 b1 45 08 c0 7a 0b 2a 40 eb b0 9d 40 a7 dc e2 be
       -2.1292536 2.6569505 4.9278464 -0.4430897
000070 b5 4f 22 40 3c 51 e0 3f aa 9c bb be 88 41 5d 40
       2.536115 1.7524791 -0.36642963 3.4571247
