inputs/examples/workloads/resnet50_inferred.onnx (onnx, 430049 bytes, 63 tensors)

ConvBnFusion_W_resnetv17_conv0_weight_quantized i1 [64, 3, 7, 7]
0	0x08	8
1	0x04	4
2	0x12	18
3	0x0d	13
4	0x6f	111
5	0x6e	110
6	0x6e	110
7	0x78	120
8	0x2e	46
9	0x71	113
10	0x75	117
11	0x61	97
12	0x6e	110
13	0x74	116
14	0x69	105
15	0x7a	122
16	0x65	101
17	0x1a	26
18	0x05	5
19	0x30	48
20	0x2e	46
21	0x31	49
22	0x2e	46
23	0x30	48
24	0x3a	58
25	0xf0	-16
26	0xa3	-93
27	0x0d	13
28	0x0a	10
29	0x58	88
30	0x0a	10
31	0x04	4
32	0x64	100
33	0x61	97
34	0x74	116
35	0x61	97
36	0x0a	10
37	0x0a	10
38	0x64	100
39	0x61	97
40	0x74	116
41	0x61	97
42	0x5f	95
43	0x73	115
44	0x63	99
45	0x61	97
46	0x6c	108
47	0x65	101
48	0x0a	10
49	0x0f	15
50	0x64	100
51	0x61	97
52	0x74	116
53	0x61	97
54	0x5f	95
55	0x7a	122
56	0x65	101
57	0x72	114
58	0x6f	111
59	0x5f	95
60	0x70	112
61	0x6f	111
62	0x69	105
63	0x6e	110
64	0x74	116
65	0x12	18
66	0x0e	14
67	0x64	100
68	0x61	97
69	0x74	116
70	0x61	97
71	0x5f	95
72	0x71	113
73	0x75	117
74	0x61	97
75	0x6e	110
76	0x74	116
77	0x69	105
78	0x7a	122
79	0x65	101
80	0x64	100
81	0x1a	26
82	0x13	19
83	0x64	100
84	0x61	97
85	0x74	116
86	0x61	97
87	0x5f	95
88	0x51	81
89	0x75	117
90	0x61	97
91	0x6e	110
92	0x74	116
93	0x69	105
94	0x7a	122
95	0x65	101
96	0x4c	76
97	0x69	105
98	0x6e	110
99	0x65	101
100	0x61	97
101	0x72	114
102	0x22	34
103	0x0e	14
104	0x51	81
105	0x75	117
106	0x61	97
107	0x6e	110
108	0x74	116
109	0x69	105
110	0x7a	122
111	0x65	101
112	0x4c	76
113	0x69	105
114	0x6e	110
115	0x65	101
116	0x61	97
117	0x72	114
118	0x0a	10
119	0xf1	-15
120	0x03	3
121	0x0a	10
122	0x0e	14
123	0x64	100
124	0x61	97
125	0x74	116
126	0x61	97
127	0x5f	95
128	0x71	113
129	0x75	117
130	0x61	97
131	0x6e	110
132	0x74	116
133	0x69	105
134	0x7a	122
135	0x65	101
136	0x64	100
137	0x0a	10
138	0x0a	10
139	0x64	100
140	0x61	97
141	0x74	116
142	0x61	97
143	0x5f	95
144	0x73	115
145	0x63	99
146	0x61	97
147	0x6c	108
148	0x65	101
149	0x0a	10
150	0x0f	15
151	0x64	100
152	0x61	97
153	0x74	116
154	0x61	97
155	0x5f	95
156	0x7a	122
157	0x65	101
158	0x72	114
159	0x6f	111
160	0x5f	95
161	0x70	112
162	0x6f	111
163	0x69	105
164	0x6e	110
165	0x74	116
166	0x0a	10
167	0x2f	47
168	0x43	67
169	0x6f	111
170	0x6e	110
171	0x76	118
172	0x42	66
173	0x6e	110
174	0x46	70
175	0x75	117
176	0x73	115
177	0x69	105
178	0x6f	111
179	0x6e	110
180	0x5f	95
181	0x57	87
182	0x5f	95
183	0x72	114
184	0x65	101
185	0x73	115
186	0x6e	110
187	0x65	101
188	0x74	116
189	0x76	118
190	0x31	49
191	0x37	55
192	0x5f	95
193	0x63	99
194	0x6f	111
195	0x6e	110
196	0x76	118
197	0x30	48
198	0x5f	95
199	0x77	119
200	0x65	101
201	0x69	105
202	0x67	103
203	0x68	104
204	0x74	116
205	0x5f	95
206	0x71	113
207	0x75	117
208	0x61	97
209	0x6e	110
210	0x74	116
211	0x69	105
212	0x7a	122
213	0x65	101
214	0x64	100
215	0x0a	10
216	0x2b	43
217	0x43	67
218	0x6f	111
219	0x6e	110
220	0x76	118
221	0x42	66
222	0x6e	110
223	0x46	70
224	0x75	117
225	0x73	115
226	0x69	105
227	0x6f	111
228	0x6e	110
229	0x5f	95
230	0x57	87
231	0x5f	95
232	0x72	114
233	0x65	101
234	0x73	115
235	0x6e	110
236	0x65	101
237	0x74	116
238	0x76	118
239	0x31	49
240	0x37	55
241	0x5f	95
242	0x63	99
243	0x6f	111
244	0x6e	110
245	0x76	118
246	0x30	48
247	0x5f	95
248	0x77	119
249	0x65	101
250	0x69	105
251	0x67	103
252	0x68	104
253	0x74	116
254	0x5f	95
255	0x73	115

ConvBnFusion_W_resnetv17_conv0_weight_scale f4 [64]
0	0x3a155e48	0.0005697948
1	0x393fa7f5	0.00018277748
2	0x3979d8e4	0.00023827289
3	0x3931b49b	0.00016947316
4	0x3a8e6eab	0.0010866722
5	0x39445f03	0.00018727411
6	0x396eb22e	0.00022763826
7	0x39fc6a49	0.00048144374
8	0x3a4ffb5d	0.00079338794
9	0x39b1b0c7	0.0003389178
10	0x2ff3f99e	4.4378806e-10
11	0x3af36d7d	0.0018572059
12	0x392765fb	0.00015964352
13	0x3b0d1c34	0.0021531703
14	0x3226a969	9.700991e-09
15	0x397e51b8	0.0002425377
16	0x3a5f107a	0.000850923
17	0x38742ba6	5.8214784e-05
18	0x3a222e68	0.00061867246
19	0x3a813e02	0.0009860399
20	0x3a7ec6da	0.0009718962
21	0x3a9d3c7d	0.0011996176
22	0x3a46c9e8	0.0007583187
23	0x3859cf2e	5.1929783e-05
24	0x3ad1882e	0.0015986019
25	0x3a90ce4b	0.0011047808
26	0x3ab70413	0.0013963006
27	0x3af3ad52	0.0018591082
28	0x397f0fa5	0.00024324523
29	0x396f7f46	0.00022840229
30	0x3a928db7	0.001118115
31	0x3ab3d9f1	0.0013721568
32	0x38ab4903	8.167515e-05
33	0x3adf3fa1	0.0017032513
34	0x3a2f1b84	0.00066798204
35	0x393d07d8	0.00018027367
36	0x3ad87b33	0.0016516208
37	0x39f376fe	0.00046437228
38	0x31989c84	4.441576e-09
39	0x39362472	0.0001737045
40	0x39a280e3	0.00030995076
41	0x3a82985e	0.0009963622
42	0x31ce22d6	5.9993495e-09
43	0x3a8cc98c	0.0010741218
44	0x39446543	0.0001872974
45	0x38f8aa7c	0.00011857317
46	0x39eeef04	0.00045572978
47	0x3a685c9b	0.0008863897
48	0x3a1257d2	0.0005582544
49	0x390bd1b6	0.00013334196
50	0x3a2e9649	0.00066599675
51	0x3930ced9	0.00016861725
52	0x3a43a067	0.00074625615
53	0x3a5ee969	0.0008503409
54	0x38d23875	0.00010024096
55	0x39ee3ab3	0.00045438632
56	0x3ac9cd60	0.001539629
57	0x3aae8891	0.0013315846
58	0x39a0b81f	0.0003065476
59	0x3aaab721	0.0013024547
60	0x391796ba	0.00014456632
61	0x39c53f07	0.00037621727
62	0x39a7f934	0.00032038393
63	0x39b9631c	0.00035359792

ConvBnFusion_W_resnetv17_stage1_conv3_weight_quantized i1 [256, 64, 1, 1]
0	0x6b	107
1	0x65	101
2	0x72	114
3	0x6e	110
4	0x65	101
5	0x6c	108
6	0x5f	95
7	0x73	115
8	0x68	104
9	0x61	97
10	0x70	112
11	0x65	101
12	0x40	64
13	0x01	1
14	0x40	64
15	0x01	1
16	0xa0	-96
17	0x01	1
18	0x07	7
19	0x2a	42
20	0x11	17
21	0x0a	10
22	0x04	4
23	0x70	112
24	0x61	97
25	0x64	100
26	0x73	115
27	0x40	64
28	0x00	0
29	0x40	64
30	0x00	0
31	0x40	64
32	0x00	0
33	0x40	64
34	0x00	0
35	0xa0	-96
36	0x01	1
37	0x07	7
38	0x2a	42
39	0x10	16
40	0x0a	10
41	0x07	7
42	0x73	115
43	0x74	116
44	0x72	114
45	0x69	105
46	0x64	100
47	0x65	101
48	0x73	115
49	0x40	64
50	0x02	2
51	0x40	64
52	0x02	2
53	0xa0	-96
54	0x01	1
55	0x07	7
56	0x0a	10
57	0xeb	-21
58	0x04	4
59	0x0a	10
60	0x24	36
61	0x72	114
62	0x65	101
63	0x73	115
64	0x6e	110
65	0x65	101
66	0x74	116
67	0x76	118
68	0x31	49
69	0x37	55
70	0x5f	95
71	0x73	115
72	0x74	116
73	0x61	97
74	0x67	103
75	0x65	101
76	0x32	50
77	0x5f	95
78	0x72	114
79	0x65	101
80	0x6c	108
81	0x75	117
82	0x30	48
83	0x5f	95
84	0x66	102
85	0x77	119
86	0x64	100
87	0x5f	95
88	0x71	113
89	0x75	117
90	0x61	97
91	0x6e	110
92	0x74	116
93	0x69	105
94	0x7a	122
95	0x65	101
96	0x64	100
97	0x0a	10
98	0x20	32
99	0x72	114
100	0x65	101
101	0x73	115
102	0x6e	110
103	0x65	101
104	0x74	116
105	0x76	118
106	0x31	49
107	0x37	55
108	0x5f	95
109	0x73	115
110	0x74	116
111	0x61	97
112	0x67	103
113	0x65	101
114	0x32	50
115	0x5f	95
116	0x72	114
117	0x65	101
118	0x6c	108
119	0x75	117
120	0x30	48
121	0x5f	95
122	0x66	102
123	0x77	119
124	0x64	100
125	0x5f	95
126	0x73	115
127	0x63	99
128	0x61	97
129	0x6c	108
130	0x65	101
131	0x0a	10
132	0x25	37
133	0x72	114
134	0x65	101
135	0x73	115
136	0x6e	110
137	0x65	101
138	0x74	116
139	0x76	118
140	0x31	49
141	0x37	55
142	0x5f	95
143	0x73	115
144	0x74	116
145	0x61	97
146	0x67	103
147	0x65	101
148	0x32	50
149	0x5f	95
150	0x72	114
151	0x65	101
152	0x6c	108
153	0x75	117
154	0x30	48
155	0x5f	95
156	0x66	102
157	0x77	119
158	0x64	100
159	0x5f	95
160	0x7a	122
161	0x65	101
162	0x72	114
163	0x6f	111
164	0x5f	95
165	0x70	112
166	0x6f	111
167	0x69	105
168	0x6e	110
169	0x74	116
170	0x0a	10
171	0x36	54
172	0x43	67
173	0x6f	111
174	0x6e	110
175	0x76	118
176	0x42	66
177	0x6e	110
178	0x46	70
179	0x75	117
180	0x73	115
181	0x69	105
182	0x6f	111
183	0x6e	110
184	0x5f	95
185	0x57	87
186	0x5f	95
187	0x72	114
188	0x65	101
189	0x73	115
190	0x6e	110
191	0x65	101
192	0x74	116
193	0x76	118
194	0x31	49
195	0x37	55
196	0x5f	95
197	0x73	115
198	0x74	116
199	0x61	97
200	0x67	103
201	0x65	101
202	0x32	50
203	0x5f	95
204	0x63	99
205	0x6f	111
206	0x6e	110
207	0x76	118
208	0x31	49
209	0x5f	95
210	0x77	119
211	0x65	101
212	0x69	105
213	0x67	103
214	0x68	104
215	0x74	116
216	0x5f	95
217	0x71	113
218	0x75	117
219	0x61	97
220	0x6e	110
221	0x74	116
222	0x69	105
223	0x7a	122
224	0x65	101
225	0x64	100
226	0x0a	10
227	0x32	50
228	0x43	67
229	0x6f	111
230	0x6e	110
231	0x76	118
232	0x42	66
233	0x6e	110
234	0x46	70
235	0x75	117
236	0x73	115
237	0x69	105
238	0x6f	111
239	0x6e	110
240	0x5f	95
241	0x57	87
242	0x5f	95
243	0x72	114
244	0x65	101
245	0x73	115
246	0x6e	110
247	0x65	101
248	0x74	116
249	0x76	118
250	0x31	49
251	0x37	55
252	0x5f	95
253	0x73	115
254	0x74	116
255	0x61	97

ConvBnFusion_W_resnetv17_stage1_conv3_weight_scale f4 [256]
0	0x3afa323b	0.0019088456
1	0x3b2c4439	0.002628578
2	0x3aac6a61	0.0013154262
3	0x346d4781	2.2098358e-07
4	0x3b6b4d33	0.0035904169
5	0x3af0b2bc	0.0018363814
6	0x3b0c4a56	0.0021406612
7	0x3a4bd2e1	0.0007775259
8	0x3a2c4255	0.00065711635
9	0x3b597422	0.0033180793
10	0x3aad1e5c	0.00132079
11	0x3afe5929	0.0019405234
12	0x3b03c581	0.0020106735
13	0x3ab6c8b8	0.0013945317
14	0x39c302b4	0.00037195312
15	0x3abaa641	0.0014240221
16	0x3baa2d01	0.005193353
17	0x39fdffda	0.00048446545
18	0x3abd4bf1	0.0014442188
19	0x3a8b6120	0.0010633804
20	0x3974d883	0.0002335031
21	0x3a43b8ec	0.0007466215
22	0x3b189feb	0.0023288678
23	0x3a6eb118	0.00091053685
24	0x3b9ae744	0.004727276
25	0x3b51ab60	0.0031993017
26	0x3b73aa63	0.0037180416
27	0x3b75b0e6	0.0037489473
28	0x3b89c5cc	0.0042044874
29	0x3b2bc634	0.0026210668
30	0x3a2052a7	0.0006115832
31	0x3a532941	0.00080551585
32	0x3c6b7eda	0.0143735055
33	0x3b957bc5	0.0045618736
34	0x3a003729	0.0004891032
35	0x3a21b5c1	0.0006168746
36	0x3b5a3c2a	0.003330002
37	0x32a89cf3	1.9629146e-08
38	0x3aad351e	0.0013214683
39	0x3a73ba2b	0.00092974555
40	0x36406b96	2.8672853e-06
41	0x33429903	4.5308308e-08
42	0x39ebf52a	0.00045005354
43	0x3ace5bba	0.0015743889
44	0x3ab5d6a1	0.0013873169
45	0x3a1f2903	0.000607148
46	0x3b08e737	0.0020889768
47	0x3458a237	2.0175581e-07
48	0x3a7bbaea	0.00096027425
49	0x3b393807	0.0028262155
50	0x3a83fe98	0.0010070382
51	0x36c07c88	5.7365432e-06
52	0x3b19e1be	0.00234805
53	0x3afe415d	0.0019398142
54	0x3a008426	0.0004902504
55	0x39024933	0.00012425035
56	0x39a9a439	0.00032356547
57	0x3b3a4cb5	0.0028427069
58	0x3a067457	0.00051290303
59	0x3aaec459	0.0013333663
60	0x3ab8ee0c	0.001410903
61	0x39f1b05a	0.00046098494
62	0x3b0ba341	0.0021307024
63	0x39174ea5	0.0001442978
64	0x3a4bd381	0.0007775352
65	0x3acc90ba	0.0015607097
66	0x3989fdd7	0.00026319802
67	0x3957edfe	0.00020592657
68	0x3bac59e5	0.0052597397
69	0x3b3e53ce	0.002904165
70	0x3af3e6e1	0.0018608236
71	0x3bfb1e09	0.0076634926
72	0x3bcf3a02	0.0063240537
73	0x3b6ff47a	0.0036614225
74	0x3a907df5	0.0011023866
75	0x39eb931e	0.00044932304
76	0x3ae04adb	0.0017112152
77	0x3686d560	4.0183513e-06
78	0x3aaf8ccb	0.00133934
79	0x3aaf026a	0.001335216
80	0x36adcf25	5.1799166e-06
81	0x3a3b2735	0.0007139326
82	0x3bdaebd1	0.0066809435
83	0x3add2679	0.0016872428
84	0x32760d0a	1.4322049e-08
85	0x33561739	4.984688e-08
86	0x3af68362	0.0018807466
87	0x3b610e08	0.0034340639
88	0x3ba7d152	0.0051213885
89	0x3b1b3029	0.0023679829
90	0x39ba9302	0.00035586214
91	0x3a60f628	0.0008581602
92	0x3aa2b56c	0.0012413687
93	0x37457d3a	1.1771272e-05
94	0x3a508536	0.000795442
95	0x3b226d90	0.0024784543
96	0x3a9081ae	0.0011024976
97	0x3b8ba687	0.004261795
98	0x3b376711	0.0027985016
99	0x3b2a4ad9	0.0025984554
100	0x354d9a28	7.659278e-07
101	0x3afceea8	0.0019297199
102	0x3b23ff30	0.002502393
103	0x3aa83607	0.0012833484
104	0x3b38af70	0.002818074
105	0x3b3cf09d	0.002882994
106	0x3aa242a4	0.001237948
107	0x3acb4f56	0.0015511315
108	0x3b09bd6c	0.0021017445
109	0x39e45f7b	0.00043558687
110	0x3a5cb4a0	0.0008419249
111	0x3b131f7f	0.0022449193
112	0x39e6a46a	0.00043991517
113	0x3ab10005	0.0013504034
114	0x3b0be2ee	0.0021344977
115	0x372e1eba	1.0378362e-05
116	0x3a3cd3e1	0.0007203203
117	0x3a7dfc9f	0.00096888276
118	0x387426a3	5.8210117e-05
119	0x37c40f8f	2.3372266e-05
120	0x33e309b1	1.0572274e-07
121	0x3a80cc06	0.0009826429
122	0x3a94a309	0.0011340092
123	0x3ae21343	0.0017248172
124	0x3a1c0044	0.00059509673
125	0x3a47ce38	0.00076219765
126	0x3a7c8593	0.0009632941
127	0x370f43d6	8.5392585e-06
128	0x3afb00f6	0.0019150067
129	0x3a492f47	0.00076745864
130	0x3c2c4c1c	0.010516193
131	0x3a47b99a	0.00076189043
132	0x37e25606	2.6981357e-05
133	0x3adfafd0	0.0017065946
134	0x3b065815	0.0020499278
135	0x3bfcca33	0.0077145337
136	0x3b22a58f	0.002481792
137	0x3b1bdf49	0.0023784211
138	0x3be7891f	0.0070659067
139	0x3adc2366	0.0016795218
140	0x3a40393e	0.00073327485
141	0x3b933b13	0.004493126
142	0x358ca467	1.047866e-06
143	0x3b49a8d4	0.0030770795
144	0x382c4e00	4.108064e-05
145	0x372b3bc5	1.020631e-05
146	0x39de31fc	0.0004238038
147	0x3a624fbf	0.0008633099
148	0x3ab69268	0.001392913
149	0x3b2e1791	0.002656434
150	0x3b7316a9	0.0037092364
151	0x3a267edf	0.0006351303
152	0x39becae2	0.00036390783
153	0x3abf9f46	0.0014619611
154	0x32e6bee2	2.6862327e-08
155	0x3a8416fa	0.0010077648
156	0x3b05b53b	0.0020402211
157	0x3ab52ab5	0.0013821932
158	0x3a9f04f9	0.0012132219
159	0x3434c47e	1.683529e-07
160	0x3a880ac2	0.0010379183
161	0x3c28b407	0.010296828
162	0x3add25e0	0.001687225
163	0x3b0fb388	0.0021927077
164	0x3b0cde94	0.0021494972
165	0x35bc1b7b	1.4015089e-06
166	0x34d1358c	3.8968244e-07
167	0x3a95a8fc	0.0011418159
168	0x3ab84abc	0.0014060359
169	0x3b11ce91	0.0022248367
170	0x3ae2c761	0.0017301851
171	0x3ab4f494	0.00138058
172	0x3a99d7e8	0.0011737319
173	0x3a85e7cd	0.0010216177
174	0x3b98d5b8	0.004664149
175	0x3a99a284	0.0011721407
176	0x3aefa1e2	0.0018282498
177	0x3999e56e	0.00029353373
178	0x3b0bb702	0.0021318798
179	0x3ab5fc82	0.0013884457
180	0x3b0f048b	0.0021822776
181	0x3a813632	0.000985807
182	0x3ae4ef5c	0.0017466354
183	0x3a9db963	0.0012033399
184	0x3a624d85	0.0008632767
185	0x398aee43	0.0002649893
186	0x3b2cd556	0.0026372275
187	0x32d1fea6	2.4446603e-08
188	0x3838fcc4	4.4104425e-05
189	0x3af078f1	0.001834659
190	0x3a977238	0.0011554426
191	0x39661f5c	0.00021946192
192	0x3a38c5d2	0.00070485205
193	0x3a82a4f9	0.0009967379
194	0x3b3063cd	0.0026914955
195	0x3a6b4361	0.0008974579
196	0x3b44551e	0.002995796
197	0x3a84f278	0.0010143062
198	0x38e108e4	0.00010730492
199	0x3b2e2b9a	0.0026576282
200	0x3a579fb6	0.0008225398
201	0x3b98038c	0.0046390947
202	0x3ab22bf1	0.0013593418
203	0x3b35e84f	0.0027756875
204	0x3aa9490b	0.0012915445
205	0x3b146d21	0.0022648054
206	0x3a725581	0.00092443085
207	0x3adbeaab	0.001677831
208	0x3acfc812	0.0015852472
209	0x342ea70b	1.6265783e-07
210	0x3a7a9aec	0.00095598283
211	0x3a0c01d2	0.00053408474
212	0x3ac5b7d0	0.0015084688
213	0x3a9a4c66	0.0011772036
214	0x3aa80f4a	0.0012821939
215	0x3b922348	0.0044597723
216	0x3ae1c725	0.0017225487
217	0x380341db	3.1294167e-05
218	0x3a45292f	0.00075210904
219	0x3b058a8a	0.0020376765
220	0x3ac13f30	0.0014743563
221	0x3b45fb21	0.00302095
222	0x3a6c1267	0.0009005428
223	0x3a9613fc	0.0011450048
224	0x3a8c1c6a	0.001068962
225	0x3b029fc5	0.0019931656
226	0x3b78f09d	0.0037985214
227	0x3b61be07	0.003444554
228	0x3a2769dd	0.00063863193
229	0x3a52eaf1	0.0008045873
230	0x3ab3cd46	0.0013717792
231	0x3b3e8d83	0.0029076047
232	0x3b512cbd	0.0031917535
233	0x3b008f67	0.0019616724
234	0x3b0d9d8c	0.0021608798
235	0x3ababcea	0.0014246975
236	0x3b4e6247	0.0031491683
237	0x3bfa9ad7	0.007647853
238	0x3a86a6b7	0.0010273074
239	0x3a438826	0.00074589474
240	0x3abdfbe7	0.0014494628
241	0x3b3861d6	0.0028134487
242	0x35124ff4	5.4505585e-07
243	0x3a808381	0.0009804816
244	0x36897cb9	4.097438e-06
245	0x3af64b63	0.0018790778
246	0x370884f7	8.13719e-06
247	0x3b2b94d9	0.002618125
248	0x3b9e2d5c	0.0048271846
249	0x3a829f9d	0.0009965781
250	0x3a7cffa0	0.0009651128
251	0x3b06fc7c	0.002059727
252	0x3b7d2d02	0.0038631563
253	0x3ac09a98	0.001469451
254	0x3af86e09	0.0018953691
255	0x3a19c908	0.0005866443

ConvBnFusion_W_resnetv17_stage1_conv0_weight_quantized i1 [64, 64, 1, 1]
0	0x42	66
1	0x6e	110
2	0x46	70
3	0x75	117
4	0x73	115
5	0x69	105
6	0x6f	111
7	0x6e	110
8	0x5f	95
9	0x57	87
10	0x5f	95
11	0x72	114
12	0x65	101
13	0x73	115
14	0x6e	110
15	0x65	101
16	0x74	116
17	0x76	118
18	0x31	49
19	0x37	55
20	0x5f	95
21	0x73	115
22	0x74	116
23	0x61	97
24	0x67	103
25	0x65	101
26	0x33	51
27	0x5f	95
28	0x63	99
29	0x6f	111
30	0x6e	110
31	0x76	118
32	0x31	49
33	0x32	50
34	0x5f	95
35	0x77	119
36	0x65	101
37	0x69	105
38	0x67	103
39	0x68	104
40	0x74	116
41	0x5f	95
42	0x7a	122
43	0x65	101
44	0x72	114
45	0x6f	111
46	0x5f	95
47	0x70	112
48	0x6f	111
49	0x69	105
50	0x6e	110
51	0x74	116
52	0x0a	10
53	0x26	38
54	0x72	114
55	0x65	101
56	0x73	115
57	0x6e	110
58	0x65	101
59	0x74	116
60	0x76	118
61	0x31	49
62	0x37	55
63	0x5f	95
64	0x73	115
65	0x74	116
66	0x61	97
67	0x67	103
68	0x65	101
69	0x33	51
70	0x5f	95
71	0x62	98
72	0x61	97
73	0x74	116
74	0x63	99
75	0x68	104
76	0x6e	110
77	0x6f	111
78	0x72	114
79	0x6d	109
80	0x31	49
81	0x32	50
82	0x5f	95
83	0x66	102
84	0x77	119
85	0x64	100
86	0x5f	95
87	0x73	115
88	0x63	99
89	0x61	97
90	0x6c	108
91	0x65	101
92	0x0a	10
93	0x2b	43
94	0x72	114
95	0x65	101
96	0x73	115
97	0x6e	110
98	0x65	101
99	0x74	116
100	0x76	118
101	0x31	49
102	0x37	55
103	0x5f	95
104	0x73	115
105	0x74	116
106	0x61	97
107	0x67	103
108	0x65	101
109	0x33	51
110	0x5f	95
111	0x62	98
112	0x61	97
113	0x74	116
114	0x63	99
115	0x68	104
116	0x6e	110
117	0x6f	111
118	0x72	114
119	0x6d	109
120	0x31	49
121	0x32	50
122	0x5f	95
123	0x66	102
124	0x77	119
125	0x64	100
126	0x5f	95
127	0x7a	122
128	0x65	101
129	0x72	114
130	0x6f	111
131	0x5f	95
132	0x70	112
133	0x6f	111
134	0x69	105
135	0x6e	110
136	0x74	116
137	0x0a	10
138	0x3d	61
139	0x43	67
140	0x6f	111
141	0x6e	110
142	0x76	118
143	0x42	66
144	0x6e	110
145	0x46	70
146	0x75	117
147	0x73	115
148	0x69	105
149	0x6f	111
150	0x6e	110
151	0x5f	95
152	0x42	66
153	0x4e	78
154	0x5f	95
155	0x42	66
156	0x5f	95
157	0x72	114
158	0x65	101
159	0x73	115
160	0x6e	110
161	0x65	101
162	0x74	116
163	0x76	118
164	0x31	49
165	0x37	55
166	0x5f	95
167	0x73	115
168	0x74	116
169	0x61	97
170	0x67	103
171	0x65	101
172	0x33	51
173	0x5f	95
174	0x62	98
175	0x61	97
176	0x74	116
177	0x63	99
178	0x68	104
179	0x6e	110
180	0x6f	111
181	0x72	114
182	0x6d	109
183	0x31	49
184	0x32	50
185	0x5f	95
186	0x62	98
187	0x65	101
188	0x74	116
189	0x61	97
190	0x5f	95
191	0x71	113
192	0x75	117
193	0x61	97
194	0x6e	110
195	0x74	116
196	0x69	105
197	0x7a	122
198	0x65	101
199	0x64	100
200	0x12	18
201	0x2a	42
202	0x72	114
203	0x65	101
204	0x73	115
205	0x6e	110
206	0x65	101
207	0x74	116
208	0x76	118
209	0x31	49
210	0x37	55
211	0x5f	95
212	0x73	115
213	0x74	116
214	0x61	97
215	0x67	103
216	0x65	101
217	0x33	51
218	0x5f	95
219	0x62	98
220	0x61	97
221	0x74	116
222	0x63	99
223	0x68	104
224	0x6e	110
225	0x6f	111
226	0x72	114
227	0x6d	109
228	0x31	49
229	0x32	50
230	0x5f	95
231	0x66	102
232	0x77	119
233	0x64	100
234	0x5f	95
235	0x71	113
236	0x75	117
237	0x61	97
238	0x6e	110
239	0x74	116
240	0x69	105
241	0x7a	122
242	0x65	101
243	0x64	100
244	0x1a	26
245	0x21	33
246	0x72	114
247	0x65	101
248	0x73	115
249	0x6e	110
250	0x65	101
251	0x74	116
252	0x76	118
253	0x31	49
254	0x37	55
255	0x5f	95

ConvBnFusion_W_resnetv17_stage1_conv0_weight_scale f4 [64]
0	0x3a96866a	0.001148415
1	0x3b5e3b9c	0.0033910042
2	0x3ab9dc96	0.001418012
3	0x321e86f5	9.227496e-09
4	0x3aac87c8	0.0013163025
5	0x3b2895e8	0.0025724117
6	0x3afab42e	0.0019127184
7	0x3aa93899	0.0012910544
8	0x3a999cc9	0.0011719699
9	0x3ad7b239	0.0016456313
10	0x336190db	5.251864e-08
11	0x3b94d9fe	0.0045425883
12	0x3b16ff3a	0.002304031
13	0x3bafefc6	0.0053691594
14	0x3b3c0bde	0.0028693597
15	0x3ba2e0e1	0.0049706553
16	0x3b8d81a4	0.004318433
17	0x3b92ef51	0.004484095
18	0x3b1c784a	0.0023875409
19	0x3b9e8041	0.0048370664
20	0x3b390f47	0.0028237866
21	0x3b4ff689	0.003173264
22	0x3ac0080f	0.0014650839
23	0x339fbd4c	7.4384474e-08
24	0x3b026b27	0.0019900294
25	0x3a740150	0.0009308057
26	0x3b428ba6	0.0029685288
27	0x3b0fdafa	0.0021950589
28	0x3bc4dbc3	0.006007643
29	0x3acadcf8	0.0015477231
30	0x3b2fcbe7	0.0026824416
31	0x3b7c566e	0.0038503665
32	0x3aab6f88	0.0013079504
33	0x3a8553ef	0.0010172109
34	0x3aaad881	0.0013034494
35	0x3aade62f	0.0013267453
36	0x3b0da854	0.0021615224
37	0x3b857fb3	0.004074061
38	0x3a985b50	0.0011623893
39	0x3b395bcd	0.0028283477
40	0x3b291ec1	0.0025805684
41	0x3b7cd411	0.003857855
42	0x3ab06a2f	0.001345938
43	0x339d0a65	7.312773e-08
44	0x3a470615	0.0007592154
45	0x3b031f51	0.002000768
46	0x3b8ed5c3	0.0043589785
47	0x3b0ac654	0.0021175342
48	0x3aa49d9e	0.0012559181
49	0x3afa88a7	0.0019114212
50	0x3a98d694	0.0011660629
51	0x3a9c16bb	0.001190863
52	0x3b92944c	0.004473245
53	0x3aa2754e	0.0012394579
54	0x3a199bdb	0.0005859711
55	0x3b8a7042	0.004224808
56	0x33d6d8ae	1.0004565e-07
57	0x3b02e750	0.0019974299
58	0x3b0ea9a5	0.0021768596
59	0x3a7ee4f9	0.00097234506
60	0x3af61502	0.0018774571
61	0x3b569a68	0.0032745842
62	0x338c37a8	6.529382e-08
63	0x3b465173	0.003026095

ConvBnFusion_W_resnetv17_stage1_conv1_weight_quantized i1 [64, 64, 3, 3]
0	0x65	101
1	0x33	51
2	0x5f	95
3	0x62	98
4	0x61	97
5	0x74	116
6	0x63	99
7	0x68	104
8	0x6e	110
9	0x6f	111
10	0x72	114
11	0x6d	109
12	0x31	49
13	0x37	55
14	0x5f	95
15	0x62	98
16	0x65	101
17	0x74	116
18	0x61	97
19	0x5f	95
20	0x71	113
21	0x75	117
22	0x61	97
23	0x6e	110
24	0x74	116
25	0x69	105
26	0x7a	122
27	0x65	101
28	0x64	100
29	0x12	18
30	0x25	37
31	0x72	114
32	0x65	101
33	0x73	115
34	0x6e	110
35	0x65	101
36	0x74	116
37	0x76	118
38	0x31	49
39	0x37	55
40	0x5f	95
41	0x73	115
42	0x74	116
43	0x61	97
44	0x67	103
45	0x65	101
46	0x33	51
47	0x5f	95
48	0x72	114
49	0x65	101
50	0x6c	108
51	0x75	117
52	0x31	49
53	0x31	49
54	0x5f	95
55	0x66	102
56	0x77	119
57	0x64	100
58	0x5f	95
59	0x71	113
60	0x75	117
61	0x61	97
62	0x6e	110
63	0x74	116
64	0x69	105
65	0x7a	122
66	0x65	101
67	0x64	100
68	0x1a	26
69	0x27	39
70	0x66	102
71	0x75	117
72	0x73	115
73	0x65	101
74	0x64	100
75	0x20	32
76	0x72	114
77	0x65	101
78	0x73	115
79	0x6e	110
80	0x65	101
81	0x74	116
82	0x76	118
83	0x31	49
84	0x37	55
85	0x5f	95
86	0x73	115
87	0x74	116
88	0x61	97
89	0x67	103
90	0x65	101
91	0x33	51
92	0x5f	95
93	0x63	99
94	0x6f	111
95	0x6e	110
96	0x76	118
97	0x31	49
98	0x37	55
99	0x5f	95
100	0x66	102
101	0x77	119
102	0x64	100
103	0x5f	95
104	0x71	113
105	0x75	117
106	0x61	97
107	0x6e	110
108	0x74	116
109	0x22	34
110	0x0b	11
111	0x51	81
112	0x4c	76
113	0x69	105
114	0x6e	110
115	0x65	101
116	0x61	97
117	0x72	114
118	0x43	67
119	0x6f	111
120	0x6e	110
121	0x76	118
122	0x2a	42
123	0x15	21
124	0x0a	10
125	0x08	8
126	0x61	97
127	0x75	117
128	0x74	116
129	0x6f	111
130	0x5f	95
131	0x70	112
132	0x61	97
133	0x64	100
134	0x22	34
135	0x06	6
136	0x4e	78
137	0x4f	79
138	0x54	84
139	0x53	83
140	0x45	69
141	0x54	84
142	0xa0	-96
143	0x01	1
144	0x03	3
145	0x2a	42
146	0x12	18
147	0x0a	10
148	0x09	9
149	0x64	100
150	0x69	105
151	0x6c	108
152	0x61	97
153	0x74	116
154	0x69	105
155	0x6f	111
156	0x6e	110
157	0x73	115
158	0x40	64
159	0x01	1
160	0x40	64
161	0x01	1
162	0xa0	-96
163	0x01	1
164	0x07	7
165	0x2a	42
166	0x0c	12
167	0x0a	10
168	0x05	5
169	0x67	103
170	0x72	114
171	0x6f	111
172	0x75	117
173	0x70	112
174	0x18	24
175	0x01	1
176	0xa0	-96
177	0x01	1
178	0x02	2
179	0x2a	42
180	0x15	21
181	0x0a	10
182	0x0c	12
183	0x6b	107
184	0x65	101
185	0x72	114
186	0x6e	110
187	0x65	101
188	0x6c	108
189	0x5f	95
190	0x73	115
191	0x68	104
192	0x61	97
193	0x70	112
194	0x65	101
195	0x40	64
196	0x03	3
197	0x40	64
198	0x03	3
199	0xa0	-96
200	0x01	1
201	0x07	7
202	0x2a	42
203	0x11	17
204	0x0a	10
205	0x04	4
206	0x70	112
207	0x61	97
208	0x64	100
209	0x73	115
210	0x40	64
211	0x01	1
212	0x40	64
213	0x01	1
214	0x40	64
215	0x01	1
216	0x40	64
217	0x01	1
218	0xa0	-96
219	0x01	1
220	0x07	7
221	0x2a	42
222	0x10	16
223	0x0a	10
224	0x07	7
225	0x73	115
226	0x74	116
227	0x72	114
228	0x69	105
229	0x64	100
230	0x65	101
231	0x73	115
232	0x40	64
233	0x01	1
234	0x40	64
235	0x01	1
236	0xa0	-96
237	0x01	1
238	0x07	7
239	0x0a	10
240	0xff	-1
241	0x04	4
242	0x0a	10
243	0x25	37
244	0x72	114
245	0x65	101
246	0x73	115
247	0x6e	110
248	0x65	101
249	0x74	116
250	0x76	118
251	0x31	49
252	0x37	55
253	0x5f	95
254	0x73	115
255	0x74	116

ConvBnFusion_W_resnetv17_stage1_conv1_weight_scale f4 [64]
0	0x3aac73f3	0.0013157114
1	0x3ad3ab9c	0.0016149166
2	0x3b46a271	0.0030309225
3	0x3a4ad6ec	0.00077377143
4	0x3b7a43ef	0.0038187464
5	0x3ae15635	0.0017191829
6	0x3b45a5e6	0.0030158698
7	0x3b196b0b	0.002340975
8	0x3b2293e3	0.0024807386
9	0x3b2d94d1	0.0026486407
10	0x3b1ca79d	0.0023903616
11	0x3a876437	0.0010329549
12	0x3b0cd01b	0.0021486345
13	0x3a70a378	0.0009179632
14	0x3a3f2e56	0.00072929764
15	0x3b0d0124	0.0021515572
16	0x3b1b22ae	0.0023671794
17	0x3a673091	0.00088191876
18	0x3b4b2986	0.0031000092
19	0x3a5a1e4f	0.00083205564
20	0x3b1c3db6	0.0023840494
21	0x3aaae9ba	0.0013039627
22	0x3b871895	0.0041228035
23	0x3b25ed09	0.0025318286
24	0x3ab5f457	0.0013882023
25	0x3a9206c6	0.0011140935
26	0x3b3a9a59	0.0028473346
27	0x3ab1c558	0.0013562841
28	0x3a51907d	0.0007994248
29	0x3ac57c9c	0.0015067044
30	0x3a9c10a4	0.0011906815
31	0x3aa3d117	0.0012498227
32	0x3b43541d	0.0029804774
33	0x3a940ea1	0.0011295864
34	0x3b2edc53	0.0026681616
35	0x3a7ea6d2	0.0009714189
36	0x3aa56c70	0.0012620818
37	0x3aef25fa	0.0018245571
38	0x3b08f2c5	0.0020896655
39	0x3a6ee8fa	0.00091136957
40	0x3b375d88	0.0027979333
41	0x3a363324	0.00069503696
42	0x3b1bdecc	0.002378392
43	0x3aa9db04	0.0012958949
44	0x3af183d1	0.0018426125
45	0x3a47bc2e	0.00076192885
46	0x3a5d3f04	0.0008439871
47	0x3b19f0f6	0.0023489571
48	0x3afb62b9	0.0019179202
49	0x3abe5228	0.0014520334
50	0x3aca650f	0.0015441495
51	0x3b809853	0.0039244085
52	0x3b9744dd	0.0046163634
53	0x3b4d779e	0.0031351815
54	0x3a324eca	0.00068019016
55	0x3b1ebd7a	0.0024221824
56	0x3afd06fe	0.0019304452
57	0x3b8ab6c7	0.0042332145
58	0x3a7d6583	0.00096663105
59	0x3b1e8770	0.0024189614
60	0x3a9825fc	0.0011608
61	0x331a313f	3.5900708e-08
62	0x3a49b94a	0.0007695152
63	0x3a71c146	0.00092222204

ConvBnFusion_W_resnetv17_stage1_conv2_weight_quantized i1 [256, 64, 1, 1]
0	0x00	0
1	0x00	0
2	0xc7	-57
3	0x4b	75
4	0x00	0
5	0x00	0
6	0x5f	95
7	0x49	73
8	0x00	0
9	0x00	0
10	0xc6	-58
11	0x46	70
12	0x00	0
13	0x00	0
14	0x4a	74
15	0x01	1
16	0x00	0
17	0x00	0
18	0x74	116
19	0xb4	-76
20	0xff	-1
21	0xff	-1
22	0xff	-1
23	0x33	51
24	0x00	0
25	0x00	0
26	0x9e	-98
27	0x31	49
28	0x00	0
29	0x00	0
30	0x22	34
31	0x1a	26
32	0x00	0
33	0x00	0
34	0x7d	125
35	0xfe	-2
36	0xff	-1
37	0xff	-1
38	0xbf	-65
39	0x06	6
40	0x00	0
41	0x00	0
42	0x1f	31
43	0x6b	107
44	0x00	0
45	0x00	0
46	0xe5	-27
47	0x6c	108
48	0x00	0
49	0x00	0
50	0xab	-85
51	0xc8	-56
52	0x00	0
53	0x00	0
54	0xac	-84
55	0xc2	-62
56	0xff	-1
57	0xff	-1
58	0xe6	-26
59	0x63	99
60	0x00	0
61	0x00	0
62	0x12	18
63	0xc7	-57
64	0xff	-1
65	0xff	-1
66	0x56	86
67	0xe2	-30
68	0xff	-1
69	0xff	-1
70	0x72	114
71	0x00	0
72	0x00	0
73	0x00	0
74	0x7c	124
75	0x73	115
76	0x00	0
77	0x00	0
78	0xd4	-44
79	0x1c	28
80	0x00	0
81	0x00	0
82	0x02	2
83	0x44	68
84	0x00	0
85	0x00	0
86	0x8a	-118
87	0x04	4
88	0x00	0
89	0x00	0
90	0xb4	-76
91	0x09	9
92	0x00	0
93	0x00	0
94	0xa7	-89
95	0x32	50
96	0x00	0
97	0x00	0
98	0x13	19
99	0x89	-119
100	0x00	0
101	0x00	0
102	0x44	68
103	0xda	-38
104	0xff	-1
105	0xff	-1
106	0x51	81
107	0xff	-1
108	0xff	-1
109	0xff	-1
110	0x7a	122
111	0x9d	-99
112	0xff	-1
113	0xff	-1
114	0xc7	-57
115	0x3d	61
116	0x00	0
117	0x00	0
118	0x41	65
119	0x06	6
120	0x00	0
121	0x00	0
122	0xd1	-47
123	0xe9	-23
124	0xff	-1
125	0xff	-1
126	0x6e	110
127	0xd9	-39
128	0xff	-1
129	0xff	-1
130	0x48	72
131	0x49	73
132	0x00	0
133	0x00	0
134	0x1b	27
135	0x6b	107
136	0x00	0
137	0x00	0
138	0xdd	-35
139	0x1f	31
140	0x00	0
141	0x00	0
142	0xa6	-90
143	0x7e	126
144	0x00	0
145	0x00	0
146	0x82	-126
147	0x36	54
148	0x00	0
149	0x00	0
150	0x12	18
151	0x4c	76
152	0x00	0
153	0x00	0
154	0x26	38
155	0x63	99
156	0x00	0
157	0x00	0
158	0x5d	93
159	0x02	2
160	0x00	0
161	0x00	0
162	0xe9	-23
163	0xb8	-72
164	0xff	-1
165	0xff	-1
166	0x7e	126
167	0xe8	-24
168	0xff	-1
169	0xff	-1
170	0x52	82
171	0x38	56
172	0x00	0
173	0x00	0
174	0x48	72
175	0x10	16
176	0x00	0
177	0x00	0
178	0xcd	-51
179	0xe9	-23
180	0xff	-1
181	0xff	-1
182	0xa5	-91
183	0xd7	-41
184	0xff	-1
185	0xff	-1
186	0xf6	-10
187	0x6a	106
188	0xff	-1
189	0xff	-1
190	0x43	67
191	0xbd	-67
192	0xff	-1
193	0xff	-1
194	0xee	-18
195	0xf0	-16
196	0xff	-1
197	0xff	-1
198	0xb6	-74
199	0xd4	-44
200	0x00	0
201	0x00	0
202	0x21	33
203	0x19	25
204	0x00	0
205	0x00	0
206	0xc3	-61
207	0x6f	111
208	0x00	0
209	0x00	0
210	0x55	85
211	0x5e	94
212	0xff	-1
213	0xff	-1
214	0x28	40
215	0xe2	-30
216	0xff	-1
217	0xff	-1
218	0x9e	-98
219	0xd6	-42
220	0xff	-1
221	0xff	-1
222	0x9f	-97
223	0xa2	-94
224	0x00	0
225	0x00	0
226	0xde	-34
227	0xd9	-39
228	0xff	-1
229	0xff	-1
230	0x59	89
231	0xeb	-21
232	0xff	-1
233	0xff	-1
234	0x4b	75
235	0x42	66
236	0xff	-1
237	0xff	-1
238	0x98	-104
239	0x5e	94
240	0x00	0
241	0x00	0
242	0xe8	-24
243	0x0c	12
244	0x00	0
245	0x00	0
246	0x71	113
247	0x1b	27
248	0x00	0
249	0x00	0
250	0x2a	42
251	0x2c	44
252	0x10	16
253	0x02	2
254	0x2a	42
255	0x01	1

ConvBnFusion_W_resnetv17_stage1_conv2_weight_scale f4 [256]
0	0x3ae4bf4b	0.0017452029
1	0x3c0dfd49	0.008666345
2	0x3b92579d	0.0044660107
3	0x346eaf46	2.2229241e-07
4	0x3a7b461c	0.0009585337
5	0x3b153d90	0.002277229
6	0x3b2d30bf	0.002642676
7	0x3b3eb6a4	0.0029100562
8	0x3988b57a	0.00026075152
9	0x3c4796da	0.012181962
10	0x3ab62676	0.001389696
11	0x3b6f8510	0.0036547817
12	0x38cb2301	9.686314e-05
13	0x3aa1df7b	0.0012349928
14	0x3b26200e	0.0025348696
15	0x3b75b1bc	0.003748997
16	0x39087346	0.00013012913
17	0x3b31f7a2	0.0027155657
18	0x3b158e1d	0.0022820302
19	0x3bf16ac1	0.0073674624
20	0x39ebfd53	0.00045011434
21	0x3aeb1314	0.0017934763
22	0x3a955f52	0.0011396206
23	0x3993cd37	0.00028190922
24	0x3c49875c	0.012300339
25	0x3af6ba47	0.0018823826
26	0x367e9da2	3.7940704e-06
27	0x389c8d09	7.4649295e-05
28	0x3a583802	0.0008248092
29	0x391148c9	0.00013855392
30	0x3a1144f2	0.00055415847
31	0x3a9b6d32	0.0011858104
32	0x3a4b501a	0.00077557715
33	0x386d2e98	5.6548597e-05
34	0x3ad1be7f	0.0016002207
35	0x3b7b4e93	0.0038346394
36	0x3a8a9d25	0.0010575397
37	0x34ee2ddd	4.4364324e-07
38	0x3b2ddf6f	0.0026530882
39	0x3ab22130	0.0013590213
40	0x33a0df97	7.491251e-08
41	0x3533a358	6.692039e-07
42	0x3ac7957a	0.0015227043
43	0x3b5f6b5b	0.0034091088
44	0x3c0c5404	0.008564953
45	0x3b9a0709	0.0047005457
46	0x3b69e741	0.0035690817
47	0x36a41af4	4.8907186e-06
48	0x3922274c	0.00015464163
49	0x3aa024a9	0.0012217957
50	0x3a70330b	0.00091628794
51	0x3700828c	7.65979e-06
52	0x3b32f3f1	0.0027306045
53	0x37a3ce7b	1.9527264e-05
54	0x3a9547f8	0.0011389246
55	0x39b6193e	0.00034732552
56	0x394f5485	0.00019772544
57	0x3b05b3e1	0.0020401406
58	0x3b13afc7	0.0022535191
59	0x3b36a502	0.0027869348
60	0x3b9d3b79	0.0047983495
61	0x3b10b35d	0.0022079565
62	0x38c78483	9.513742e-05
63	0x3b79e75a	0.003813228
64	0x3bc07928	0.005873818
65	0x3b11a2d8	0.0022222307
66	0x3b43e7e3	0.0029892854
67	0x3b38913a	0.0028162734
68	0x3a62ee8f	0.0008656764
69	0x3b4e6c69	0.0031497723
70	0x3b9ab221	0.0047209417
71	0x39cc5178	0.0003897061
72	0x3afa93c9	0.001911753
73	0x3afb7c75	0.0019186871
74	0x3af1848c	0.0018426343
75	0x390a70ac	0.00013202679
76	0x3b26a56d	0.0025428191
77	0x3771233b	1.4372922e-05
78	0x3acfa4da	0.0015841976
79	0x3b2a51ae	0.0025988626
80	0x37de5fb8	2.6509035e-05
81	0x3b4b090a	0.003098073
82	0x3b48b078	0.0030622762
83	0x3b164db0	0.002293449
84	0x3350bdf0	4.860152e-08
85	0x331dbdef	3.6727155e-08
86	0x3b0bf763	0.002135717
87	0x36050d81	1.9826405e-06
88	0x396df076	0.0002269166
89	0x3a84090b	0.0010073496
90	0x3aadac3c	0.0013250182
91	0x3b8e4626	0.0043418584
92	0x3b3c671b	0.002874798
93	0x38dcda29	0.00010531053
94	0x3ab4113a	0.0013738044
95	0x393c0eee	0.00017934639
96	0x3b6868a7	0.0035462768
97	0x3a714634	0.00092038815
98	0x3a74b090	0.0009334171
99	0x38c4ba43	9.380702e-05
100	0x395711a8	0.00020510575
101	0x3ac45274	0.0014978186
102	0x3b317222	0.0027076085
103	0x3b70daf0	0.003675159
104	0x3a66a1b3	0.0008797899
105	0x3b19a6eb	0.0023445438
106	0x3b8053c2	0.0039162347
107	0x3b2a6b8f	0.0026004051
108	0x3a7cd4ed	0.00096447655
109	0x3b8a186d	0.0042143376
110	0x39f48e7f	0.00046645475
111	0x3b2f06cf	0.002670694
112	0x3b49194e	0.0030685249
113	0x3b66c942	0.0035215174
114	0x3b049a27	0.0020233484
115	0x38801992	6.1082785e-05
116	0x3b2c0255	0.0026246507
117	0x3abd678e	0.0014450417
118	0x3b0ad94b	0.0021186646
119	0x382ea346	4.1636893e-05
120	0x34409364	1.7935014e-07
121	0x39d75a85	0.00041075438
122	0x3b510206	0.0031892075
123	0x3b130196	0.0022431365
124	0x3b465b9e	0.003026701
125	0x3c0ee980	0.008722663
126	0x3ad0870c	0.0015909388
127	0x3aa120e7	0.0012293131
128	0x3a0387cb	0.0005017488
129	0x3ab7e2b2	0.0014029352
130	0x3809d38b	3.286036e-05
131	0x3b501807	0.0031752603
132	0x3bc289ea	0.005936851
133	0x3aee8a51	0.001819918
134	0x3b0e54b5	0.002171797
135	0x38492323	4.7954858e-05
136	0x3a316465	0.0006766974
137	0x3ab7c486	0.001402036
138	0x39d9c3d7	0.00041535377
139	0x3a9cab55	0.0011952916
140	0x3b897fdf	0.0041961516
141	0x39eb22ff	0.00044848767
142	0x32962568	1.7479309e-08
143	0x3b5b5741	0.0033468755
144	0x39d17689	0.00039951902
145	0x3a1414c5	0.0005648847
146	0x382260c9	3.8713948e-05
147	0x3b6737ca	0.0035281056
148	0x3b3a3fe5	0.0028419432
149	0x3a5b669f	0.0008369479
150	0x39f0321a	0.00045813696
151	0x3afc43be	0.0019246263
152	0x3bdbdd94	0.006709764
153	0x391d68a6	0.00015011671
154	0x33a71ed7	7.782153e-08
155	0x3aa7d39a	0.0012804151
156	0x3b7a4f18	0.0038194116
157	0x3b54b7bc	0.0032458147
158	0x3b4baf24	0.0031079734
159	0x338bbc74	6.506971e-08
160	0x3b26de66	0.002546215
161	0x397c8cad	0.00024084999
162	0x3943783b	0.00018641439
163	0x3b6509db	0.0034948501
164	0x3ae0a741	0.0017139689
165	0x351c1a3f	5.815272e-07
166	0x36b7c51c	5.4767715e-06
167	0x3b52d32d	0.0032169328
168	0x3b01b6e3	0.0019792847
169	0x3a848978	0.001011177
170	0x3ae8fa07	0.0017774709
171	0x3b1caa5a	0.0023905248
172	0x3b31ca98	0.0027128812
173	0x3b243d98	0.0025061127
174	0x3a7e77d9	0.000970719
175	0x3b05cebf	0.002041742
176	0x39133dde	0.0001404206
177	0x3bb1bb84	0.005423965
178	0x3b800665	0.0039070123
179	0x3b336bc1	0.0027377459
180	0x39652a81	0.00021854976
181	0x3acac130	0.0015468951
182	0x3bbd1284	0.0057700295
183	0x3b5609c9	0.003265964
184	0x3a67d677	0.00088439084
185	0x3a0ce371	0.00053744676
186	0x3ada2c28	0.001664524
187	0x327fcc44	1.4889398e-08
188	0x36d75c8e	6.418274e-06
189	0x3ad9991e	0.0016601419
190	0x3ae689c7	0.0017588668
191	0x3b92be89	0.00447828
192	0x3aed0d14	0.0018085563
193	0x3bd08969	0.006364037
194	0x3ba11643	0.004915984
195	0x3be51c53	0.006991902
196	0x394b1606	0.00019367793
197	0x3a3e3322	0.0007255544
198	0x3af60b8e	0.0018771754
199	0x3b9ceeda	0.0047892155
200	0x37cfc879	2.4769675e-05
201	0x364f2d4c	3.087177e-06
202	0x3a4783fd	0.00076109153
203	0x3ae32fbb	0.001733295
204	0x3af40bff	0.0018619298
205	0x3b4836c5	0.0030550223
206	0x3b2cf7ce	0.002639282
207	0x3ac5e17b	0.0015097106
208	0x3b31ca68	0.00271287
209	0x35e9c56c	1.741731e-06
210	0x39f6d1e6	0.00047077163
211	0x3b7c066c	0.0038455976
212	0x3aeed7eb	0.0018222308
213	0x3b5a437e	0.0033304389
214	0x399c96ea	0.00029867078
215	0x386a0acc	5.5800003e-05
216	0x3b1360e7	0.0022488178
217	0x3af59611	0.001873674
218	0x3a0b323b	0.0005309914
219	0x3a10b154	0.0005519588
220	0x3b2ee96d	0.0026689426
221	0x3ad05ea2	0.0015897343
222	0x3a91c75a	0.0011122033
223	0x3a8e9ee9	0.0010881099
224	0x3a5a3043	0.00083232316
225	0x3b0cb260	0.0021468624
226	0x3b7681a8	0.0037613902
227	0x39d61199	0.00040830372
228	0x39e322ee	0.0004332284
229	0x3b8b9037	0.004259135
230	0x3b8518e6	0.004061806
231	0x3b20857e	0.002449363
232	0x3a008312	0.00049023435
233	0x3b9e04ba	0.004822341
234	0x3b307e69	0.0026930815
235	0x3a356ae7	0.0006920532
236	0x3ac30941	0.0014880077
237	0x3aed2de1	0.0018095338
238	0x3a31af48	0.0006778133
239	0x3b5c9f32	0.0033664224
240	0x3adb54d4	0.0016733655
241	0x3b0a43f4	0.0021097632
242	0x35024f8e	4.854454e-07
243	0x3b4215b4	0.0029614987
244	0x392a0d64	0.00016217452
245	0x3a58ec7e	0.0008274986
246	0x3a38cd4d	0.0007049635
247	0x39985613	0.0002905583
248	0x3893b037	7.042329e-05
249	0x3a90cd73	0.0011047557
250	0x3abe1ee8	0.001450506
251	0x3b06868d	0.0020526976
252	0x3b0f78fb	0.0021892178
253	0x3b07e5b0	0.002073627
254	0x3b25e7dd	0.0025315203
255	0x3b2ec9e0	0.002667062

ConvBnFusion_W_resnetv17_stage1_conv4_weight_quantized i1 [64, 256, 1, 1]
0	0x3a	58
1	0x02	2
2	0xea	-22
3	0x8b	-117
4	0x3a	58
5	0xc5	-59
6	0x92	-110
7	0xd8	-40
8	0x39	57
9	0x1e	30
10	0xb3	-77
11	0xd6	-42
12	0x39	57
13	0x6e	110
14	0xfc	-4
15	0x09	9
16	0x3a	58
17	0xc9	-55
18	0x2d	45
19	0xdd	-35
20	0x39	57
21	0x86	-122
22	0x59	89
23	0x60	96
24	0x3a	58
25	0x88	-120
26	0x3c	60
27	0x87	-121
28	0x3a	58
29	0x52	82
30	0x5c	92
31	0x0e	14
32	0x3a	58
33	0x29	41
34	0x36	54
35	0x9e	-98
36	0x39	57
37	0x8c	-116
38	0x19	25
39	0x73	115
40	0x3a	58
41	0x5f	95
42	0xa2	-94
43	0x18	24
44	0x3a	58
45	0x34	52
46	0x3a	58
47	0x1e	30
48	0x3a	58
49	0x82	-126
50	0x1e	30
51	0x7f	127
52	0x34	52
53	0x65	101
54	0x67	103
55	0x52	82
56	0x3a	58
57	0x53	83
58	0x96	-106
59	0x8a	-118
60	0x39	57
61	0x00	0
62	0x84	-124
63	0x3d	61
64	0x3a	58
65	0x35	53
66	0x65	101
67	0x39	57
68	0x3a	58
69	0x29	41
70	0x8b	-117
71	0x56	86
72	0x3a	58
73	0xe2	-30
74	0x2d	45
75	0x34	52
76	0x3a	58
77	0x24	36
78	0x8a	-118
79	0x01	1
80	0x3b	59
81	0x30	48
82	0x22	34
83	0x4d	77
84	0x3a	58
85	0x63	99
86	0xc4	-60
87	0x09	9
88	0x39	57
89	0xa2	-94
90	0x1d	29
91	0x75	117
92	0x39	57
93	0xd8	-40
94	0xb9	-71
95	0x2f	47
96	0x3a	58
97	0x78	120
98	0x55	85
99	0x39	57
100	0x3a	58
101	0x54	84
102	0xd7	-41
103	0x0f	15
104	0x3a	58
105	0xb9	-71
106	0x03	3
107	0xca	-54
108	0x3a	58
109	0xc6	-58
110	0x90	-112
111	0x1d	29
112	0x3a	58
113	0xe7	-25
114	0xcf	-49
115	0x6e	110
116	0x3a	58
117	0x4f	79
118	0xa9	-87
119	0xb3	-77
120	0x39	57
121	0xe5	-27
122	0x73	115
123	0xb9	-71
124	0x39	57
125	0x11	17
126	0x0f	15
127	0xc4	-60
128	0x39	57
129	0xac	-84
130	0xca	-54
131	0x8c	-116
132	0x3a	58
133	0xe7	-25
134	0xf9	-7
135	0xf3	-13
136	0x39	57
137	0xf7	-9
138	0x21	33
139	0x01	1
140	0x3a	58
141	0x33	51
142	0x9a	-102
143	0xa6	-90
144	0x3a	58
145	0x97	-105
146	0x12	18
147	0x91	-111
148	0x3a	58
149	0xed	-19
150	0x45	69
151	0xe4	-28
152	0x38	56
153	0xd2	-46
154	0xae	-82
155	0xd2	-46
156	0x39	57
157	0xfe	-2
158	0xbf	-65
159	0x17	23
160	0x3a	58
161	0xb7	-73
162	0x93	-109
163	0xdd	-35
164	0x3a	58
165	0x74	116
166	0x7e	126
167	0x8b	-117
168	0x3a	58
169	0xf1	-15
170	0x63	99
171	0x4b	75
172	0x3a	58
173	0x91	-111
174	0x1c	28
175	0x79	121
176	0x39	57
177	0x10	16
178	0xe6	-26
179	0x11	17
180	0x3a	58
181	0x4f	79
182	0xd8	-40
183	0xaa	-86
184	0x3a	58
185	0x69	105
186	0x62	98
187	0x5c	92
188	0x3a	58
189	0x4a	74
190	0x34	52
191	0x31	49
192	0x3a	58
193	0x3b	59
194	0xed	-19
195	0x0b	11
196	0x3a	58
197	0x9a	-102
198	0xa1	-95
199	0x0d	13
200	0x3a	58
201	0x09	9
202	0xf2	-14
203	0xc8	-56
204	0x3a	58
205	0x3a	58
206	0x60	96
207	0xc5	-59
208	0x3a	58
209	0xc8	-56
210	0x06	6
211	0xd1	-47
212	0x39	57
213	0x3d	61
214	0x91	-111
215	0x64	100
216	0x3a	58
217	0xe5	-27
218	0xfe	-2
219	0x8c	-116
220	0x3a	58
221	0x36	54
222	0x7f	127
223	0x62	98
224	0x3a	58
225	0x4a	74
226	0xa7	-89
227	0x5c	92
228	0x3a	58
229	0xde	-34
230	0x62	98
231	0x34	52
232	0x3a	58
233	0x11	17
234	0x93	-109
235	0xdd	-35
236	0x3a	58
237	0x7c	124
238	0x3d	61
239	0xa3	-93
240	0x3a	58
241	0x01	1
242	0x4b	75
243	0x68	104
244	0x3a	58
245	0xde	-34
246	0xb2	-78
247	0xb9	-71
248	0x39	57
249	0xe8	-24
250	0x0f	15
251	0xf4	-12
252	0x39	57
253	0x2d	45
254	0xc3	-61
255	0x2b	43

ConvBnFusion_W_resnetv17_stage1_conv4_weight_scale f4 [64]
0	0x3ad60bfb	0.0016330475
1	0x3a8285e6	0.0009958118
2	0x3ac57e2e	0.0015067512
3	0x3aa7c993	0.0012801163
4	0x3a8486b3	0.0010110944
5	0x3b281985	0.0025649976
6	0x3b63bb13	0.0034748956
7	0x3aeb7823	0.0017964881
8	0x3ae035b4	0.0017105849
9	0x3ad01a0e	0.0015876906
10	0x3abe859b	0.0014535667
11	0x3ac61068	0.0015111091
12	0x3abb9db9	0.0014313973
13	0x34de59a4	4.1415944e-07
14	0x3abbf0a2	0.0014338682
15	0x3aa394bc	0.0012480239
16	0x3b08a2d1	0.0020849
17	0x3b272bce	0.0025508287
18	0x3ae434cb	0.0017410753
19	0x3b0987ba	0.002098544
20	0x3a99496f	0.0011694859
21	0x3a87795f	0.0010335854
22	0x3224c04d	9.5897805e-09
23	0x3b14ee9c	0.002272523
24	0x3ab3c426	0.0013715073
25	0x340ac08e	1.2922303e-07
26	0x3acd3c74	0.0015658275
27	0x3b31ddb3	0.00271402
28	0x3b076c64	0.002066397
29	0x3aee7d36	0.0018195275
30	0x3ac29f50	0.0014848504
31	0x3b913620	0.004431501
32	0x3b68a9bf	0.0035501567
33	0x3af84b03	0.0018943254
34	0x3b20dfe1	0.0024547505
35	0x3ab0de6b	0.001349402
36	0x3a939ded	0.0011262276
37	0x3a8c6054	0.001070986
38	0x3b1403b8	0.0022585224
39	0x3ae82474	0.0017711059
40	0x3ad00ce5	0.0015872983
41	0x3a6da13b	0.0009064858
42	0x3b2c10d8	0.0026255157
43	0x3ad00e68	0.0015873434
44	0x3af33891	0.0018556287
45	0x3af5884a	0.0018732634
46	0x3aea30b1	0.0017867294
47	0x3ab98305	0.0014153427
48	0x3adb088f	0.0016710925
49	0x3b058afd	0.0020377033
50	0x3a39baab	0.00070850056
51	0x3a8b2bc6	0.0010617904
52	0x3ad464b9	0.0016204334
53	0x3a71e293	0.00092271826
54	0x3ac1d8f0	0.0014789384
55	0x3ae881ba	0.0017738857
56	0x3a79fe99	0.0009536534
57	0x3af07a2e	0.0018346959
58	0x3a8a1952	0.001053611
59	0x3b8b2cb1	0.004247271
60	0x3adae797	0.0016701099
61	0x3b30a2bb	0.0026952464
62	0x3aa6b794	0.0012719505
63	0x3b134ab3	0.0022474944

ConvBnFusion_W_resnetv17_stage1_conv5_weight_quantized i1 [64, 64, 3, 3]
0	0x1a	26
1	0x3a	58
2	0xfd	-3
3	0x60	96
4	0x9d	-99
5	0x3a	58
6	0x1f	31
7	0xc4	-60
8	0xc9	-55
9	0x3a	58
10	0xb9	-71
11	0x01	1
12	0x82	-126
13	0x3a	58
14	0x81	-127
15	0x19	25
16	0x41	65
17	0x3a	58
18	0x39	57
19	0xde	-34
20	0x99	-103
21	0x3a	58
22	0xe5	-27
23	0x1e	30
24	0x3e	62
25	0x3a	58
26	0xf7	-9
27	0xd8	-40
28	0x7f	127
29	0x3a	58
30	0xf8	-8
31	0x9a	-102
32	0xac	-84
33	0x3a	58
34	0x4a	74
35	0x28	40
36	0x87	-121
37	0x3a	58
38	0xd1	-47
39	0x39	57
40	0x50	80
41	0x3a	58
42	0xbe	-66
43	0x3e	62
44	0x87	-121
45	0x3a	58
46	0x12	18
47	0xb2	-78
48	0x17	23
49	0x3a	58
50	0xa5	-91
51	0x43	67
52	0x5f	95
53	0x3a	58
54	0x10	16
55	0xe1	-31
56	0x55	85
57	0x3a	58
58	0xfd	-3
59	0xcb	-53
60	0x05	5
61	0x3a	58
62	0x24	36
63	0x40	64
64	0x7a	122
65	0x3a	58
66	0x8c	-116
67	0x13	19
68	0x5c	92
69	0x3a	58
70	0x7f	127
71	0xc7	-57
72	0x0f	15
73	0x3a	58
74	0x1d	29
75	0x04	4
76	0x11	17
77	0x3a	58
78	0xce	-50
79	0x33	51
80	0xa2	-94
81	0x3a	58
82	0x5e	94
83	0x90	-112
84	0x41	65
85	0x3a	58
86	0x7f	127
87	0x7e	126
88	0x31	49
89	0x3a	58
90	0x62	98
91	0x75	117
92	0x69	105
93	0x3a	58
94	0xfb	-5
95	0xa0	-96
96	0x5f	95
97	0x3a	58
98	0x78	120
99	0xee	-18
100	0xa0	-96
101	0x3a	58
102	0x19	25
103	0xa2	-94
104	0x82	-126
105	0x3a	58
106	0xea	-22
107	0x38	56
108	0x68	104
109	0x3a	58
110	0x75	117
111	0x77	119
112	0x19	25
113	0x3a	58
114	0xd8	-40
115	0x76	118
116	0x4f	79
117	0x3a	58
118	0x35	53
119	0x7a	122
120	0x49	73
121	0x3a	58
122	0x60	96
123	0x72	114
124	0xd6	-42
125	0x3a	58
126	0xf5	-11
127	0xc5	-59
128	0x35	53
129	0x3a	58
130	0x92	-110
131	0xbc	-68
132	0x5c	92
133	0x3a	58
134	0x3f	63
135	0xbe	-66
136	0x5c	92
137	0x3a	58
138	0x6e	110
139	0x21	33
140	0x09	9
141	0x3a	58
142	0x07	7
143	0x09	9
144	0x4f	79
145	0x3a	58
146	0xa8	-88
147	0x80	-128
148	0x03	3
149	0x3a	58
150	0x24	36
151	0xdf	-33
152	0x54	84
153	0x3a	58
154	0xa3	-93
155	0x32	50
156	0x40	64
157	0x3a	58
158	0x07	7
159	0xd9	-39
160	0x0e	14
161	0x3a	58
162	0x88	-120
163	0xda	-38
164	0x89	-119
165	0x3a	58
166	0x44	68
167	0x40	64
168	0x83	-125
169	0x3a	58
170	0x26	38
171	0x81	-127
172	0x18	24
173	0x3a	58
174	0x24	36
175	0x73	115
176	0x37	55
177	0x3a	58
178	0xf1	-15
179	0xe0	-32
180	0x1d	29
181	0x3a	58
182	0x2a	42
183	0xbb	-69
184	0xca	-54
185	0x3a	58
186	0x77	119
187	0xf5	-11
188	0x37	55
189	0x3a	58
190	0x75	117
191	0xef	-17
192	0x2a	42
193	0x3a	58
194	0x6a	106
195	0x17	23
196	0x72	114
197	0x3a	58
198	0x2d	45
199	0x83	-125
200	0xe5	-27
201	0x39	57
202	0x29	41
203	0x5c	92
204	0x52	82
205	0x3a	58
206	0x7a	122
207	0x70	112
208	0x45	69
209	0x3a	58
210	0xef	-17
211	0x7a	122
212	0x0f	15
213	0x3a	58
214	0x43	67
215	0x4b	75
216	0x23	35
217	0x3a	58
218	0x29	41
219	0x0d	13
220	0xcb	-53
221	0x3a	58
222	0x7c	124
223	0x8a	-118
224	0x42	66
225	0x3a	58
226	0x42	66
227	0x32	50
228	0x43	67
229	0x6f	111
230	0x6e	110
231	0x76	118
232	0x42	66
233	0x6e	110
234	0x46	70
235	0x75	117
236	0x73	115
237	0x69	105
238	0x6f	111
239	0x6e	110
240	0x5f	95
241	0x57	87
242	0x5f	95
243	0x72	114
244	0x65	101
245	0x73	115
246	0x6e	110
247	0x65	101
248	0x74	116
249	0x76	118
250	0x31	49
251	0x37	55
252	0x5f	95
253	0x73	115
254	0x74	116
255	0x61	97

ConvBnFusion_W_resnetv17_stage1_conv5_weight_scale f4 [64]
0	0x3aea48e4	0.0017874506
1	0x3ae3e326	0.0017386421
2	0x3a8c68f6	0.0010712433
3	0x3ad74fea	0.0016427014
4	0x3af87778	0.0018956503
5	0x3a7615c9	0.00093874015
6	0x3b139e9d	0.002252496
7	0x3b3e4362	0.0029031863
8	0x3ab51261	0.0013814681
9	0x3adb2e6b	0.0016722208
10	0x3be3cda9	0.006952007
11	0x3aff6085	0.0019483721
12	0x3a95f736	0.0011441472
13	0x3a7ec565	0.0009718745
14	0x3b438820	0.0029835775
15	0x3af73e8f	0.0018863248
16	0x3b195fd9	0.0023403077
17	0x3a994cda	0.0011695877
18	0x3b1b3427	0.0023682208
19	0x3a77cd78	0.00094529195
20	0x3aaa3e60	0.001298856
21	0x3b4d93c9	0.0031368604
22	0x3b023602	0.0019868617
23	0x3ac1e160	0.0014791898
24	0x3afe5721	0.0019404629
25	0x3ac0aee3	0.0014700558
26	0x3b0c0831	0.0021367187
27	0x3b0f6074	0.002187756
28	0x3adfb7ee	0.0017068365
29	0x3a7ab5d6	0.0009563839
30	0x3ac0a847	0.0014698588
31	0x3a60b93f	0.00085725257
32	0x3a752077	0.0009350846
33	0x3b218c2f	0.0024650206
34	0x3bb34d13	0.0054718344
35	0x3b6b9ac1	0.0035950395
36	0x3a656e37	0.000875208
37	0x3ac2e98e	0.001487063
38	0x3abb7042	0.0014300423
39	0x3b2af0ad	0.0026083395
40	0x3b069936	0.0020538098
41	0x3aa915a1	0.0012900123
42	0x3acf65f4	0.0015823231
43	0x3b372620	0.0027946308
44	0x3a8a4e97	0.0010551986
45	0x3af96d98	0.0019029854
46	0x3af72481	0.0018855484
47	0x3aa360d2	0.0012464768
48	0x3a570808	0.0008202796
49	0x3a833a23	0.0010011833
50	0x3ac6d24b	0.0015168873
51	0x3b783a97	0.003787672
52	0x3b2ab1bf	0.0026045886
53	0x3a5a5b73	0.0008329667
54	0x3abec602	0.001455486
55	0x3a60397d	0.00085534883
56	0x3ac02b17	0.0014661279
57	0x3abcd0a8	0.0014405446
58	0x3b21181d	0.0024581023
59	0x3ad1f326	0.0016017898
60	0x3af6e5e3	0.0018836822
61	0x3abec1cb	0.0014553604
62	0x3ac5f457	0.0015102726
63	0x3abd1d17	0.0014428225

ConvBnFusion_W_resnetv17_stage1_conv6_weight_quantized i1 [256, 64, 1, 1]
0	0x3f	63
1	0x2c	44
2	0x19	25
3	0x3a	58
4	0x3f	63
5	0x0a	10
6	0x6f	111
7	0x3a	58
8	0x3a	58
9	0x55	85
10	0x4b	75
11	0x3a	58
12	0xd8	-40
13	0x09	9
14	0x48	72
15	0x3a	58
16	0x50	80
17	0x56	86
18	0xd2	-46
19	0x3a	58
20	0x2b	43
21	0xa8	-88
22	0xfc	-4
23	0x39	57
24	0x29	41
25	0xa3	-93
26	0x39	57
27	0x3a	58
28	0xd4	-44
29	0xa0	-96
30	0x88	-120
31	0x3a	58
32	0x0e	14
33	0xbd	-67
34	0x34	52
35	0x3a	58
36	0xbe	-66
37	0x51	81
38	0x14	20
39	0x3a	58
40	0x73	115
41	0xfb	-5
42	0x81	-127
43	0x3a	58
44	0xa0	-96
45	0x2a	42
46	0x2e	46
47	0x3a	58
48	0x0a	10
49	0xe6	-26
50	0x3e	62
51	0x3a	58
52	0x51	81
53	0x9a	-102
54	0x82	-126
55	0x3a	58
56	0x67	103
57	0xa0	-96
58	0x2d	45
59	0x3a	58
60	0xf2	-14
61	0x21	33
62	0x3a	58
63	0x3a	58
64	0x31	49
65	0x9e	-98
66	0x1e	30
67	0x3a	58
68	0x3c	60
69	0xb5	-75
70	0xea	-22
71	0x39	57
72	0x98	-104
73	0x47	71
74	0xab	-85
75	0x3a	58
76	0xd6	-42
77	0x80	-128
78	0x1a	26
79	0x3a	58
80	0x10	16
81	0xb3	-77
82	0x1f	31
83	0x3a	58
84	0x0e	14
85	0xa3	-93
86	0x23	35
87	0x3a	58
88	0x36	54
89	0x36	54
90	0x31	49
91	0x3a	58
92	0xab	-85
93	0xa3	-93
94	0x8c	-116
95	0x3a	58
96	0x0b	11
97	0x6f	111
98	0x3b	59
99	0x3a	58
100	0xf6	-10
101	0x17	23
102	0x55	85
103	0x3a	58
104	0x9c	-100
105	0x9f	-97
106	0x30	48
107	0x3a	58
108	0xe5	-27
109	0x57	87
110	0x88	-120
111	0x3a	58
112	0x50	80
113	0xa5	-91
114	0x75	117
115	0x3a	58
116	0xbc	-68
117	0x42	66
118	0x1f	31
119	0x3a	58
120	0xdf	-33
121	0x60	96
122	0x0d	13
123	0x3a	58
124	0x16	22
125	0xd6	-42
126	0x85	-123
127	0x3a	58
128	0x97	-105
129	0x57	87
130	0x18	24
131	0x3a	58
132	0xc7	-57
133	0x48	72
134	0x6d	109
135	0x3a	58
136	0xae	-82
137	0x2a	42
138	0x2d	45
139	0x3a	58
140	0x86	-122
141	0x07	7
142	0x59	89
143	0x3a	58
144	0xd2	-46
145	0x2e	46
146	0x93	-109
147	0x3a	58
148	0xa0	-96
149	0x2d	45
150	0x28	40
151	0x3a	58
152	0xda	-38
153	0x9f	-97
154	0x64	100
155	0x3a	58
156	0x62	98
157	0x23	35
158	0x37	55
159	0x3a	58
160	0x4e	78
161	0x74	116
162	0xf5	-11
163	0x39	57
164	0x27	39
165	0xc3	-61
166	0x50	80
167	0x3a	58
168	0xa3	-93
169	0x7f	127
170	0x15	21
171	0x3a	58
172	0x95	-107
173	0x5d	93
174	0x99	-103
175	0x3a	58
176	0x92	-110
177	0x89	-119
178	0x21	33
179	0x3a	58
180	0xf2	-14
181	0x5a	90
182	0xa2	-94
183	0x3a	58
184	0x7f	127
185	0xbc	-68
186	0x51	81
187	0x3a	58
188	0xc6	-58
189	0x5f	95
190	0x1e	30
191	0x3a	58
192	0x33	51
193	0xcd	-51
194	0xb7	-73
195	0x3a	58
196	0xb7	-73
197	0x9d	-99
198	0x5a	90
199	0x3a	58
200	0x0e	14
201	0x18	24
202	0x5f	95
203	0x3a	58
204	0xae	-82
205	0x20	32
206	0x19	25
207	0x3a	58
208	0xc5	-59
209	0x8a	-118
210	0x4e	78
211	0x3a	58
212	0x42	66
213	0xd2	-46
214	0x3c	60
215	0x3a	58
216	0x83	-125
217	0xec	-20
218	0x3b	59
219	0x3a	58
220	0x2a	42
221	0x3d	61
222	0x12	18
223	0x3a	58
224	0x5a	90
225	0x82	-126
226	0xfe	-2
227	0x39	57
228	0xe8	-24
229	0xd9	-39
230	0xe7	-25
231	0x3a	58
232	0xd6	-42
233	0x19	25
234	0x4c	76
235	0x3a	58
236	0x96	-106
237	0x31	49
238	0x2d	45
239	0x3a	58
240	0xfa	-6
241	0x29	41
242	0x14	20
243	0x3a	58
244	0xe1	-31
245	0xc5	-59
246	0x24	36
247	0x3a	58
248	0x20	32
249	0x6c	108
250	0x5b	91
251	0x3a	58
252	0xbf	-65
253	0xbb	-69
254	0x32	50
255	0x3a	58
