inputs/examples/workloads/retinanet-resnext_inferred.onnx (onnx, 442715 bytes, 18 tensors)

backbone.body.conv1.weight f4 [64, 3, 7, 7]
000000 08 07 12 07 70 79 74 6f 72 63 68 1a 06 31 2e 31
       1.0985886e-34 7.566115e+28 4.8056807e-23 2.53482e-09
000010 31 2e 30 3a db e7 0b 0a 43 12 0f 6f 6e 6e 78 3a
       0.000672075 6.736214e-33 4.4278433e+28 0.00094769045
000020 3a 53 70 6c 69 74 5f 33 30 32 1a 0a 43 6f 6e 73
       1.1621409e+27 5.2027108e-08 7.4242695e-33 1.8890737e+31
000030 74 61 6e 74 5f 30 22 08 43 6f 6e 73 74 61 6e 74
       7.554585e+31 4.880696e-34 1.8890737e+31 7.554585e+31
000040 2a 1a 0a 05 76 61 6c 75 65 2a 0e 08 01 10 07 4a
       6.4935344e-36 2.9964814e+32 4.2781405e-34 2.2128642e+06
000050 08 01 00 00 00 00 00 00 00 a0 01 04 0a 49 0a 06
       3.7e-43 0.0 1.5237346e-36 2.6008576e-35
000060 69 6d 61 67 65 73 0a 0f 6f 6e 6e 78 3a 3a 53 70
       1.0645507e+24 6.8261495e-30 1.9343852e+34 2.6148691e+29
000070 6c 69 74 5f 33 30 32 12 11 6f 6e 6e 78 3a 3a 53
       1.7611727e+19 5.6226307e-28 1.8447926e+28 7.9984486e+11
000080 71 75 65 65 7a 65 5f 33 30 33 1a 07 53 70 6c 69
       6.772427e+22 5.2013526e-08 1.1600715e-34 1.7864808e+25
000090 74 5f 31 22 05 53 70 6c 69 74 2a 0b 0a 04 61 78
       2.4038506e-18 1.162137e+27 3.2828386e-32 1.8255449e+34
0000a0 69 73 18 00 a0 01 02 0a 45 12 11 6f 6e 6e 78 3a
       2.245453e-39 6.259578e-33 4.4897413e+28 0.00094769045
0000b0 3a 53 71 75 65 65 7a 65 5f 33 30 34 1a 0a 43 6f
       3.0591591e+32 7.3903876e+22 1.6409966e-07 6.036179e+28
0000c0 6e 73 74 61 6e 74 5f 32 22 08 43 6f 6e 73 74 61
       2.818327e+20 1.3006781e-08 6.035941e+28 2.818327e+20
0000d0 6e 74 2a 1a 0a 05 76 61 6c 75 65 2a 0e 08 01 10
       3.5249227e-23 2.8364138e+20 2.0380025e-13 2.544697e-29
0000e0 07 4a 08 00 00 00 00 00 00 00 00 a0 01 04 0a 41
       7.6124e-40 0.0 -1.0842022e-19 8.6259775
0000f0 0a 11 6f 6e 6e 78 3a 3a 53 71 75 65 65 7a 65 5f
       1.8496879e+28 0.00071132823 7.244189e+22 1.653564e+19
000100 33 30 33 0a 11 6f 6e 6e 78 3a 3a 53 71 75 65 65
       8.627602e-33 1.8447926e+28 7.9984486e+11 6.772427e+22
000110 7a 65 5f 33 30 34 12 05 69 6d 61 67 65 1a 09 53
       5.2013526e-08 6.874472e-36 1.0645507e+24 5.8885335e+11
000120 71 75 65 65 7a 65 5f 33 22 07 53 71 75 65 65 7a
       6.772427e+22 5.2013526e-08 1.04495936e+30 2.9777344e+35
000130 65 0a 49 12 0d 6f 6e 6e 78 3a 3a 53 75 62 5f 33
       6.343723e-28 1.8447921e+28 7.9984486e+11 5.201078e-08
000140 30 36 1a 0a 43 6f 6e 73 74 61 6e 74 5f 34 22 08
       7.425022e-33 1.8890737e+31 7.554585e+31 4.8811664e-34
000150 43 6f 6e 73 74 61 6e 74 2a 22 0a 05 76 61 6c 75
       1.8890737e+31 7.554585e+31 6.495004e-36 2.9964814e+32
000160 65 2a 16 08 03 08 01 08 01 10 01 4a 0c ec 51 f8
       4.5188818e-34 3.8828943e-34 2.1145602e+06 -1.7030901e+34
000170 3e d5 78 e9 3e 3b df cf 3e a0 01 04 0a 31 0a 05
       -1.8801288e+25 -7.4904033e+09 1.5237457e-36 6.497736e-36
000180 69 6d 61 67 65 0a 0d 6f 6e 6e 78 3a 3a 53 75 62
       1.0645507e+24 4.3649953e+28 0.00094769045 1.13136235e+21
000190 5f 33 30 36 12 0d 6f 6e 6e 78 3a 3a 44 69 76 5f
       2.6255946e-06 1.849568e+28 0.00071132823 1.7755798e+19
0001a0 33 30 37 1a 05 53 75 62 5f 35 22 03 53 75 62 0a
       3.7882448e-23 1.1313586e+21 4.766879e-37 1.09035704e-32
0001b0 49 12 0d 6f 6e 6e 78 3a 3a 44 69 76 5f 33 30 38
       4.365949e+28 0.00094769045 1.1828017e+33 4.2009513e-05
0001c0 1a 0a 43 6f 6e 73 74 61 6e 74 5f 36 22 08 43 6f
       6.036179e+28 2.818327e+20 3.329736e-06 6.035941e+28
0001d0 6e 73 74 61 6e 74 2a 22 0a 05 76 61 6c 75 65 2a
       2.818327e+20 2.3100934e-18 2.8364138e+20 2.0380025e-13
0001e0 16 08 03 08 01 08 01 10 01 4a 0c fa 7e 6a 3e 42
       3.9430884e-34 2.544693e-29 -1.8210563e+35 47.603996
0001f0 60 65 3e 66 66 66 3e a0 01 04 0a 33 0a 0d 6f 6e
       2.2477992e+23 -1.6127507e-19 3.213427e-08 1.849567e+28
000200 6e 78 3a 3a 44 69 76 5f 33 30 37 0a 0d 6f 6e 6e
       0.00071132823 1.7755798e+19 8.820195e-33 1.8447921e+28
000210 78 3a 3a 44 69 76 5f 33 30 38 12 07 69 6d 61 67
       744.9136 5.2028927e-08 1.1000331e-34 1.0645507e+24
000220 65 2e 33 1a 05 44 69 76 5f 37 22 03 44 69 76 0a
       3.705381e-23 1.1827976e+33 4.7671084e-37 1.18642674e-32
000230 47 12 13 6f 6e 6e 78 3a 3a 55 6e 73 71 75 65 65
       4.5516392e+28 0.00094769045 1.8882679e+31 6.772427e+22
000240 7a 65 5f 33 31 30 1a 0a 43 6f 6e 73 74 61 6e 74
       5.2013526e-08 7.423894e-33 1.8890737e+31 7.554585e+31
000250 5f 38 22 08 43 6f 6e 73 74 61 6e 74 2a 1a 0a 05
       4.8816366e-34 1.8890737e+31 7.554585e+31 6.4935344e-36
000260 76 61 6c 75 65 2a 0e 08 01 10 07 4a 08 00 00 00
       2.9964814e+32 4.2781405e-34 2.2128642e+06 1.1e-44
000270 00 00 00 00 00 a0 01 04 0a 47 0a 07 69 6d 61 67
       0.0 1.5237346e-36 1.0402843e-34 1.0645507e+24
000280 65 2e 33 0a 13 6f 6e 6e 78 3a 3a 55 6e 73 71 75
       8.627262e-33 1.8447928e+28 1.2797518e+13 3.0607537e+32
000290 65 65 7a 65 5f 33 31 30 12 0f 6f 6e 6e 78 3a 3a
       7.3903876e+22 6.446523e-10 1.8496284e+28 0.00071132823
0002a0 53 68 61 70 65 5f 33 31 31 1a 0b 55 6e 73 71 75
       2.7904099e+29 2.6102154e-09 9.559038e+12 3.0607537e+32
0002b0 65 65 7a 65 5f 39 22 09 55 6e 73 71 75 65 65 7a
       7.3903876e+22 1.9527016e-33 1.20541185e+30 2.9777344e+35
0002c0 65 0a 33 0a 0f 6f 6e 6e 78 3a 3a 53 68 61 70 65
       8.6204915e-33 1.8447923e+28 7.9984486e+11 7.09478e+22
0002d0 5f 33 31 31 12 0f 6f 6e 6e 78 3a 3a 53 6c 69 63
       2.578609e-09 1.8496284e+28 0.00071132823 4.305897e+21
0002e0 65 5f 33 31 33 1a 08 53 68 61 70 65 5f 31 30 22
       2.6102154e-09 5.845551e+11 7.09478e+22 2.3878585e-18
0002f0 05 53 68 61 70 65 0a 44 12 0f 6f 6e 6e 78 3a 3a
       2.6785168e+20 553.58496 1.8496284e+28 0.00071132823
000300 53 6c 69 63 65 5f 33 31 34 1a 0b 43 6f 6e 73 74
       4.305897e+21 2.6102154e-09 139.10236 7.7146484e+31
000310 61 6e 74 5f 31 31 22 08 43 6f 6e 73 74 61 6e 74
       1.7613122e+19 4.8807926e-34 1.8890737e+31 7.554585e+31
000320 2a 1a 0a 05 76 61 6c 75 65 2a 0e 08 01 10 07 4a
       6.4935344e-36 2.9964814e+32 4.2781405e-34 2.2128642e+06
000330 08 00 00 00 00 00 00 00 00 a0 01 04 0a 44 12 0f
       1.1e-44 0.0 1.5237346e-36 7.2114596e-30
000340 6f 6e 6e 78 3a 3a 53 6c 69 63 65 5f 33 31 35 1a
       1.9343852e+34 1.02143326e+27 1.652917e+19 3.7469666e-23
000350 0b 43 6f 6e 73 74 61 6e 74 5f 31 32 22 08 43 6f
       1.8511992e+28 1.7443726e+28 1.03244595e-08 6.035941e+28
000360 6e 73 74 61 6e 74 2a 1a 0a 05 76 61 6c 75 65 2a
       2.818327e+20 3.5249227e-23 2.8364138e+20 2.0380025e-13
000370 0e 08 01 10 07 4a 08 00 00 00 00 00 00 00 00 a0
       2.544697e-29 7.6124e-40 0.0 -1.0842022e-19
000380 01 04 0a 44 12 0f 6f 6e 6e 78 3a 3a 53 6c 69 63
       552.06256 1.8496284e+28 0.00071132823 4.305897e+21
000390 65 5f 33 31 36 1a 0b 43 6f 6e 73 74 61 6e 74 5f
       2.6102154e-09 139.10239 7.7146484e+31 1.7613122e+19
0003a0 31 33 22 08 43 6f 6e 73 74 61 6e 74 2a 1a 0a 05
       4.8810277e-34 1.8890737e+31 7.554585e+31 6.4935344e-36
0003b0 76 61 6c 75 65 2a 0e 08 01 10 07 4a 08 02 00 00
       2.9964814e+32 4.2781405e-34 2.2128642e+06 7.29e-43
0003c0 00 00 00 00 00 a0 01 04 0a 67 0a 0f 6f 6e 6e 78
       0.0 1.5237346e-36 6.82377e-30 1.9343852e+34
0003d0 3a 3a 53 6c 69 63 65 5f 33 31 33 0a 0f 6f 6e 6e
       1.02143326e+27 1.652917e+19 8.62779e-33 1.8447923e+28
0003e0 78 3a 3a 53 6c 69 63 65 5f 33 31 35 0a 0f 6f 6e
       7.9984486e+11 6.7120118e+22 6.6012393e-07 1.8496275e+28
0003f0 6e 78 3a 3a 53 6c 69 63 65 5f 33 31 36 0a 0f 6f
       0.00071132823 4.305897e+21 2.6102154e-09 4.42687e+28

backbone.body.layer1.0.conv1.weight f4 [128, 64, 1, 1]
000000 3a 55 6e 73 71 75 65 65 7a 65 5f 31 36 30 30 0a
       1.8882679e+31 6.772427e+22 3.2508454e-09 8.483159e-33
000010 14 6f 6e 6e 78 3a 3a 55 6e 73 71 75 65 65 7a 65
       1.8447929e+28 1.2797518e+13 3.0607537e+32 7.3903876e+22
000020 5f 31 36 30 39 12 11 6f 6e 6e 78 3a 3a 43 6f 6e
       6.6281375e-10 4.4897356e+28 0.00094769045 1.8512047e+28
000030 63 61 74 5f 31 36 31 30 1a 0d 55 6e 73 71 75 65
       1.7609465e+19 6.4469236e-10 1.6484036e+28 7.2442035e+22
000040 65 7a 65 5f 34 31 34 22 09 55 6e 73 71 75 65 65
       1.653564e+19 2.4420597e-18 1.888262e+31 6.772427e+22
000050 7a 65 0a 4a 12 14 6f 6e 6e 78 3a 3a 55 6e 73 71
       2.2674865e+06 1.8497795e+28 0.00071132823 1.20541185e+30
000060 75 65 65 7a 65 5f 31 36 31 35 1a 0c 43 6f 6e 73
       2.9777344e+35 2.6430582e-06 1.1879735e-31 1.8890737e+31
000070 74 61 6e 74 5f 34 31 35 22 08 43 6f 6e 73 74 61
       7.554585e+31 6.601385e-07 6.035941e+28 2.818327e+20
000080 6e 74 2a 1a 0a 05 76 61 6c 75 65 2a 0e 08 01 10
       3.5249227e-23 2.8364138e+20 2.0380025e-13 2.544697e-29
000090 07 4a 08 00 00 00 00 00 00 00 00 a0 01 04 0a 59
       7.6124e-40 0.0 -1.0842022e-19 2.4279968e+15
0000a0 0a 14 6f 6e 6e 78 3a 3a 55 6e 73 71 75 65 65 7a
       1.8497786e+28 0.00071132823 1.20541185e+30 2.9777344e+35
0000b0 65 5f 31 36 30 33 0a 14 6f 6e 6e 78 3a 3a 55 6e
       2.6430582e-06 6.9773145e-27 1.9343852e+34 1.6497675e+28
0000c0 73 71 75 65 65 7a 65 5f 31 36 31 35 12 11 6f 6e
       7.2442035e+22 1.653564e+19 6.6016497e-07 1.8496889e+28
0000d0 6e 78 3a 3a 43 6f 6e 63 61 74 5f 31 36 31 36 1a
       0.00071132823 4.3983423e+21 3.2516925e-09 3.767647e-23
0000e0 0d 55 6e 73 71 75 65 65 7a 65 5f 34 31 36 22 09
       1.8882625e+31 6.772427e+22 2.080541e-07 1.9525521e-33
0000f0 55 6e 73 71 75 65 65 7a 65 0a 4a 12 14 6f 6e 6e
       1.20541185e+30 2.9777344e+35 6.3752773e-28 1.8447929e+28
000100 78 3a 3a 55 6e 73 71 75 65 65 7a 65 5f 31 36 31
       1.2797518e+13 3.0607537e+32 7.3903876e+22 2.651255e-09
000110 37 1a 0c 43 6f 6e 73 74 61 6e 74 5f 34 31 37 22
       140.1024 7.7146484e+31 1.7613122e+19 2.4827173e-18
000120 08 43 6f 6e 73 74 61 6e 74 2a 1a 0a 05 76 61 6c
       1.8511988e+28 1.7443726e+28 7.422815e-33 1.0902626e+27
000130 75 65 2a 0e 08 01 10 07 4a 08 00 00 00 00 00 00
       2.1002968e-30 1.0833659e-34 2.974e-42 0.0
000140 00 00 a0 01 04 0a 59 0a 14 6f 6e 6e 78 3a 3a 55
       5.877472e-38 1.0450054e-32 1.8447929e+28 1.2797518e+13
000150 6e 73 71 75 65 65 7a 65 5f 31 36 30 36 0a 14 6f
       3.0607537e+32 7.3903876e+22 6.6281375e-10 4.5816126e+28
000160 6e 6e 78 3a 3a 55 6e 73 71 75 65 65 7a 65 5f 31
       0.00094769045 1.8882679e+31 6.772427e+22 3.2508454e-09
000170 36 31 37 12 11 6f 6e 6e 78 3a 3a 43 6f 6e 63 61
       5.7805275e-28 1.8447926e+28 186.2284 2.6221053e+20
000180 74 5f 31 36 31 38 1a 0d 55 6e 73 71 75 65 65 7a
       2.6430616e-06 4.752255e-31 1.20541185e+30 2.9777344e+35
000190 65 5f 34 31 38 22 09 55 6e 73 71 75 65 65 7a 65
       2.6247673e-09 9.423754e+12 3.0607537e+32 7.3903876e+22
0001a0 0a 94 01 0a 11 6f 6e 6e 78 3a 3a 43 6f 6e 63 61
       6.238967e-33 1.8447926e+28 186.2284 2.6221053e+20
0001b0 74 5f 31 36 31 30 0a 11 6f 6e 6e 78 3a 3a 43 6f
       2.6430616e-06 1.0901131e-28 1.9343852e+34 6.041997e+28
0001c0 6e 63 61 74 5f 33 38 38 31 0a 11 6f 6e 6e 78 3a
       7.1428434e+31 4.391686e-05 4.4887647e+28 0.00094769045
0001d0 3a 43 6f 6e 63 61 74 5f 33 38 38 32 0a 11 6f 6e
       1.8512047e+28 1.7609465e+19 1.0722988e-08 1.8496879e+28
0001e0 6e 78 3a 3a 43 6f 6e 63 61 74 5f 31 36 31 36 0a
       0.00071132823 4.3983423e+21 3.2516925e-09 8.772237e-33
0001f0 11 6f 6e 6e 78 3a 3a 43 6f 6e 63 61 74 5f 31 36
       1.8447926e+28 186.2284 2.6221053e+20 2.6430616e-06
000200 31 38 12 12 6f 6e 6e 78 3a 3a 52 65 73 68 61 70
       4.613874e-28 1.9343852e+34 6.204819e+22 2.790416e+29
000210 65 5f 31 36 31 39 1a 0a 43 6f 6e 63 61 74 5f 34
       2.6430582e-06 7.425587e-33 4.3983423e+21 2.0810832e-07
000220 31 39 22 06 43 6f 6e 63 61 74 2a 0b 0a 04 61 78
       3.051083e-35 4.3983423e+21 3.2828363e-32 1.8255449e+34
000230 69 73 18 00 a0 01 02 0a 52 0a 10 6f 6e 6e 78 3a
       2.245453e-39 6.259578e-33 4.457832e+28 0.00094769045
000240 3a 53 68 61 70 65 5f 31 35 39 37 0a 12 6f 6e 6e
       2.678526e+20 3.2508432e-09 8.821889e-33 1.8447927e+28
000250 78 3a 3a 52 65 73 68 61 70 65 5f 31 36 31 39 12
       1.9996121e+11 2.6799748e+20 3.2508432e-09 5.8436364e-28
000260 14 6f 6e 6e 78 3a 3a 54 72 61 6e 73 70 6f 73 65
       1.8447929e+28 3.1993794e+12 1.888646e+31 7.184942e+22
000270 5f 31 36 32 30 1a 0b 52 65 73 68 61 70 65 5f 34
       1.060502e-08 1.4935995e+11 2.6799748e+20 2.0805396e-07
000280 32 30 22 07 52 65 73 68 61 70 65 0a 59 0a 14 6f
       1.2201689e-34 4.5976163e+24 1.1047085e-32 4.581629e+28
000290 6e 6e 78 3a 3a 54 72 61 6e 73 70 6f 73 65 5f 31
       0.00094769045 2.7938633e+20 7.441595e+28 3.2508438e-09
0002a0 36 32 30 12 12 6f 6e 6e 78 3a 3a 52 65 73 68 61
       5.5597697e-28 1.8447927e+28 1.9996121e+11 2.6799748e+20
0002b0 70 65 5f 31 36 32 31 1a 0d 54 72 61 6e 73 70 6f
       3.2508432e-09 3.6643302e-23 2.7938554e+20 7.441595e+28
0002c0 73 65 5f 34 32 31 22 09 54 72 61 6e 73 70 6f 73
       2.08054e-07 1.9523172e-33 1.7443085e+28 1.8970332e+31
0002d0 65 2a 13 0a 04 70 65 72 6d 40 00 40 03 40 04 40
       7.085766e-33 4.544479e+30 2.0039322 2.066407
0002e0 01 40 02 a0 01 07 0a 4a 12 14 6f 6e 6e 78 3a 3a
       -1.1032605e-19 2.2614402e+06 1.8497795e+28 0.00071132823
0002f0 55 6e 73 71 75 65 65 7a 65 5f 31 36 32 34 1a 0c
       1.20541185e+30 2.9777344e+35 2.6430582e-06 1.1879435e-31
000300 43 6f 6e 73 74 61 6e 74 5f 34 32 32 22 08 43 6f
       1.8890737e+31 7.554585e+31 1.03728715e-08 6.035941e+28
000310 6e 73 74 61 6e 74 2a 1a 0a 05 76 61 6c 75 65 2a
       2.818327e+20 3.5249227e-23 2.8364138e+20 2.0380025e-13
000320 0e 08 01 10 07 4a 08 00 00 00 00 00 00 00 00 a0
       2.544697e-29 7.6124e-40 0.0 -1.0842022e-19
000330 01 04 0a 59 0a 14 6f 6e 6e 78 3a 3a 55 6e 73 71
       2.4279968e+15 1.8497786e+28 0.00071132823 1.20541185e+30
000340 75 65 65 7a 65 5f 31 36 30 30 0a 14 6f 6e 6e 78
       2.9777344e+35 2.6430582e-06 6.976723e-27 1.9343852e+34
000350 3a 3a 55 6e 73 71 75 65 65 7a 65 5f 31 36 32 34
       1.6497675e+28 7.2442035e+22 1.653564e+19 1.6597257e-07
000360 12 11 6f 6e 6e 78 3a 3a 43 6f 6e 63 61 74 5f 31
       1.8496889e+28 0.00071132823 4.3983423e+21 3.2516925e-09
000370 36 32 35 1a 0d 55 6e 73 71 75 65 65 7a 65 5f 34
       3.7470483e-23 1.8882625e+31 6.772427e+22 2.080541e-07
000380 32 33 22 09 55 6e 73 71 75 65 65 7a 65 0a 6e 0a
       1.9524113e-33 1.20541185e+30 2.9777344e+35 1.1461238e-32
000390 11 6f 6e 6e 78 3a 3a 43 6f 6e 63 61 74 5f 31 36
       1.8447926e+28 186.2284 2.6221053e+20 2.6430616e-06
0003a0 32 35 0a 11 6f 6e 6e 78 3a 3a 43 6f 6e 63 61 74
       1.0902673e-28 1.9343852e+34 6.041997e+28 7.1428434e+31
0003b0 5f 33 38 38 33 0a 11 6f 6e 6e 78 3a 3a 43 6f 6e
       4.391686e-05 4.4887657e+28 0.00094769045 1.8512047e+28
0003c0 63 61 74 5f 33 38 38 34 12 12 6f 6e 6e 78 3a 3a
       1.7609465e+19 1.715678e-07 1.8497191e+28 0.00071132823
0003d0 52 65 73 68 61 70 65 5f 31 36 33 30 1a 0a 43 6f
       4.5976163e+24 1.6532821e+19 6.519683e-10 6.036179e+28
0003e0 6e 63 61 74 5f 34 32 34 22 06 43 6f 6e 63 61 74
       7.1428434e+31 1.6596594e-07 6.035699e+28 7.1428434e+31
0003f0 2a 0b 0a 04 61 78 69 73 18 00 a0 01 02 0a 51 0a
       1.6226948e-36 1.8497417e+31 5.877485e-38 1.0064866e-32

backbone.body.layer1.0.conv2.weight f4 [128, 4, 3, 3]
000000 6e 78 3a 3a 43 6f 6e 63 61 74 5f 32 30 38 39 12
       0.00071132823 4.3983423e+21 1.300677e-08 5.8444963e-28
000010 11 6f 6e 6e 78 3a 3a 45 78 70 61 6e 64 5f 32 30
       1.8447926e+28 2979.6543 1.7442523e+28 6.489158e-10
000020 39 30 1a 0a 43 6f 6e 63 61 74 5f 37 38 38 22 06
       7.4239e-33 4.3983423e+21 1.3318932e-05 3.0510117e-35
000030 43 6f 6e 63 61 74 2a 0b 0a 04 61 78 69 73 18 00
       4.3983423e+21 3.2828363e-32 1.8255449e+34 2.245453e-39
000040 a0 01 02 0a 47 12 11 6f 6e 6e 78 3a 3a 43 6f 6e
       6.259578e-33 4.4897422e+28 0.00094769045 1.8512047e+28
000050 63 61 74 5f 32 30 39 31 1a 0c 43 6f 6e 73 74 61
       1.7609465e+19 2.694844e-09 6.0364207e+28 2.818327e+20
000060 6e 74 5f 37 38 39 22 08 43 6f 6e 73 74 61 6e 74
       1.3318944e-05 4.881736e-34 1.8890737e+31 7.554585e+31
000070 2a 1a 0a 05 76 61 6c 75 65 2a 0e 08 01 10 07 4a
       6.4935344e-36 2.9964814e+32 4.2781405e-34 2.2128642e+06
000080 08 01 00 00 00 00 00 00 00 a0 01 04 0a 5b 0a 11
       3.7e-43 0.0 1.5237346e-36 1.0914334e-28
000090 6f 6e 6e 78 3a 3a 43 6f 6e 63 61 74 5f 32 30 38
       1.9343852e+34 6.041997e+28 7.1428434e+31 4.200858e-05
0000a0 38 0a 11 6f 6e 6e 78 3a 3a 43 6f 6e 63 61 74 5f
       4.488768e+28 0.00094769045 1.8512047e+28 1.7609465e+19
0000b0 32 30 39 31 12 12 6f 6e 6e 78 3a 3a 52 65 73 68
       2.694844e-09 1.8497191e+28 0.00071132823 4.5976163e+24
0000c0 61 70 65 5f 32 30 39 32 1a 0a 43 6f 6e 63 61 74
       1.6532821e+19 1.0779376e-08 6.036179e+28 7.1428434e+31
0000d0 5f 37 39 30 22 06 43 6f 6e 63 61 74 2a 0b 0a 04
       6.7381295e-10 6.035699e+28 7.1428434e+31 1.6226948e-36
0000e0 61 78 69 73 18 00 a0 01 02 0a 4f 0a 10 6f 6e 6e
       1.8497417e+31 5.877485e-38 9.96857e-33 1.8447925e+28
0000f0 78 3a 3a 53 68 61 70 65 5f 32 30 38 35 0a 12 6f
       7.9984486e+11 7.09478e+22 4.200858e-05 4.519715e+28
000100 6e 6e 78 3a 3a 52 65 73 68 61 70 65 5f 32 30 39
       0.00094769045 1.8168697e+31 7.09478e+22 0.00016803433
000110 32 12 11 6f 6e 6e 78 3a 3a 45 78 70 61 6e 64 5f
       4.4897323e+28 0.00094769045 3.0734389e+29 1.64602e+19
000120 32 30 39 33 1a 0b 52 65 73 68 61 70 65 5f 37 39
       4.3117502e-08 6.199386e+22 2.790416e+29 0.00017487777
000130 31 22 07 52 65 73 68 61 70 65 0a 4e 0a 11 6f 6e
       1.4509856e+11 2.6799748e+20 5.804759e+08 1.8496879e+28
000140 6e 78 3a 3a 45 78 70 61 6e 64 5f 32 30 39 33 0a
       0.00071132823 2.772428e+20 1.30031435e-08 8.629292e-33
000150 11 6f 6e 6e 78 3a 3a 45 78 70 61 6e 64 5f 32 30
       1.8447926e+28 2979.6543 1.7442523e+28 6.489158e-10
000160 39 30 12 12 6f 6e 6e 78 3a 3a 52 65 73 68 61 70
       4.6128916e-28 1.9343852e+34 6.204819e+22 2.790416e+29
000170 65 5f 32 30 39 34 1a 0a 45 78 70 61 6e 64 5f 37
       6.4891587e-10 7.424652e-33 2.772428e+20 1.3315219e-05
000180 39 32 22 06 45 78 70 61 6e 64 0a 47 12 11 6f 6e
       3.050571e-35 2.772428e+20 35428.43 1.8496889e+28
000190 6e 78 3a 3a 43 6f 6e 63 61 74 5f 32 30 39 35 1a
       0.00071132823 4.3983423e+21 1.300677e-08 3.7476118e-23
0001a0 0c 43 6f 6e 73 74 61 6e 74 5f 37 39 33 22 08 43
       1.8511993e+28 1.7443726e+28 0.00017487799 136.13359
0001b0 6f 6e 73 74 61 6e 74 2a 1a 0a 05 76 61 6c 75 65
       7.7146484e+31 2.1709849e-13 6.745902e+32 7.243619e+22
0001c0 2a 0e 08 01 10 07 4a 08 01 00 00 00 00 00 00 00
       2.4989417e-38 6.0795466e-34 1e-45 0.0
0001d0 a0 01 04 0a 5b 0a 11 6f 6e 6e 78 3a 3a 43 6f 6e
       6.3558744e-33 4.4887845e+28 0.00094769045 1.8512047e+28
0001e0 63 61 74 5f 32 30 39 35 0a 11 6f 6e 6e 78 3a 3a
       1.7609465e+19 6.8988004e-07 1.8496879e+28 0.00071132823
0001f0 43 6f 6e 63 61 74 5f 32 30 38 39 12 12 6f 6e 6e
       4.3983423e+21 1.300677e-08 5.8444963e-28 1.8447927e+28
000200 78 3a 3a 52 65 73 68 61 70 65 5f 32 30 39 36 1a
       1.9996121e+11 2.6799748e+20 1.3003373e-08 3.7682914e-23
000210 0a 43 6f 6e 63 61 74 5f 37 39 34 22 06 43 6f 6e
       1.8511991e+28 1.7609465e+19 2.4424838e-18 1.8511986e+28
000220 63 61 74 2a 0b 0a 04 61 78 69 73 18 00 a0 01 02
       2.1705341e-13 1.5223087e+20 3.1460262e-24 9.523341e-38
000230 0a 4f 0a 10 6f 6e 6e 78 3a 3a 53 68 61 70 65 5f
       2.727659e-29 1.9343852e+34 3.9899737e+24 1.6532821e+19
000240 32 30 38 37 0a 12 6f 6e 6e 78 3a 3a 52 65 73 68
       1.0978476e-05 1.8497181e+28 0.00071132823 4.5976163e+24
000250 61 70 65 5f 32 30 39 36 12 11 6f 6e 6e 78 3a 3a
       1.6532821e+19 2.7595202e-06 1.8496889e+28 0.00071132823
000260 45 78 70 61 6e 64 5f 32 30 39 37 1a 0b 52 65 73
       2.772428e+20 1.30031435e-08 3.788971e-23 1.816864e+31
000270 68 61 70 65 5f 37 39 35 22 07 52 65 73 68 61 70
       7.09478e+22 6.8998446e-07 6.1989284e+22 2.790416e+29
000280 65 0a 4e 0a 11 6f 6e 6e 78 3a 3a 45 78 70 61 6e
       9.920494e-33 1.8447926e+28 2979.6543 1.7442523e+28
000290 64 5f 32 30 39 37 0a 11 6f 6e 6e 78 3a 3a 45 78
       6.489158e-10 1.0903297e-28 1.9343852e+34 1.6000992e+34
0002a0 70 61 6e 64 5f 32 30 39 30 12 12 6f 6e 6e 78 3a
       1.7589385e+22 0.00016803433 4.52068e+28 0.00094769045
0002b0 3a 52 65 73 68 61 70 65 5f 32 30 39 38 1a 0a 45
       1.8168697e+31 7.09478e+22 0.00016803433 2209.6387
0002c0 78 70 61 6e 64 5f 37 39 36 22 06 45 78 70 61 6e
       1.7442523e+28 0.00017487776 2146.1382 1.7442523e+28
0002d0 64 0a 48 12 12 6f 6e 6e 78 3a 3a 52 65 73 68 61
       6.312168e-28 1.8447927e+28 1.9996121e+11 2.6799748e+20
0002e0 70 65 5f 32 30 39 39 1a 0c 43 6f 6e 73 74 61 6e
       1.3003373e-08 3.83033e-23 1.8511993e+28 1.7443726e+28
0002f0 74 5f 37 39 37 22 08 43 6f 6e 73 74 61 6e 74 2a
       0.00017487799 136.13365 7.7146484e+31 2.1709849e-13
000300 1a 0a 05 76 61 6c 75 65 2a 0e 08 01 10 07 4a 08
       6.745902e+32 7.243619e+22 2.4989417e-38 6.0795466e-34
000310 ff ff ff ff ff ff ff ff a0 01 04 0a 54 0a 12 6f
       nan nan 6.3558744e-33 4.5197297e+28
000320 6e 6e 78 3a 3a 52 65 73 68 61 70 65 5f 32 30 39
       0.00094769045 1.8168697e+31 7.09478e+22 0.00016803433
000330 38 0a 12 6f 6e 6e 78 3a 3a 52 65 73 68 61 70 65
       4.5197165e+28 0.00094769045 1.8168697e+31 7.09478e+22
000340 5f 32 30 39 39 12 14 6f 6e 6e 78 3a 3a 55 6e 73
       0.00016803433 4.582581e+28 0.00094769045 1.8882679e+31
000350 71 75 65 65 7a 65 5f 32 31 30 30 1a 0b 52 65 73
       6.772427e+22 1.30033815e-08 3.6434876e-23 1.816864e+31
000360 68 61 70 65 5f 37 39 38 22 07 52 65 73 68 61 70
       7.09478e+22 4.4159005e-05 6.1989284e+22 2.790416e+29
000370 65 0a 48 12 12 6f 6e 6e 78 3a 3a 52 65 73 68 61
       6.3121685e-28 1.8447927e+28 1.9996121e+11 2.6799748e+20
000380 70 65 5f 32 31 30 31 1a 0c 43 6f 6e 73 74 61 6e
       1.3003373e-08 3.664167e-23 1.8511993e+28 1.7443726e+28
000390 74 5f 37 39 39 22 08 43 6f 6e 73 74 61 6e 74 2a
       0.00017487799 136.13368 7.7146484e+31 2.1709849e-13
0003a0 1a 0a 05 76 61 6c 75 65 2a 0e 08 01 10 07 4a 08
       6.745902e+32 7.243619e+22 2.4989417e-38 6.0795466e-34
0003b0 ff ff ff ff ff ff ff ff a0 01 04 0a 54 0a 12 6f
       nan nan 6.3558744e-33 4.5197297e+28
0003c0 6e 6e 78 3a 3a 52 65 73 68 61 70 65 5f 32 30 39
       0.00094769045 1.8168697e+31 7.09478e+22 0.00016803433
0003d0 34 0a 12 6f 6e 6e 78 3a 3a 52 65 73 68 61 70 65
       4.5197146e+28 0.00094769045 1.8168697e+31 7.09478e+22
0003e0 5f 32 31 30 31 12 14 6f 6e 6e 78 3a 3a 55 6e 73
       6.4463807e-10 4.5825774e+28 0.00094769045 1.8882679e+31
0003f0 71 75 65 65 7a 65 5f 32 31 30 32 1a 0b 52 65 73
       6.772427e+22 1.30033815e-08 3.6848466e-23 1.816864e+31

head.regression_head.bbox_reg.bias f4 [36]
000000 ca 50 63 ba 24 d9 1d 3b 3a 41 0b bd 2b 12 ad 3c
       -0.00086714013 0.0024085725 -0.03399775 0.021126827
000010 3b a2 a2 3a a9 c4 67 3b 32 10 f2 bc ba 4c 62 3d
       0.0012407968 0.0035365021 -0.029548738 0.055248953
000020 06 dc 56 3b 42 ba 08 3a 60 b8 0d bd 11 8c 52 3d
       0.0032784953 0.0005215743 -0.03459966 0.05140311
000030 25 1d e4 3a 9e a1 07 3b 99 47 47 bc 8b 87 16 3d
       0.0017403705 0.0020695697 -0.012163066 0.036750358
000040 2b c8 2e 3b 0d 7e a4 3a 79 62 84 bb 06 78 0e 3d
       0.0026669602 0.0012549773 -0.004040059 0.034782432
000050 f7 0d 2b 3b dc 5f 6c 3b 57 2b c9 bb 28 35 06 3d
       0.0026100853 0.0036067879 -0.0061391997 0.032765538
000060 04 5b 3e 3a ab 15 e5 b7 9b 85 d9 bb c0 6a 4e 3a
       0.0007261487 -2.7309017e-05 -0.0066382415 0.00078741834
000070 66 eb c0 3a 19 e9 30 3b b4 c4 85 3c 6c 7d c1 3b
       0.0014718592 0.0026994406 0.016329147 0.005904844
000080 16 57 12 b9 50 4f 9c 3b 5f 8d b3 3c 7e 68 b3 3b
       -0.00013956087 0.004770197 0.021917997 0.005475103

onnx::Mul_3346 f4 [1, 64, 1, 1]
000000 db b9 be 3e 0d cb fe 3d 19 dd 43 3e d6 44 35 3e
       0.3725117 0.124410726 0.19127311 0.1770204
000010 1c 95 60 3e 94 2c bb 3e 61 bb 06 3e 6b 90 52 3e
       0.2193188 0.36557448 0.13157417 0.20562904
000020 93 2a 9f 3e 12 4a 61 3e 94 d8 ae 3e 6c 20 ba 3d
       0.3108717 0.22000912 0.3414961 0.09088215
000030 30 69 be 3e 9d 11 c1 3e 36 94 4a 3e 31 38 e5 3d
       0.37189627 0.3770875 0.197831 0.11192358
000040 d6 91 27 3e 64 d1 b9 3d 9b 6a ce 3e 4d 58 3d 3e
       0.16364226 0.09073141 0.4031571 0.18490715
000050 61 29 79 3e f4 6f c9 3e 34 26 48 3e 46 e0 13 3e
       0.24332191 0.39343226 0.19545823 0.14441022
000060 e9 7f 7a 3e 90 4d 41 3e 14 66 6c 3e 3c ad 77 3e
       0.24462856 0.18877244 0.23085815 0.24187177
000070 73 17 46 3e 33 a4 01 3e db 71 5d 36 8f 6b 47 3e
       0.19344883 0.12660293 3.2997839e-06 0.19474624
000080 d9 d1 20 3e 00 4d a0 3e 33 a1 29 3e 4b 2b ad 3e
       0.1570505 0.31308746 0.16565399 0.33822092
000090 6f 66 a2 3e 04 98 1c 3e e3 56 82 37 a7 d6 5f 3e
       0.31718776 0.15292364 1.5537667e-05 0.21859227
0000a0 36 9b 4a 3e 7b 07 c4 3e 3d 57 97 3e c9 6a ec 3e
       0.19785771 0.38286957 0.29558745 0.4617522
0000b0 c0 76 5e 3e e2 77 4c 3e f2 4f 01 3e 61 9e c0 3d
       0.21724987 0.19967607 0.12628153 0.094052084
0000c0 93 69 01 3e 96 f3 52 3e 1f 22 9a 3e 4b 9d fa 3d
       0.1263793 0.20600733 0.30104157 0.122370325
0000d0 b8 b7 84 3e 3a 90 12 3e db b8 b9 3d ba 1f 4e 3e
       0.25921416 0.1431283 0.090684615 0.2012929
0000e0 6d 5b 8f 3e 48 79 04 3e 81 5f ba 3d a5 c4 8b 3e
       0.2799944 0.1293689 0.09100247 0.27298465
0000f0 6a d8 92 3e 9b 16 a5 3e 73 43 78 3e 37 c4 8a 3e
       0.28680736 0.3224381 0.2424448 0.27102825

onnx::Add_3348 f4 [1, 64, 1, 1]
000000 35 d8 66 3e 77 24 ef 3d ce 8b 5d be 69 08 03 bf
       0.22543414 0.11676877 -0.21635363 -0.5118471
000010 2a 1c 3a 3e 32 6a 91 3e 87 7b 03 3e a2 cb 76 be
       0.18174806 0.28401333 0.1284009 -0.24101117
000020 30 21 4e 3e a8 39 33 3e e5 f4 61 3e ab b4 77 3f
       0.20129848 0.17502463 0.22066076 0.9676005
000030 f8 58 5e 3e 5d 5a 74 3e 90 fa 21 3e 40 ec d5 bd
       0.21713626 0.23862596 0.15818238 -0.10445452
000040 31 54 13 bd 35 8e 9f 3e f5 13 6c 3e 6f ac ea 3e
       -0.035968963 0.31163183 0.23054488 0.4583468
000050 5c ed 7a be 67 23 61 3e 95 cf cd 3d 32 f2 ed 3e
       -0.24504608 0.21986161 0.10049359 0.46473843
000060 d5 98 67 3e ce bc 3c 3e 8e 41 4c 3e c2 55 3f 3e
       0.22616895 0.18431398 0.19946882 0.18685058
000070 55 1e be 3e 6c 7a 1d 3e 44 1f 17 b3 97 05 0c 3e
       0.37132517 0.15378731 -3.5185863e-08 0.13674007
000080 26 cc 28 3f 72 c0 3b 3e 4d 5b fc be 9a 08 aa 3e
       0.65936506 0.18335131 -0.49288407 0.33209687
000090 69 f5 3e 3e b1 ef e5 3e e1 2c 21 b4 85 fe ff be
       0.18648304 0.44909433 -1.501062e-07 -0.4999887
0000a0 26 27 51 3e b1 24 19 3d 7d 40 97 be 74 47 df 3d
       0.2042509 0.037388507 -0.29541388 0.109023005
0000b0 c9 95 37 3e 4f 88 4a 3e 4d c0 c2 3e 24 8f 5b 3f
       0.17928232 0.1977856 0.3803734 0.8576529
0000c0 60 58 13 3e d7 23 07 bf 96 8a 5a 3e 23 cc 23 3e
       0.14389181 -0.5278906 0.21341929 0.1599584
0000d0 d6 c8 53 3e 72 c4 1e be 6b 16 3f 3f 7d 33 2b 3e
       0.20682082 -0.15504625 0.7464358 0.1671886
0000e0 4b 14 47 3e 45 bf 73 3e a3 58 4c 3f 37 4a 39 3e
       0.19441335 0.23803432 0.7982275 0.18094717
0000f0 28 7e 33 3e 4b 55 40 3e 7f fc b7 be 9f 05 9e be
       0.17528594 0.18782537 -0.35934827 -0.30863664

onnx::Mul_3356 f4 [1, 128, 1, 1]
000000 86 cc 90 3f 4d 30 8f 3f 87 07 8e 3f a7 97 7a 3f
       1.1312416 1.1186615 1.1096047 0.97887653
000010 c4 f3 1a 37 2b bf 85 37 f5 3d 0f 3f 9f e1 18 37
       9.235871e-06 1.5943855e-05 0.55953914 9.1124375e-06
000020 0e e6 89 3f ee 65 3d 3f ba 87 dc 38 ea da e9 36
       1.0773332 0.7398366 0.000105156985 6.969426e-06
000030 6f 13 b7 3e 58 1f c6 37 33 95 0b 37 0f 75 b9 3f
       0.35757014 2.3618035e-05 8.319784e-06 1.4488848
000040 33 03 ab 3f 2c 5b 9a 3f 13 8d a9 3f 10 64 40 40
       1.3360351 1.2059073 1.3246177 3.0061073
000050 d5 b1 b3 3f e6 81 12 3c a0 fb 97 3f 3d 6b bf 3f
       1.4038645 0.008942103 1.1873665 1.4954602
000060 89 45 b6 3d e0 9b 1f 38 5f de 57 3d de 27 39 3e
       0.088999815 3.8053724e-05 0.052702304 0.18081614
000070 33 ef a5 3f b6 62 40 3f 1f 41 93 3f 58 fb 04 3b
       1.2963623 0.7515062 1.1504248 0.0020291414
000080 c8 f6 3f 3f cc 86 41 3f 0a 7b 36 3f 68 19 87 3f
       0.74985933 0.7559631 0.7128149 1.0554628
000090 b4 91 c7 3e 8a 11 04 3d 51 22 4c 3f 46 d5 7e 39
       0.3897835 0.03224329 0.7973986 0.00024302778
0000a0 e4 8a 7e 38 b3 a4 70 37 49 60 96 36 98 6b 27 3f
       6.068767e-05 1.4343462e-05 4.4815574e-06 0.6539855
0000b0 15 25 86 3f 4b 95 b3 3b 24 15 35 3f f1 f4 49 3c
       1.0480067 0.0054804436 0.70735383 0.012326465
0000c0 30 c0 5a 3b dc 88 ce 3b 29 cd 52 3e ed 98 bc 37
       0.0033378713 0.006302936 0.20586075 2.2482558e-05
0000d0 db f8 b2 3f 04 cf 73 3f 97 82 75 3e 6e d8 6d 3e
       1.3982195 0.95237756 0.23975597 0.23227093
0000e0 4b d8 65 3f 83 ae 29 3f 0e 9f e7 3e 5d 6a 99 38
       0.8978316 0.6628191 0.45238537 7.31542e-05
0000f0 8d 40 83 3f 6f d6 89 3f 38 4f 8a 3d dc c2 9b 3f
       1.0254074 1.0768565 0.06753391 1.2168841
000100 c6 88 c0 3a 4c 2f 7c 39 46 3e 86 3e fe 89 6a 3e
       0.0014689199 0.00024050212 0.26219386 0.22904202
000110 8a 4f 77 3f 4f bd 69 3f 8b 41 9b 3f 71 9a 3d 3f
       0.9660574 0.91304487 1.2129377 0.74063784
000120 5a 36 b3 3e 5f db ea 3e 62 30 1c 3f d7 4b 2d 3f
       0.35002404 0.45870492 0.61011326 0.6769385
000130 41 a6 b2 3e 7f ae f6 36 9d 06 95 3f 47 2c 31 37
       0.34892467 7.3516853e-06 1.1642643 1.0560331e-05
000140 30 8c 33 3f a6 f2 8b 3f e1 3f 8a 3f fe a5 89 3f
       0.70135784 1.0933425 1.0800744 1.0753782
000150 d7 80 ad 3f aa 65 97 3f af 1e 07 3f db f0 ef 3e
       1.3554944 1.18279 0.52781194 0.46863446
000160 29 6c a2 3f 74 2a 8d 3f 0a ad 86 3f ba 19 c4 3f
       1.2689258 1.1028581 1.0521557 1.5320351
000170 f7 03 1a 3a 1d c1 b0 3e 81 db b3 3e b8 de ce 37
       0.00058752246 0.34522334 0.35128406 2.4660825e-05
000180 ce eb 02 39 99 93 79 3f 41 7c 5e 3f a3 c0 b7 3f
       0.0001248561 0.9749084 0.86908346 1.4355663
000190 dd 10 09 36 20 78 64 3f a8 10 50 3f 84 0f 94 3f
       2.0424407e-06 0.89245796 0.81275415 1.1567235
0001a0 3b b6 ad 3f 3b 17 82 3f 1d dc 46 3f f7 1f 64 3f
       1.3571237 1.0163339 0.77679616 0.89111274
0001b0 df fa 07 3f 6a c5 18 3f dc 31 c9 3f 28 95 9a 3f
       0.53117174 0.5967623 1.5718341 1.2076769
0001c0 13 7d 8a 39 5b b2 82 36 4d 0a 86 36 f8 94 7e 38
       0.000264146 3.895065e-06 3.9947104e-06 6.0697057e-05
0001d0 21 21 88 3f f6 ea 46 3f 65 60 60 3f 9e a6 75 3f
       1.063511 0.7770227 0.87647086 0.9595736
0001e0 f2 34 34 37 e0 86 11 3f 2a 60 63 3f f1 ad 59 3f
       1.0741163e-05 0.5684643 0.8881861 0.8503104
0001f0 87 11 51 3f 15 12 7a 3f 0c ef 6f 3f cd aa 94 3f
       0.8166737 0.9768384 0.9372413 1.1614624

onnx::Add_3358 f4 [1, 128, 1, 1]
000000 dc 6e b7 3e c6 9a 60 3e d0 21 39 3d 8a 5c b2 3e
       0.35826766 0.21934041 0.04519826 0.34836227
000010 9e 3f ba b5 7d 35 27 b5 2f 25 6e 3e b9 98 61 b4
       -1.3876595e-06 -6.2290184e-07 0.23256372 -2.1010318e-07
000020 60 36 94 3e d9 a6 4a 3e 82 4a 95 b5 e0 9e 97 b3
       0.28947735 0.1979021 -1.112305e-06 -7.0603846e-08
000030 17 24 2e 3f 8d 83 a0 b4 76 1b 3f b3 34 7f 0e bf
       0.6802382 -2.9898038e-07 -4.449563e-08 -0.55662847
000040 7e 46 2e 3e a2 e0 f8 3d 11 ec ba 3d c8 01 23 bd
       0.17019078 0.1215222 0.09127057 -0.03979662
000050 84 bf ae 3e 47 74 ea b8 aa 9b a2 3e 6e 1f 5c 3e
       0.3413049 -0.00011179648 0.31759387 0.21496364
000060 f8 b4 a6 ba 13 8d 1c b5 57 e4 47 ba 40 86 00 bb
       -0.0012718728 -5.831982e-07 -0.0007625273 -0.001961127
000070 4d 3e c2 3d 24 82 a0 3e a8 6f 03 3e 5d 1d 37 b7
       0.09484539 0.3134929 0.12835562 -1.0914487e-05
000080 20 b9 d7 3e 84 29 f4 3d 82 77 8d 3e 5c 3a 35 3e
       0.42133427 0.11921981 0.2763024 0.17698044
000090 b2 34 eb 3e ef 80 d2 b9 7e 69 24 3d a4 9d 34 b6
       0.4593864 -0.00040150384 0.040139668 -2.691385e-06
0000a0 e8 20 0e b5 de 39 3f b4 30 1f 41 b3 99 38 b7 3e
       -5.2947007e-07 -1.7809313e-07 -4.496468e-08 0.35785368
0000b0 d2 99 9f be 5c 3d cf b7 fb 38 68 3f 36 29 97 b8
       -0.31172043 -2.4704896e-05 0.90711945 -7.207917e-05
0000c0 b6 91 9d b8 7b 5a 15 b8 d6 75 cc bd 0b eb 45 b4
       -7.513484e-05 -3.5608635e-05 -0.09983413 -1.8432563e-07
0000d0 10 02 3e bd 2a 03 d5 3d 93 70 b3 3e 6f 1a b3 3e
       -0.046388686 0.10400994 0.35046825 0.34981105
0000e0 89 e2 25 3f fd 0d 1e 3f d8 0c d2 be a2 51 32 b6
       0.6479879 0.61740094 -0.41025424 -2.6571583e-06
0000f0 88 7c b9 3e 4f 13 d4 3e 1e ac 29 ba 07 da 5f 3e
       0.36227822 0.4142098 -0.0006472486 0.21860515
000100 60 4b e6 b7 9a af 10 b6 5d a7 81 3e 44 43 be 3e
       -2.7453236e-05 -2.1559886e-06 0.25323 0.37160695
000110 fa 13 94 3e 3f 1b 87 3e 5d be bf 3d b8 b9 a3 3e
       0.2892149 0.26387975 0.09362481 0.3197763
000120 22 da 87 3d 20 73 fe ba 3b 25 c8 3e ea 64 08 3d
       0.066334024 -0.0019412972 0.39090905 0.033299364
000130 0f 0b 24 3f a0 cb 5c b3 7e bc 33 be ea 4f 0a b4
       0.64079374 -5.1407937e-08 -0.17552373 -1.2881324e-07
000140 30 f7 af bc f9 fd 3b 3e e4 2d 21 3d de f9 37 3e
       -0.021480173 0.18358602 0.039350405 0.1796641
000150 09 33 b7 3d da e7 21 3e 3c 1b 78 3e a6 3c ff 3e
       0.08945281 0.158111 0.24229139 0.4985096
000160 3f 82 02 3e e1 ae ab 3d c2 ce 7e 3e 33 5e 57 3e
       0.12744997 0.08382965 0.2488356 0.21032028
000170 11 a2 1d b7 ec 9a 11 3f 8e c8 6e 3e 31 96 33 b4
       -9.395663e-06 0.5687702 0.23318693 -1.6725313e-07
000180 87 8e de b5 77 3a 51 3e 46 1f cc 3d b2 4b b6 3d
       -1.658177e-06 0.20432459 0.099669024 0.089011565
000190 af ea 9e b3 36 6d 86 3e c5 a5 53 3e ee 83 d5 3d
       -7.400137e-08 0.26255196 0.20668705 0.10425554
0001a0 82 7a ba 3e 32 a3 39 3e d6 fa 2b 3e 6f 3d 81 3e
       0.3642159 0.1812866 0.16794905 0.25242183
0001b0 3b 3d 00 3e 81 35 20 3d c8 fc 6b 3d 24 f6 74 3d
       0.12523358 0.039113525 0.057614118 0.05980505
0001c0 17 66 7d b6 98 b7 e9 b4 b7 ee 06 b3 c5 8d 49 b5
       -3.7759362e-06 -4.3533214e-07 -3.1416416e-08 -7.5084637e-07
0001d0 56 fd bf 3e 00 e9 4a bc c4 38 9d 3e 81 86 47 3e
       0.37497967 -0.012384653 0.3070737 0.19484903
0001e0 27 2a fb b3 40 b2 7d bc b4 f7 98 3e 05 5d bc 3e
       -1.1695766e-07 -0.015484393 0.29876482 0.36789718
0001f0 7a 6f a6 3d 38 31 78 be e1 c4 91 bd b0 69 5b 3f
       0.08126731 -0.24237525 -0.0711763 0.8570814

onnx::Mul_3366 f4 [1, 128, 1, 1]
000000 99 c8 40 40 9d 55 b8 40 1d 39 21 40 be 59 26 40
       3.0122435 5.760451 2.519111 2.5992274
000010 66 5a 56 41 82 86 0d 41 40 f1 da 40 f3 45 1e 39
       13.39707 8.845339 6.8419495 0.00015094112
000020 0b 61 f4 40 5b f7 ba 40 71 24 8e 40 37 b9 ab 40
       7.636846 5.8426948 4.4419484 5.366359
000030 78 ca 28 40 d2 74 42 40 e9 32 e1 3f 33 db 39 40
       2.6373577 3.0383801 1.7593662 2.9040039
000040 6d 31 8d 40 1b 0a 10 41 d3 d6 52 40 26 fa 60 40
       4.4122834 9.002467 3.2943618 3.5152678
000050 52 5e 9f 40 1f 10 6f 40 66 c7 ec 37 47 32 01 41
       4.9802637 3.735359 2.8226244e-05 8.074775
000060 2b 7f dd 3c 28 fd 05 3f 70 8d 10 3f fb 77 f7 3e
       0.027038177 0.5233941 0.56465816 0.48333725
000070 7f d1 28 41 e7 f0 a2 40 2e b8 1b 41 af 01 e6 40
       10.5511465 5.091907 9.732466 7.1877055
000080 25 0c 5c 40 8b 79 e2 40 92 7a be 40 76 73 81 40
       3.4382412 7.077337 5.952462 4.0453444
000090 25 02 56 40 f5 f5 bc 40 d0 9a 3b 40 e7 99 2f 40
       3.343881 5.905024 2.931324 2.7437685
0000a0 da 3b af 40 45 48 1e 41 57 34 d4 40 91 59 2b 41
       5.476056 9.892644 6.631389 10.709367
0000b0 e1 bc 05 41 f9 6e c6 40 ee 20 e3 40 85 2b 18 41
       8.358613 6.2010465 7.0977697 9.510625
0000c0 0d 1d c9 40 97 3b b6 40 7c c4 06 39 06 97 ca 40
       6.284796 5.694774 0.00012852432 6.3309355
0000d0 72 da 3c 40 d3 17 a3 40 a5 d2 38 40 d0 f7 c8 40
       2.9508328 5.096658 2.8878567 6.2802505
0000e0 85 fd 1e 40 fe 11 c4 40 b8 9d 38 40 16 95 36 40
       2.4842236 6.1271963 2.8846264 2.8528495
0000f0 81 23 20 41 9c 9c fa 40 4d 1a 77 40 f2 22 b1 40
       10.008668 7.8316174 3.8609803 5.535516
000100 af 63 f2 40 58 24 24 40 d5 84 4e 40 e9 11 9b 40
       7.5746684 2.5647182 3.2268574 4.8459363
000110 cb 62 3b 40 a1 04 03 40 ed 1c 4c 40 8e f0 1e 40
       2.9279048 2.0471575 3.1892655 2.4834323
000120 48 f7 02 41 8c c9 b5 40 2d 34 9d 40 ce 76 a7 40
       8.185371 5.680853 4.912619 5.2332525
000130 f7 a1 ef 3f 62 eb 1c 40 29 46 81 40 50 2c 22 40
       1.8721303 2.4518666 4.0398145 2.5339546
000140 b3 3e 62 40 c1 b2 8f 40 0f 8a 2d 40 78 6d 54 40
       3.5350769 4.4905705 2.7115514 3.3191814
000150 7a d3 41 40 78 82 a0 40 73 b7 06 40 da d1 24 40
       3.0285325 5.0159264 2.1049469 2.5753083
000160 d6 02 2e 40 23 bb 6b 40 b2 42 4d 40 81 41 62 40
       2.718923 3.683297 3.2071958 3.535248
000170 06 b1 ff 3f eb 58 1e 40 00 23 21 38 b8 80 2d 40
       1.9975898 2.4741771 3.8417988e-05 2.7109814
000180 ee bd ff 40 40 2b e6 40 80 37 3f 41 31 bf d2 40
       7.991935 7.1927795 11.95105 6.585839
000190 80 ee 3d 40 63 8a b7 40 da 3b dd 40 7d 7d a7 40
       2.967682 5.735643 6.913556 5.2340684
0001a0 e4 c1 7d 40 5a 42 ed 40 02 f1 a2 40 36 04 c8 40
       3.9649591 7.4143496 5.09192 6.250514
0001b0 8a 3e 46 40 ed a2 6e 40 be 37 35 40 16 39 2e 40
       3.097567 3.7286942 2.8315272 2.7222342
0001c0 29 17 75 39 56 72 ba 39 2b d0 f2 39 cc d2 bc 37
       0.00023373649 0.00035561871 0.00046312934 2.2509506e-05
0001d0 48 97 db 3f e8 58 4e 40 0b 8f ef 3f 01 70 3b 40
       1.7155542 3.2241764 1.8715528 2.9287112
0001e0 ec ab cb 40 2b 15 a8 40 18 20 40 40 d7 8b a8 40
       6.3647366 5.252584 3.0019588 5.2670703
0001f0 bb 72 c3 40 49 1f 9d 40 48 28 56 40 97 bf 99 40
       6.107755 4.910069 3.3462086 4.8046374

onnx::Add_3368 f4 [1, 128, 1, 1]
000000 80 5e 87 3e 55 27 61 be 29 d4 ac 3e 78 57 22 3e
       0.26439285 -0.2198766 0.33755615 0.15853679
000010 74 b0 a5 3e 84 44 ab bd 1a 51 a8 be bd 06 66 b5
       0.32361186 -0.08362678 -0.32874376 -8.569148e-07
000020 a5 b6 40 be 20 44 18 bb 78 d1 51 3e a8 98 13 bd
       -0.18819673 -0.0023233965 0.20490062 -0.036034256
000030 0c 7a 22 3e db c2 0c 3e b4 37 de bd 21 44 f5 be
       0.1586687 0.13746206 -0.10850468 -0.4790354
000040 2e 9e e5 3d a3 30 5f 3d 1b dc fe 3d e1 b0 06 3e
       0.11211811 0.054489743 0.124443255 0.13153411
000050 65 cf 86 3e 47 27 0f 3e 24 d0 e2 b4 52 42 69 be
       0.26330104 0.13979827 -4.2247223e-07 -0.22779205
000060 14 4f d4 b9 15 23 dc 37 b1 72 07 3b aa 1a cb b9
       -0.0004049471 2.624238e-05 0.0020667727 -0.00038739044
000070 8e 83 d6 bd cc 02 35 be 2a df fe be 23 73 9f 3e
       -0.10474311 -0.17676848 -0.49779636 0.3114253
000080 a3 59 fa 3d 4d 38 ba be 31 96 2e 3e cc 92 84 bc
       0.12224128 -0.3637108 0.17049481 -0.01618328
000090 0a b1 b5 3d fc 2a 0c 3e 76 58 16 3e 9b 02 c1 3d
       0.08871658 0.13688272 0.14682183 0.09424325
0000a0 c0 09 85 bc c0 16 cf be 68 4b 59 3e dc 2a 11 3c
       -0.01624 -0.40447044 0.21220171 0.008860316
0000b0 84 f0 4d 3e 4a 26 eb 3c c0 9d a1 3e 18 b3 17 bd
       0.2011128 0.028704781 0.31565666 -0.03703603
0000c0 d1 26 1e 3e 29 f1 05 3e 94 7e 81 b5 4d 77 a8 3d
       0.15444495 0.13080277 -9.648088e-07 0.0822588
0000d0 84 0c 54 3e f4 85 65 3d 40 37 64 3e d4 83 35 bd
       0.207079 0.05603595 0.22286701 -0.044315174
0000e0 a6 f2 5a 3e 44 9e 9e be bb 17 a8 3e ae a6 24 3e
       0.21381626 -0.30980122 0.32830605 0.16079208
0000f0 75 23 9c bc a4 d6 f1 bd 2c bc 04 3e a4 75 8e 3d
       -0.019059876 -0.118085176 0.12962407 0.06956032
000100 a8 f2 56 be 08 d6 2c 3e ea 60 1e 3e 8c cb 06 3d
       -0.20991004 0.16878521 0.15466657 0.03290896
000110 30 8b b5 3e 2c 8e 53 3d 61 7a e6 3d 2e f8 7e 3d
       0.35457754 0.051649258 0.11253811 0.0622484
000120 61 d2 02 be c6 31 9b 3e 3f be b5 3d c0 7e d6 3d
       -0.12775566 0.30311412 0.08874177 0.104733944
000130 98 a6 af bd 18 80 1e 3e 0f 99 c2 be b6 b8 10 3e
       -0.08576697 0.15478551 -0.380074 0.14132962
000140 5f 33 05 3e eb 47 48 3e 22 18 f8 3e e4 9b a3 3e
       0.13007878 0.19558685 0.48455912 0.31954873
000150 e6 8f 8d 3e ce 02 24 be d0 08 da 3d 1b 71 04 3e
       0.27648848 -0.16016695 0.10646212 0.12933771
000160 e5 81 0e 3e 4c 0e 10 3e 65 b1 9d 3d 7f 33 fc 3d
       0.13916738 0.14067954 0.07699851 0.123145096
000170 f2 60 50 be 76 5d 07 3e c6 bb 9b b4 4c 0b 11 3e
       -0.20349482 0.13219246 -2.9007623e-07 0.14164466
000180 0e 8f 20 3e 8a c5 f6 bd c5 97 ac bc c0 0c 30 3d
       0.15679571 -0.12049396 -0.021068463 0.04298091
000190 e2 f9 af 3d ce 52 0b bd 26 9a 95 be fa 38 33 3d
       0.08592583 -0.034014516 -0.29219168 0.04375551
0001a0 cc fe 42 3d b1 2b 5e be 60 8a 3d 3c cc db e3 3b
       0.047606274 -0.21696354 0.011568636 0.006953692
0001b0 7a 2f aa 3d cb bb 21 3e 0a 14 b9 3e d9 40 85 3d
       0.08309837 0.15794294 0.361481 0.06506509
0001c0 0b d8 29 35 99 83 6a 35 84 64 02 b6 8e 01 15 b5
       6.327179e-07 8.736329e-07 -1.9430017e-06 -5.550909e-07
0001d0 38 35 ab 3e 64 69 99 3c d3 52 a6 3e 00 5d e1 3e
       0.3343904 0.018727012 0.32485065 0.44016266
0001e0 03 3e 14 be e0 0c fa be 2b 3d 3e 3e c2 41 80 3e
       -0.1447678 -0.48837948 0.18578021 0.2505017
0001f0 20 93 87 be 9f 91 2e 3e 36 aa 8d 3e b4 4f 89 bb
       -0.26479435 0.17047738 0.27668923 -0.0041904096

onnx::Mul_3396 f4 [1, 128, 1, 1]
000000 6d 38 c0 3f ec 0f 85 3f ac 22 37 3f e6 16 11 3f
       1.501722 1.0395484 0.7153728 0.56675565
000010 b4 dc 8f 3f f9 5e 9c 3f 06 87 58 3f 6b 87 93 3f
       1.1239228 1.2216483 0.8458103 1.1525701
000020 1d e5 b3 3f 5f 1b 91 3f 3b 53 a7 3f fd 38 a9 3f
       1.4054295 1.1336478 1.3072275 1.3220516
000030 39 5b 24 3a e7 f3 d0 38 e0 10 cd 38 cb dd bd 39
       0.0006269697 9.963643e-05 9.778305e-05 0.00036214138
000040 3f 00 b2 3f e5 f4 3c 3f a4 de 8e 3f 29 3a 5a 3f
       1.3906325 0.7381118 1.1161695 0.85244995
000050 f4 6f 61 37 f5 42 8a 3f 4a 69 99 3f c5 a1 65 3f
       1.3437111e-05 1.0801684 1.1985257 0.89699966
000060 e7 51 2c 3f 8e 04 a0 3f 57 5b b0 3f 38 4e 6f 3f
       0.67312473 1.250139 1.3777875 0.9347873
000070 72 75 90 3f ba 01 95 3f b6 3b 93 3f 48 07 09 40
       1.1285841 1.1641152 1.1502597 2.1410694
000080 40 e7 a9 3f d6 6e ec 39 b7 a0 9e 3f 4b a0 0f 37
       1.3273697 0.00045096007 1.2392796 8.560785e-06
000090 62 b4 67 36 2c be 3f b7 72 fb 62 37 87 87 81 3f
       3.452668e-06 -1.1428765e-05 1.3529194e-05 1.0119485
0000a0 31 65 8d 3f 86 d1 86 3f 6f 59 93 3f 64 cc 25 3f
       1.1046506 1.0532691 1.1511668 0.64765
0000b0 16 5c 9a 3f 3b c0 8e 3f ad 3c c9 3f a1 60 88 3f
       1.2059352 1.1152414 1.5721642 1.0654489
0000c0 01 0a 78 3f 19 10 eb b5 ae 66 21 3f ef 0c 6a 3f
       0.96890265 -1.751355e-06 0.630473 0.91425985
0000d0 5b 9e 80 3f ce 34 9b 3f 4b 5a 5f 3f 83 d7 7a 3f
       1.0048326 1.212549 0.8724715 0.97985095
0000e0 db 01 a3 3f d9 90 94 3f 34 32 a6 3f ac 0e 94 3f
       1.2734941 1.1606704 1.2984071 1.1566978
0000f0 e7 1c 51 3f 8d 06 93 3f 27 c8 99 3f d8 af a5 3f
       0.81684726 1.1486374 1.2014207 1.2944288
000100 fb 46 7f 3f 9e b3 d3 3f 19 fe b6 3f 20 40 28 3f
       0.9971768 1.653919 1.4296294 0.65722847
000110 64 9a b8 3a 1f d8 98 38 ce 20 8e 3c 9d fe e5 b9
       0.0014084098 7.2881805e-05 0.017349627 -0.00043867985
000120 34 53 66 39 82 a1 b7 3f 79 96 e0 3f 19 cb 97 3f
       0.00021965505 1.4346163 1.7545921 1.1858855
000130 be cd be 3e 7e 08 86 3f dc c9 8d 3f f4 75 ca 3f
       0.37266344 1.0471342 1.1077228 1.5817246
000140 86 75 b7 3f 58 6b 97 3f ac e7 6d 3f 31 77 a0 3f
       1.433274 1.1829634 0.9293163 1.2536374
000150 af f9 5f 3f 65 89 55 3f 5b e9 9b 3f 06 cc b2 3f
       0.8749036 0.8341277 1.218059 1.3968513
000160 8e ac 8d 3f d9 13 96 3f 94 db 8f 3f 66 f5 84 3f
       1.1068285 1.1724807 1.1238885 1.038739
000170 f4 85 6b 3f 42 83 a1 3f cf df 96 3f 30 35 f8 3f
       0.9200127 1.2618182 1.1787051 1.9391232
000180 5b bf 8d 3f b3 a3 32 38 1e 9b 05 39 39 ca 37 38
       1.1074022 4.2590964e-05 0.00012741654 4.3818935e-05
000190 74 18 88 3f b5 94 24 3f 4b cf bd 3f 7e ce 51 3d
       1.0632463 0.6428941 1.4828886 0.051222317
0001a0 57 c8 f0 36 bb 33 aa 36 b5 f9 b3 37 9b 0a 9d 37
       7.17588e-06 5.072417e-06 2.1454742e-05 1.8720797e-05
0001b0 12 c3 9f 3f 19 15 af 3f 81 18 b6 3b 6a 64 a9 3f
       1.2481406 1.3678313 0.0055571203 1.3233769
0001c0 d2 67 8a 3f 4c f2 aa 3f 42 85 a8 3f 3b ce f1 3f
       1.0812933 1.3355193 1.3165667 1.8891062
0001d0 9c 90 a8 3f 65 24 a2 3f 76 40 9a 3f 6a 40 cb 3f
       1.3169131 1.2667357 1.2050922 1.5879033
0001e0 33 4a ad 3f 1b 63 8e 3f c0 d6 8b 3f 97 37 88 3f
       1.3538269 1.1123995 1.0924911 1.0641965
0001f0 04 9a 2f 3a 20 d2 ad 39 e7 d9 1e 3c 02 7f 83 37
       0.00066986703 0.00033153687 0.009695507 1.567556e-05

onnx::Add_3398 f4 [1, 128, 1, 1]
000000 14 9c 1e bd e6 a4 6f 3e 3d 1e 7c 3d e3 69 ca 3e
       -0.038723066 0.23402748 0.061552275 0.3953391
000010 d6 c9 c7 bd f2 6f c9 bd b8 cd 47 3e bc d1 5b be
       -0.09755294 -0.09835805 0.19512069 -0.21466726
000020 51 5c 9b 3d 42 0a 51 bd 22 b0 04 3e 8d 56 10 be
       0.07585967 -0.051035173 0.12957814 -0.14095517
000030 e9 43 16 b7 3a 80 9b b5 b8 bc c4 b5 6e 58 c0 b6
       -8.956508e-06 -1.1585719e-06 -1.4658062e-06 -5.7323405e-06
000040 7a 9c 0e 3e a4 3f b8 3e e8 e0 0d 3c 7d 85 92 3d
       0.13926879 0.35986054 0.008659579 0.07154367
000050 22 2c 4c b4 95 04 5c 3e d6 7f 8c 3e 7a ac 23 be
       -1.9015036e-07 0.21486123 0.2744128 -0.15983763
000060 56 05 92 3e ba 5d b4 bd 80 cf 46 3e fe 1a a1 bd
       0.28519696 -0.088069394 0.19415092 -0.078664765
000070 77 e4 41 bd 48 d8 20 be 85 64 41 3e d3 6a 2f bd
       -0.04733702 -0.15707505 0.18886001 -0.042826485
000080 5e 52 97 bd c3 61 b0 b6 80 78 c9 3a 81 be e0 b3
       -0.07388757 -5.2565897e-06 0.0015370995 -1.0465465e-07
000090 6a 12 a7 b3 3a 32 30 b5 de 1d ac b4 84 e2 26 3e
       -7.779893e-08 -6.56382e-07 -3.2059228e-07 0.16297346
0000a0 f0 05 0d bd 62 2b 91 3e f4 3f bb bc 1e 6d eb 3e
       -0.03442949 0.2835341 -0.022857644 0.45981687
0000b0 59 95 be 3d 93 01 e4 3d 70 71 4c 3e 18 ca 49 be
       0.093058296 0.11133113 0.19965148 -0.19705999
0000c0 b1 3c 91 3d 8f 61 5a b4 98 b2 b7 3e 4e f8 15 3e
       0.07091654 -2.0338324e-07 0.35878444 0.14645502
0000d0 1a 7a aa 3e 18 68 62 be 09 80 b9 3d b8 76 db bb
       0.3329628 -0.22110021 0.09057624 -0.006697502
0000e0 25 c4 6e 3e 90 b5 84 3e f6 44 03 be 50 b2 da 3c
       0.2331701 0.2591977 -0.12819275 0.026696354
0000f0 f6 69 06 3e 6c 83 49 be ce bb d1 bc a6 d4 3c 3e
       0.13126358 -0.1967904 -0.025602248 0.18440494
000100 1b b0 19 be 5d 61 ac bd 98 93 83 3e 2a f5 a7 3e
       -0.15008585 -0.08417008 0.25698543 0.32804233
000110 58 b2 70 b7 7a b6 6c b5 ef b1 c5 b9 d8 68 3b b7
       -1.4346639e-05 -8.818239e-07 -0.0003770734 -1.1170479e-05
000120 73 63 51 b6 da 36 fc 3d 25 3d 44 bd 44 b4 b2 3c
       -3.1201314e-06 0.123151496 -0.047909874 0.021814473
000130 c9 1b 9c 3e 18 0c a0 be f2 d4 7c bd 7c fe 8e be
       0.30489948 -0.31259227 -0.061726518 -0.2792853
000140 43 14 50 bd b4 80 d0 bd 96 8d 01 3e 1e 4a 82 be
       -0.050800573 -0.10180798 0.12651667 -0.25447172
000150 fc c6 79 3e 5c 15 a1 3c 54 20 44 3e f1 48 5e bd
       0.24392313 0.019663505 0.19152957 -0.05426878
000160 c2 52 f1 3c 0c 38 d2 bd 60 8d 66 3e b9 4b 02 3e
       0.029458407 -0.10264596 0.22514868 0.12724198
000170 4a 99 65 bd 2e 22 30 be 88 cd 0a 3f 77 d2 80 3e
       -0.05605439 -0.17200539 0.54219866 0.25160572
000180 06 f2 6a 3c dc 11 32 b6 6b 24 a4 b5 64 85 63 b5
       0.014339929 -2.6534462e-06 -1.2229551e-06 -8.47582e-07
000190 9f 08 ea 3d df 01 94 3e 90 01 4a be e0 94 f0 ba
       0.114274256 0.28907678 -0.19727159 -0.0018354915
0001a0 73 76 82 b3 f7 cd 96 b3 f1 d7 8f b4 c0 43 a4 b4
       -6.0751425e-08 -7.022384e-08 -2.6792944e-07 -3.0596675e-07
0001b0 d2 3d 70 3d 8a ff 0d 3f 56 84 30 b8 54 aa f1 3c
       0.058652706 0.55468047 -4.2084917e-05 0.029500164
0001c0 13 9d 3b 3e 3f 65 0d 3e c8 56 29 3d 3e b8 74 3e
       0.18321638 0.13808154 0.041342527 0.23898408
0001d0 02 fa 91 3e 4d ca 59 3e 0d 20 2f 3d d6 d7 48 3e
       0.28511053 0.21268578 0.042755175 0.19613585
0001e0 52 12 aa 3e 60 8d 5d 3d 5b fe 38 3d 5e 69 83 3d
       0.33217102 0.054089904 0.045164447 0.064165816
0001f0 bc d7 0d b7 a3 50 9c b6 65 59 5b b9 89 e9 96 b4
       -8.4544845e-06 -4.6585496e-06 -0.0002091877 -2.8109596e-07
