inputs/examples/workloads/vww_MobileNetV1_inferred.onnx (onnx, 162069 bytes, 30 tensors)

model/batch_normalization_1/FusedBatchNormV3;model/depthwise_conv2d/depthwise;model/depthwise_conv2d/BiasAdd;model/depthwise_conv2d/BiasAdd/ReadVariableOp/resource f4 [8, 1, 3, 3]
-0.77279264 -0.05526135 -0.79902625 1.1271603 1.3253485 0.41651958 0.44311583 0.46310607
-0.94457364 -1.6590486 0.09040694 -0.09804281 1.1377156 0.64133894 -0.3961067 1.8568532
0.9621643 -1.5201718 -0.5196807 -0.21624933 -0.07981612 0.11461227 0.54646313 -0.18487859
0.93036896 0.5148891 -0.006515931 -0.5156449 -0.343496 -0.058188427 0.33203596 -0.020031974
-0.053035125 -0.018112749 2.458741 -0.88618356 -0.58455163 -0.59397095 0.37382093 0.7606419
0.49072373 -0.9105994 0.7368869 1.875533 -1.0639453 -3.1897519 3.1829712 2.7332017
1.3114538 -7.11155 1.3362237 0.9393019 2.805847 -4.6013336 1.6315118 0.024928184
0.95074105 -2.055267 -2.5442817 0.25402382 0.6843183 -1.4505671 1.4960136 0.73491144
0.88800836 -0.45805597 -0.24454841 -2.2797914 0.68780637 -1.312492 -1.1335733 1.0806652
00000000: bdd5 45bf ba59 62bd fc8c 4cbf ca46 903f
00000010: 05a5 a93f 0e42 d53e 14e0 e23e 3d1c ed3e
00000020: 94cf 71bf b45b d4bf 4627 b93d abca c8bd
00000030: aaa0 913f ca2e 243f 7fce cabe 5ead ed3f
00000040: 6650 763f fd94 c2bf cb09 05bf 7770 5dbe
00000050: a276 a3bd d6b9 ea3d 02e5 0b3f d050 3dbe
00000060: a92c 6e3f c6cf 033f 9783 d5bb 4e01 04bf
00000070: b5de afbe fd56 6ebd 9e00 aa3e 181a a4bc
00000080: 5c3b 59bd 3061 94bc 035c 1d40 eddc 62bf
00000090: 2da5 15bf 7b0e 18bf 7565 bf3e 6db9 423f
000000a0: 2440 fb3e 0b1d 69bf 9fa4 3c3f 7711 f03f
000000b0: 5c2f 88bf e524 4cc0 cdb5 4b40 c7ec 2e40
000000c0: b8dd a73f d191 e3c0 6109 ab3f 1776 703f
000000d0: ff92 3340 203e 93c0 61d5 d03f 3136 cc3c
000000e0: c463 733f 7f89 03c0 83d5 22c0 690f 823e
000000f0: 7c2f 2f3f 2fac b9bf 607d bf3f 2823 3c3f
00000100: 8454 633f 5086 eabe e66a 7abe 1ae8 11c0
00000110: 1414 303f bdff a7bf ee18 91bf 3d53 8a3f

model/activation_3/Relu;model/batch_normalization_3/FusedBatchNormV3;model/depthwise_conv2d_1/depthwise;model/depthwise_conv2d_1/BiasAdd;model/depthwise_conv2d_1/BiasAdd/ReadVariableOp/resource f4 [16]
-0.15907681 1.2940959 1.9603742 0.04447803 3.2097359 0.26525113 0.054616928 1.8544441
1.1116884 -1.4001896 -0.17341155 3.493563 -0.69778454 -0.8433772 1.1282969 1.5278151
00000000: 08e5 22be efa4 a53f 8bed fa3f 982e 363d
00000010: 506c 4d40 ffce 873e 00b6 5f3d 6d5e ed3f
00000020: ce4b 8e3f 6a39 b3bf cc92 31be 8996 5f40
00000030: 02a2 32bf 91e7 57bf 086c 903f 728f c33f

model/activation_1/Relu;model/batch_normalization_1/FusedBatchNormV3;model/depthwise_conv2d/depthwise;model/depthwise_conv2d/BiasAdd;model/depthwise_conv2d/BiasAdd/ReadVariableOp/resource f4 [8]
-0.16650242 -0.063756526 -0.24885689 0.64883214 -0.025461793 2.8880346 1.5749964 1.6988808
00000000: 9c7f 2abe c892 82bd 57d4 7ebe dd19 263f
00000010: 4095 d0bc 8fd5 3840 7b99 c93f ed74 d93f

model/conv2d_10/Conv2D f4 [128, 128, 1, 1]
2.8123115e-32 1.7861895e+25 5.521098e+28 0.00094769045 6.403623e-33 1.0383677e-34 3.0478287e+32 8.540193e-33
1.7666526e+22 3.235991e+21 1.4344194e-08 6.040687e+28 713.85046 2.509053e+27 1.1092732e+27 7.205948e+31
7.145193e+31 2.1685555e-10 2.9966726e+32 1.7666571e+22 8.089977e+20 4.296496e+24 4.7424223e+30 1.7860411e+25
1.8464889e+25 11227.608 1.6930496e+22 4.5080137e+21 4.739949e+30 0.0027364746 6.7422188e+22 7.0310427e+28
1.3168217e+22 2.6892877e+20 1.6842295e+22 2.6438915e+20 4.4632683e+30 1.094709e+27 2.185608e-10 7.5327497e+28
6.7130534e+22 1.7666571e+22 3.235991e+21 1.4344194e-08 1.4672213e+25 1.4274142e+22 7.3419746e+28 2.1500096e-10
7.618455e+31 1.8497116e+31 7.036842e+28 1.3168217e+22 2.8397273e+29 1.8693621e+25 3.6247713e+27 1.1092732e+27
1.8521706e+28 2.0754407e-10 1.2090071e+33 -149776.78 5.1990532e+07 1.1486073e-08 9.073429e+14 12369.593
1.7666611e+22 2.0224943e+20 1.1837556e+33 7.22507e+28 6.2035743e+22 3.6259782e+27 1.1092732e+27 7.142689e+31
1.7285338e+28 2.7375776e+20 2.8870515e+20 1.85236e+28 1.943262e+31 2.241189e+20 9.74708e+08 6.5268936e+13
7.3419515e+28 2.1500096e-10 1.2090096e+33 43.847847 15.211282 1.8832589e+11 6.277674e+13 2.6914583e+20
3.8490854e+09 7.1480485e+22 4.861348e+30 3.6247666e+27 1.1092732e+27 1.8521706e+28 2.0754407e-10 1.7858912e+31
0.0034849795 6.7422188e+22 6.7348396e+22 4.7147442e+33 1.6533674e+19 1.2090096e+33 1.29416e+22 4.617323e+24
7.1842534e+22 1.7666571e+22 3.235991e+21 1.4344194e-08 6.040687e+28 713.85046 7.350598e-38 836709.25
2.990888e+09 1.5586481e+19 1.4285776e+19 6.7422188e+22 4.1539345e+21 2.840936e+20 1.85236e+28 1.10892845e+27
7.3419826e+28 2.1500096e-10 4.5080227e+21 7.377277e+28 1.0901006e+27 7.1456883e+31 2.1685555e-10 7.185615e+22
7.1387534e+31 6.388011e+28 4.9925298e-08 1.7666571e+22 3.235991e+21 1.4344194e-08 1.4672213e+25 1.4274142e+22
6.20357e+22 2.4717727e+20 1.0395289e+21 2.5674403e+29 1.8178587e+31 4.472574e+21 7.341975e+28 2.1500096e-10
1.2090096e+33 43.847847 15.211282 3.6246914e+27 1.1092732e+27 2.8397273e+29 1.8693621e+25 4.120934e+21
1.4344194e-08 6.734836e+22 4.7147442e+33 0.0035011417 6.7422188e+22 7.0310427e+28 1.3168217e+22 1.8512034e+28
2.8550438e-09 6.0354573e+28 5.3788517e-28 1.7229861e+25 1.8464873e+25 3.8036153 -1.0947902e-19 1.3098431e-31
4.5758163e+30 3.1078562e-24 9.523342e-38 1.0637502e-31 1.8754495e+28 1.7701427e+31 7.09478e+22 5.642746e-37
1.1990972e-13 1.6345676e+29 3.8030016 2.0039062 -1.0947902e-19 3.3531984e-29 7.701849e+31 6.7415293e+22
2.0351837 9.751903e-35 6.393004e-33 13568.445 3396.581 8.6532416e+08 12.398277 7.3463126e+28
2.1500096e-10 1.846545e+25 1.8464884e+25 1.8836801e+11 0.0037448641 6.7422188e+22 2.6077383e+20 1.6745355e+19
4.6893802e+27 3.0300084e+35 7.22507e+28 2.5122968e+32 57.09907 4.296496e+24 4.6893707e+27 3.620985e+27
1.1092732e+27 1.8521706e+28 2.0754407e-10 1.7858912e+31 2.0772097e-10 1.6631273e+22 1.8313732e+25 6.976833e+22
3.4749216e+30 3.035399e+32 0.00350019 6.7422188e+22 7.0310427e+28 1.3168217e+22 2.6892877e+20 1.6842295e+22
1.7666571e+22 1.2943963e+22 4.617323e+24 7.1842534e+22 1.8521762e+28 2.0754407e-10 7.618455e+31 1.8497116e+31
7.341975e+28 2.1500096e-10 1.2090096e+33 175.39139 1.4344194e-08 -3.4854995e-05 1.7666506e+22 2.0224943e+20
1.1837556e+33 7.22507e+28 6.2035743e+22 3.6259782e+27 1.1092732e+27 7.142689e+31 1.7285338e+28 2.7375776e+20
2.8870515e+20 1.85236e+28 1.943262e+31 2.241189e+20 9.74708e+08 6.5268936e+13 7.3419515e+28 2.1500096e-10
00000000: 0806 120b 7466 6c69 7465 326f 6e6e 783a
00000010: 80ff 040a d205 0a07 696e 7075 745f 310a
00000020: 136d 6f64 656c 2f63 6f6e 7632 642f 436f
00000030: 6e76 3244 0ab7 016d 6f64 656c 2f61 6374
00000040: 6976 6174 696f 6e2f 5265 6c75 3b6d 6f64
00000050: 656c 2f62 6174 6368 5f6e 6f72 6d61 6c69
00000060: 7a61 7469 6f6e 2f46 7573 6564 4261 7463
00000070: 684e 6f72 6d56 333b 6d6f 6465 6c2f 636f
00000080: 6e76 3264 2f42 6961 7341 6464 2f52 6561
00000090: 6456 6172 6961 626c 654f 702f 7265 736f
000000a0: 7572 6365 3b6d 6f64 656c 2f63 6f6e 7632
000000b0: 642f 4269 6173 4164 643b 6d6f 6465 6c2f
000000c0: 6465 7074 6877 6973 655f 636f 6e76 3264
000000d0: 2f64 6570 7468 7769 7365 3b6d 6f64 656c
000000e0: 2f63 6f6e 7632 642f 436f 6e76 3244 12c8
000000f0: 0154 464c 4954 4532 4f4e 4e58 5f46 4146
00000100: 5f6d 6f64 656c 2f61 6374 6976 6174 696f
00000110: 6e2f 5265 6c75 3b6d 6f64 656c 2f62 6174
00000120: 6368 5f6e 6f72 6d61 6c69 7a61 7469 6f6e
00000130: 2f46 7573 6564 4261 7463 684e 6f72 6d56
00000140: 333b 6d6f 6465 6c2f 636f 6e76 3264 2f42
00000150: 6961 7341 6464 2f52 6561 6456 6172 6961
00000160: 626c 654f 702f 7265 736f 7572 6365 3b6d
00000170: 6f64 656c 2f63 6f6e 7632 642f 4269 6173
00000180: 4164 643b 6d6f 6465 6c2f 6465 7074 6877
00000190: 6973 655f 636f 6e76 3264 2f64 6570 7468
000001a0: 7769 7365 3b6d 6f64 656c 2f63 6f6e 7632
000001b0: 642f 436f 6e76 3244 311a c801 5446 4c49
000001c0: 5445 324f 4e4e 585f 4641 465f 6d6f 6465
000001d0: 6c2f 6163 7469 7661 7469 6f6e 2f52 656c
000001e0: 753b 6d6f 6465 6c2f 6261 7463 685f 6e6f
000001f0: 726d 616c 697a 6174 696f 6e2f 4675 7365
00000200: 6442 6174 6368 4e6f 726d 5633 3b6d 6f64
00000210: 656c 2f63 6f6e 7632 642f 4269 6173 4164
00000220: 642f 5265 6164 5661 7269 6162 6c65 4f70
00000230: 2f72 6573 6f75 7263 653b 6d6f 6465 6c2f
00000240: 636f 6e76 3264 2f42 6961 7341 6464 3b6d
00000250: 6f64 656c 2f64 6570 7468 7769 7365 5f63
00000260: 6f6e 7632 642f 6465 7074 6877 6973 653b
00000270: 6d6f 6465 6c2f 636f 6e76 3264 2f43 6f6e
00000280: 7632 4431 2204 436f 6e76 2a12 0a09 6469
00000290: 6c61 7469 6f6e 7340 0140 01a0 0107 2a0c
000002a0: 0a05 6772 6f75 7018 01a0 0102 2a15 0a0c
000002b0: 6b65 726e 656c 5f73 6861 7065 4003 4003
000002c0: a001 072a 110a 0470 6164 7340 0040 0040
000002d0: 0140 01a0 0107 2a10 0a07 7374 7269 6465
000002e0: 7340 0240 02a0 0107 0ac7 040a c801 5446
000002f0: 4c49 5445 324f 4e4e 585f 4641 465f 6d6f
00000300: 6465 6c2f 6163 7469 7661 7469 6f6e 2f52
00000310: 656c 753b 6d6f 6465 6c2f 6261 7463 685f
00000320: 6e6f 726d 616c 697a 6174 696f 6e2f 4675
00000330: 7365 6442 6174 6368 4e6f 726d 5633 3b6d
00000340: 6f64 656c 2f63 6f6e 7632 642f 4269 6173
00000350: 4164 642f 5265 6164 5661 7269 6162 6c65
00000360: 4f70 2f72 6573 6f75 7263 653b 6d6f 6465
00000370: 6c2f 636f 6e76 3264 2f42 6961 7341 6464
00000380: 3b6d 6f64 656c 2f64 6570 7468 7769 7365
00000390: 5f63 6f6e 7632 642f 6465 7074 6877 6973
000003a0: 653b 6d6f 6465 6c2f 636f 6e76 3264 2f43
000003b0: 6f6e 7632 4431 12b8 016d 6f64 656c 2f61
000003c0: 6374 6976 6174 696f 6e2f 5265 6c75 3b6d
000003d0: 6f64 656c 2f62 6174 6368 5f6e 6f72 6d61
000003e0: 6c69 7a61 7469 6f6e 2f46 7573 6564 4261
000003f0: 7463 684e 6f72 6d56 333b 6d6f 6465 6c2f

model/activation_20/Relu;model/batch_normalization_20/FusedBatchNormV3;model/conv2d_10/BiasAdd/ReadVariableOp/resource;model/conv2d_10/BiasAdd;model/depthwise_conv2d_11/depthwise;model/conv2d_10/Conv2D f4 [128]
-0.24900666 -0.20303182 -0.052705683 -0.17993665 -0.16911964 0.09567223 -0.30243027 -0.17222224
0.3230414 -0.059724554 0.080606475 -0.1549187 -0.17281805 -0.25489804 -0.044736855 -0.019717997
0.3263504 -0.13875584 -0.12796232 -0.22089697 -0.21221614 0.20196286 0.05598756 -0.0464764
-0.06633009 0.29995814 0.043109793 0.040970813 -0.14486955 -0.022797786 -0.17971063 0.56594676
0.00032375753 -0.0548644 -0.058760628 -0.22272046 -0.27537107 -0.11166065 -0.11256158 -0.05593991
0.013083616 0.123039864 -0.139622 -0.066679224 0.007561356 -0.18668252 -0.08575737 -0.148317
-0.2656519 -0.018257966 -0.08334065 -0.06504945 -0.13571285 0.29649416 -0.13312869 0.043922506
-0.016573807 -0.15343009 -0.030894993 -0.22741318 -1.0763552 -0.07622924 -0.011164986 0.46306103
0.102372184 0.32212126 0.024109142 -0.07703784 -0.11259485 1.1472261 -0.103847384 0.37532824
-0.087717436 0.25167945 -0.16577828 -0.10139484 -0.10471492 -0.03409355 -0.099469565 -0.14734083
-0.19167176 0.25397158 -0.18084326 -0.10064219 -0.16849416 -0.18426244 -0.2935231 -0.440491
0.31638843 -0.06920273 0.13515991 -0.24228504 0.95392996 -0.04444782 -0.16220862 -0.01096707
-0.15087695 -0.09274646 -0.13921136 -0.10534614 0.38190773 -0.07772252 0.022279546 -0.18483484
-0.17609675 -0.011357013 0.61264575 0.022876915 0.32374334 0.021199752 -0.06822255 -0.16632262
-0.08786666 0.24938725 0.19493806 -0.0097696725 -0.01033666 -0.22913742 0.23637787 -0.020446112
-0.082225956 -0.07447198 -0.1776053 -0.042131066 0.36153707 -0.16529469 -0.09985627 -0.16391766
00000000: 9afb 7ebe 93e7 4fbe eae1 57bd 5041 38be
00000010: b32d 2dbe cdef c33d 24d8 9abe 075b 30be
00000020: af65 a53e bca1 74bd 0215 a53d 02a3 1ebe
00000030: 37f7 30be ff81 82be fe3d 37bd a387 a1bc
00000040: 6617 a73e 0316 0ebe 8e08 03be d132 62be
00000050: 304f 59be 5acf 4e3e 3653 653d 0a5e 3ebd
00000060: 12d8 87bd 1d94 993e e593 303d 03d1 273d
00000070: af58 14be 6cc2 babc 1006 38be e3e1 103f
00000080: 00be a939 7eb9 60bd fcae 70bd d510 64be
00000090: 70fd 8cbe 57ae e4bd b086 e6bd 3f21 65bd
000000a0: aa5c 563c 53fc fb3d 12f9 0ebe 1e8f 88bd
000000b0: 40c5 f73b b429 3fbe 8fa1 afbd 69e0 17be
000000c0: 8703 88be bb91 95bc 81ae aabd a538 85bd
000000d0: 4ff8 0abe 15ce 973e e352 08be 16e8 333d
000000e0: cbc5 87bc c71c 1dbe 7f17 fdbc 00df 68be
000000f0: 02c6 89bf 131e 9cbd 58ed 36bc 5616 ed3e
00000100: 82a8 d13d 14ed a43e 8980 c53c 04c6 9dbd
00000110: 2198 e6bd 4ed8 923f f0ad d4bd 062b c03e
00000120: 33a5 b3bd 21dc 803e c8c1 29be 19a8 cfbd
00000130: c774 d6bd aea5 0bbd b3b6 cbbd 84e0 16be
00000140: 9a45 44be 9008 823e fa2e 39be 7e1d cebd
00000150: bc89 2cbe 4baf 3cbe a948 96be 0988 e1be
00000160: aafd a13e 29ba 8dbd 5c67 0a3e 9219 78be
00000170: c134 743f eb0e 36bd 041a 26be 3aaf 33bc
00000180: 7d7f 1abe dbf1 bdbd 6c8d 0ebe b8bf d7bd
00000190: 6989 c33e fc2c 9fbd 9883 b63c 5845 3dbe
000001a0: b552 34be c412 3abc 5ad6 1c3f 5e68 bb3c
000001b0: b0c1 a53e 1aab ad3c 44b8 8bbd 7a50 2abe
000001c0: 6ff3 b3bd 5f5f 7f3e d89d 473e fa10 20bc
000001d0: 185b 29bc 00a3 6abe 0a0d 723e 9b7e a7bc
000001e0: 1566 a8bd c484 98bd 2ade 35be a091 2cbd
000001f0: 631b b93e 0343 29be 7281 ccbd 08da 27be

model/activation_18/Relu;model/batch_normalization_18/FusedBatchNormV3;model/conv2d_9/BiasAdd/ReadVariableOp/resource;model/conv2d_9/BiasAdd;model/depthwise_conv2d_11/depthwise;model/conv2d_9/Conv2D f4 [128]
-0.08105456 -0.0721029 -0.94040626 -0.04173698 -0.09141468 -0.12774196 0.5074113 -0.07979697
0.0061326735 -0.19876969 -0.115557455 -0.16129877 -1.6538178 -0.2338464 -0.1119738 -0.14605038
1.7100108 -0.22738372 0.027166834 0.058612023 -0.096459776 -0.16241685 -0.033136852 1.0946809
-0.15238473 -0.32621855 -0.129139 0.072321564 -0.2560067 -0.17218861 -0.10231965 -0.19186176
-0.22900146 -0.10116517 -0.7224539 -0.20623755 -0.21171856 -0.15933362 -0.24534507 -0.20519575
-0.23715205 -0.14411128 0.009928765 -0.173881 -0.14905074 -0.06800397 -0.09515915 -0.07039024
-0.06827047 0.5842723 -0.08293307 -0.1894658 -0.012151055 0.75751126 -0.13190071 -1.2610911
-0.13689011 -0.106858164 -0.18665819 -0.16710442 -0.19428433 -0.16514662 -0.14311832 -0.0796483
-0.06941646 -0.06759239 -0.24421188 -0.23155649 -0.22305827 -0.2766465 0.5331003 -0.16144526
-0.12207436 0.055045396 0.030778565 0.2952132 0.12920657 -0.11361916 -0.012079665 -0.02665258
-0.24508682 -0.14695978 0.04973014 -0.19649847 1.0191789 -0.17782336 0.2466873 -0.13603522
-0.09900118 -0.17846408 -0.10206883 0.4129721 -0.06518984 -0.13525268 -0.21908043 0.03285437
0.007467678 -0.14685926 0.6844439 0.12747765 -0.19205706 -0.018454716 -0.023677457 0.009307712
-0.12917438 -0.33400816 -0.0037374683 -0.26200938 -0.03871883 -0.22476442 -0.0031456747 -0.37383765
-0.08924073 -0.07797208 0.50705314 -0.15842354 -0.15161267 -0.07009602 -0.15485509 0.45010307
-0.1501308 -0.15100436 0.36951968 -0.09698845 -0.06612645 0.0188915 -0.5444819 0.03317879
00000000: efff a5bd afaa 93bd 77be 70bf 65f4 2abd
00000010: 9f37 bbbd cace 02be b5e5 013f 986c a3bd
00000020: 98f4 c83b 488a 4bbe 63a9 ecbd 812b 25be
00000030: 4db0 d3bf 6e75 6fbe 8552 e5bd 3b8e 15be
00000040: a2e1 da3f 47d7 68be fb8c de3c 2913 703d
00000050: b48c c5bd 9a50 26be 82ba 07bd 811e 8c3f
00000060: be0a 1cbe 1e06 a7be 043d 04be 541d 943d
00000070: 4f13 83be 3652 30be f78c d1bd 6977 44be
00000080: 5c7f 6abe af2f cfbd bdf2 38bf f02f 53be
00000090: c0cc 58be 5a28 23be bd3b 7bbe d61e 52be
000000a0: fdd7 72be e891 13be 42ac 223c dc0d 32be
000000b0: c2a0 18be aa45 8bbd cde2 c2bd c228 90bd
000000c0: 63d1 8bbd df92 153f d0d8 a9bd 5303 42be
000000d0: 3815 47bc 42ec 413f fb10 07be 6f6b a1bf
000000e0: ec2c 0cbe 74d8 dabd 5323 3fbe 6c1d 2bbe
000000f0: 79f2 46be 321c 29be 9c8d 12be a61e a3bd
00000100: 382a 8ebd e16d 8abd ae12 7abe 251d 6dbe
00000110: 6369 64be 9ca4 8dbe 4379 083f e851 25be
00000120: 1f02 fabd 4877 613d 5423 fc3c 2f26 973e
00000130: ba4e 043e 2ab1 e8bd cae9 45bc 8356 dabc
00000140: 0af8 7abe a07c 16be d5b1 4b3d e536 49be
00000150: 7474 823f 5417 36be 989b 7c3e d14c 0bbe
00000160: 21c1 cabd 4abf 36be 7609 d1bd 1471 d33e
00000170: 4082 85bd ae7f 0abe 9f56 60be 4e92 063d
00000180: 6cb3 f43b 4662 16be b737 2f3f 8089 023e
00000190: 9baa 44be 582e 97bc 3af7 c1bc 607f 183c
000001a0: 4a46 04be 1e03 abbe 50f0 74bb 1826 86be
000001b0: a397 1ebd a528 66be aa27 4ebb a667 bfbe
000001c0: d8c3 b6bd d3af 9fbd 3cce 013f c839 22be
000001d0: 5a40 1bbe 818e 8fbd 5592 1ebe e973 e63e
000001e0: e3bb 19be e3a0 1abe af31 bd3e e1a1 c6bd
000001f0: 4e6d 87bd 59c2 9a3c 2a63 0bbf 7ce6 073d

model/activation_16/Relu;model/batch_normalization_16/FusedBatchNormV3;model/conv2d_8/BiasAdd/ReadVariableOp/resource;model/conv2d_8/BiasAdd;model/depthwise_conv2d_11/depthwise;model/conv2d_8/Conv2D f4 [128]
0.054178376 -0.0488134 -0.15244071 0.021354271 -0.16704544 -0.023830563 -0.13378811 0.22757514
-0.21302965 -0.35175726 -0.075450726 -0.21793362 -0.078514114 0.045551516 -0.8692434 0.40031493
0.6359972 -0.034803137 -0.106629215 -0.10300976 -0.1880231 -0.26515 -0.06778963 -0.327371
-0.23643366 -0.14961848 -0.12453582 -0.18282107 -0.2354705 -0.2055428 -0.19941011 0.50375193
-0.16304718 -0.17733061 1.1751469 -0.35924447 -0.13957056 -0.1491263 -0.47748786 -0.32847765
-0.008210499 0.0072319787 -0.016314298 -0.19217044 -0.032964952 -0.13707119 -0.061789118 0.014672704
0.74713224 -0.09234037 0.83885866 -0.010305113 -0.19276637 -0.11366487 -0.3626747 -0.19516231
0.022249026 -0.095058866 -0.03722998 -0.077002436 0.22203988 -0.16457461 -0.009956684 -0.12025918
-0.12356324 -0.18883333 -0.124529816 0.6128574 -0.16708668 0.01107833 -0.036218993 0.38370404
-0.18447396 -0.23884639 -0.35188064 -0.32562163 -0.26155767 -0.13909596 0.78274554 -0.039250873
-0.40629524 1.5130223 -0.09628883 -0.3706032 -0.2913559 0.3915257 -0.31448427 -0.3777841
-0.66323215 -0.066046104 -0.38236076 -0.26240772 -0.019809345 -0.145326 -0.08258866 0.06255759
-0.31176516 0.060371853 0.11380255 -0.020672476 0.49465367 -0.57504916 0.0790707 0.015533904
-0.109856755 -0.17671499 -0.3388512 0.16222884 0.27967954 -0.33009356 -0.09847769 -0.2924604
-0.020302666 -0.13981354 1.4269055 1.1813616 0.02616344 -0.21524924 -0.23573934 -1.371483
-0.024318125 -0.24510115 -0.071539864 -0.15849258 -0.012276358 -0.26662108 1.353945 0.5163773
00000000: 25ea 5d3d 8ff0 47bd 6b19 1cbe 27ef ae3c
00000010: f60d 2bbe 5038 c3bc c0ff 08be 7509 693e
00000020: 7224 5abe 8719 b4be e985 9abd fe29 5fbe
00000030: 02cc a0bd 3a94 3a3d bc86 5ebf 14f6 cc3e
00000040: b6d0 223f bc8d 0ebd 6b60 dabd c8f6 d2bd
00000050: 2189 40be bec1 87be 4ad5 8abd 2c9d a7be
00000060: aa1b 72be 9635 19be a30c ffbd 7235 3bbe
00000070: 2e1f 71be d079 52be 2a32 4cbe e3f5 003f
00000080: d7f5 26be 2896 35be 376b 963f e4ee b7be
00000090: 96eb 0ebe 91b4 18be 4a79 f4be 392e a8be
000000a0: 5485 06bc 3cfa ec3b 90a5 85bc 54c8 44be
000000b0: 4206 07bd 645c 0cbe 9616 7dbd c865 703c
000000c0: 0f44 3f3f f31c bdbd 71bf 563f c7d6 28bc
000000d0: 8c64 45be 21c9 e8bd 80b0 b9be a1d8 47be
000000e0: 9743 b63c 39ae c2bd 777e 18bd 74b3 9dbd
000000f0: 6c5e 633e 3f86 28be 5c21 23bc 724a f6bd
00000100: b90e fdbd 865d 41be 7d09 ffbd 39e4 1c3f
00000110: c518 2bbe e281 353c 5e5a 14bd db74 c43e
00000120: bee6 3cbe 2694 74be b329 b4be e1b7 a6be
00000130: e3ea 85be 2c6f 0ebe 0362 483f 86c5 20bd
00000140: ee05 d0be b7aa c13f 1433 c5bd b4bf bdbe
00000150: 9a2c 95be 0e76 c83e 1504 a1be eb6c c1be
00000160: 95c9 29bf 2e43 87bd cac4 c3be 4e5a 86be
00000170: 3547 a2bc 57d0 14be 3e24 a9bd 321e 803d
00000180: af9f 9fbe 7a48 773d 5011 e93d 5359 a9bc
00000190: 3f43 fd3e 6c36 13bf d2ef a13d ea81 7e3c
000001a0: 94fc e0bd c6f4 34be e87d adbe 511f 263e
000001b0: 2832 8f3e 0602 a9be acae c9bd 5fbd 95be
000001c0: c751 a6bc 482b 0fbe d7a4 b63f db36 973f
000001d0: b654 d63c 4c6a 5cbe a765 71be c18c afbf
000001e0: ce36 c7bc ccfb 7abe 7e83 92bd e14b 22be
000001f0: c722 49bc 8f82 88be 124e ad3f 4d31 043f

model/activation_14/Relu;model/batch_normalization_14/FusedBatchNormV3;model/conv2d_7/BiasAdd/ReadVariableOp/resource;model/conv2d_7/BiasAdd;model/depthwise_conv2d_11/depthwise;model/conv2d_7/Conv2D f4 [128]
-0.07311172 -0.4663277 0.40991318 0.71057034 -0.41228664 -0.005871676 0.5724235 -1.252751
1.0793622 0.32740447 -0.118376315 0.059482608 -0.11201906 -0.20791474 -0.25651202 -0.8662824
-1.3327348 -0.015296893 -0.084626175 -0.9895432 -0.15186736 1.1359645 -0.114919886 -0.18042369
0.00067373924 0.90838295 -0.06768513 -0.042752426 0.016307965 -0.13475014 0.73093116 -2.4987464
-0.41103837 0.3761698 0.08161217 -1.2262316 -0.04719327 -2.2751217 -0.30308613 0.85715526
-0.02334454 1.0485692 -0.120891176 0.70328504 0.0967391 -0.33924204 -0.58491296 -0.18000352
-0.86091316 0.010433797 0.66892105 -0.20684782 -0.028502867 0.24997118 -0.06917044 -0.24944368
-0.1551379 -0.18527158 0.018033603 0.14825833 -1.0313768 0.0686244 0.3320105 0.036774427
0.363463 0.09107893 -1.4139979 0.99457073 -1.156479 -0.06086566 0.41594464 -0.20393194
-0.21287 0.11982671 -0.07525273 -0.069149 0.08393502 -0.12026325 0.7701072 -0.012861239
0.6687853 0.01175105 -0.24766047 0.027959011 0.1977486 0.038560227 -0.14138696 -0.052449405
-0.23850387 -0.13702929 -0.090628706 -0.1325687 -0.2000037 -1.4181254 -0.887719 -0.11671298
0.82108206 0.3155264 0.0597258 -0.05265058 0.6608404 0.5933232 0.10457881 1.3637557
-0.092842706 0.8661697 -0.09472005 0.10326567 -0.054419458 -0.03223332 -0.06826554 -0.026893253
-0.04471764 -0.14385907 -0.23423205 0.024668992 0.44000903 0.034013703 -0.025180966 0.0755986
-0.080709666 -0.26656932 0.06686498 -0.9044185 -0.9079649 -0.097822174 -0.2082958 0.15497828
00000000: 99bb 95bd 81c2 eebe 24e0 d13e f0e7 353f
00000010: 3c17 d3be 3067 c0bb 598a 123f 255a a0bf
00000020: 8a28 8a3f 8fa1 a73e 486f f2bd 09a4 733d
00000030: 406a e5bd 9ae7 54be 8b55 83be afc4 5dbf
00000040: 0e97 aabf d29f 7abc 7d50 adbd b452 7dbf
00000050: 1e83 1bbe 4967 913f 1e5b ebbd fdc0 38be
00000060: e09d 303a c98b 683f 809e 8abd 2b1d 2fbd
00000070: 4898 853c f1fb 09be 4e1e 3b3f 76eb 1fc0
00000080: 9f73 d2be 5499 c03e 4824 a73d 28f5 9cbf
00000090: bb4d 41bd 989b 11c0 1b2e 9bbe 876e 5b3f
000000a0: 0c3d bfbc 8437 863f cb95 f7bd 7d0a 343f
000000b0: 261f c63d 22b1 adbe dbbc 15bf d852 38be
000000c0: ce64 5cbf 84f2 2a3c 693e 2b3f eacf 53be
000000d0: d87e e9bc 72f8 7f3e 3ba9 8dbd 2a6e 7fbe
000000e0: 78dc 1ebe d5b7 3dbe 35bb 933c 08d1 173e
000000f0: 2804 84bf f38a 8c3d 48fd a93e c8a0 163d
00000100: d317 ba3e 9787 ba3d e2fd b4bf 309c 7e3f
00000110: 8107 94bf 454e 79bd b2f6 d43e 89d3 50be
00000120: 98fa 59be b567 f53d 1a1e 9abd fe9d 8dbd
00000130: 20e6 ab3d 944c f6bd bf25 453f f2b7 52bc
00000140: 8335 2b3f 7a87 403c b59a 7dbe 4c0a e53c
00000150: 9c7e 4a3e 54f1 1d3d bec7 10be 30d5 56bd
00000160: 5c3a 74be 6851 0cbe 8b9b b9bd 17c0 07be
00000170: c5cd 4cbe 2285 b5bf 8d41 63bf 3707 efbd
00000180: 6f32 523f ad8c a13e 0aa3 743d 22a8 57bd
00000190: d62c 293f 07e4 173f 6a2d d63d 8c8f ae3f
000001a0: 5124 bebd 4cbd 5d3f 96fc c1bd f47c d33d
000001b0: f0e6 5ebd 1607 04bd cece 8bbd 3d4f dcbc
000001c0: d829 37bd cb4f 13be 87da 6fbe a016 ca3c
000001d0: dd48 e13e f451 0b3d 5048 cebc 70d3 9a3d
000001e0: 1c4b a5bd c67b 88be 82f0 883d f987 67bf
000001f0: 6370 68bf fe56 c8bd 7f4b 55be a0b2 1e3e

model/activation_12/Relu;model/batch_normalization_12/FusedBatchNormV3;model/conv2d_6/BiasAdd/ReadVariableOp/resource;model/conv2d_6/BiasAdd;model/depthwise_conv2d_11/depthwise;model/conv2d_6/Conv2D f4 [128]
0.6516923 -2.0231497 0.86362857 0.5724377 0.9898281 0.081220366 1.648842 1.3789896
1.2863649 0.36699653 -0.82718605 -1.7603347 0.66474915 0.39709955 1.3140335 -0.35329184
0.48775452 0.09836783 0.0862735 -0.16012418 0.07009477 0.8111858 0.28353998 0.018525861
0.4796105 0.02956932 0.6546494 1.3325531 -1.3601521 0.57761127 0.03713487 0.57240963
-0.7060435 -2.342307 0.82599574 0.5019209 -0.5924035 -0.3168528 0.72439915 -1.3817129
0.784059 0.90776026 0.13863051 -0.047309317 -0.23559156 -0.093679935 1.2673026 -0.13789357
0.6958807 -1.4482191 -0.1693758 1.4447925 -0.4450253 0.01633932 -0.67264014 0.5834673
1.0634216 -0.20360546 0.43598667 -0.19210815 1.3499405 -0.35126892 0.53026706 0.46105245
0.7718108 0.13387242 -0.09417625 -0.05470793 -0.058761276 0.5158607 -2.899504 0.4102993
-0.2555034 0.971684 1.5357034 -0.5777101 -1.1981641 0.123854525 0.05150901 1.5390701
0.035806984 -0.57256985 0.75827354 0.9436765 -0.5675663 0.9738802 0.010199625 -0.14015204
0.31833622 -0.031801198 1.3753895 0.5252846 0.7315747 0.4146417 0.07775995 -0.6637409
0.3203756 -0.12529945 -0.118003264 -0.4751386 1.1771785 -1.3245834 0.41072455 -0.16978282
-0.2262444 0.8323032 0.7227514 0.3419946 0.5695937 0.90994716 -0.23916881 0.55560654
-0.114460506 1.0320804 0.4174998 1.1581658 0.211202 0.40109074 0.38766316 -0.08471459
0.33376175 0.61353403 0.48962656 0.8181059 0.8050028 0.84375095 1.1559144 0.3204784
00000000: 4ed5 263f 497b 01c0 c316 5d3f 478b 123f
00000010: 6065 7d3f dd56 a63d 410d d33f bb82 b03f
00000020: 9ba7 a43f f8e6 bb3e 77c2 53bf a652 e1bf
00000030: 002d 2a3f a250 cb3e 4032 a83f abe2 b4be
00000040: f6ba f93e 1375 c93d 29b0 b03d 98f7 23be
00000050: d98d 8f3d dfa9 4f3f 272c 913e 8cc3 973c
00000060: 828f f53e 5c3b f23c 1a97 273f 1a91 aa3f
00000070: 7719 aebf 55de 133f bc1a 183d 7089 123f
00000080: 44bf 34bf 5ce8 15c0 7574 533f e37d 003f
00000090: c1a7 17bf 883a a2be 3972 393f f8db b0bf
000000a0: 17b8 483f fa62 683f 28f5 0d3e 6ac7 41bd
000000b0: ea3e 71be 44db bfbd f936 a23f f933 0dbe
000000c0: 3d25 323f 3e5f b9bf da70 2dbe f6ee b83f
000000d0: 5bda e3be 0ada 853c 2532 2cbf 1d5e 153f
000000e0: 331e 883f f37d 50be a539 df3e 00b8 44be
000000f0: daca ac3f 85d9 b3be 95bf 073f 110f ec3e
00000100: 6595 453f da15 093e 7adf c0bd 6c15 60bd
00000110: aaaf 70bd 720f 043f 7991 39c0 c012 d23e
00000120: 57d1 82be 48c0 783f ee91 c43f cfe4 13bf
00000130: 715d 99bf 71a7 fd3d 1dfb 523d 4000 c53f
00000140: 58aa 123d f093 12bf 371e 423f c894 713f
00000150: 064c 11bf 3650 793f 541c 273c 0484 0fbe
00000160: f7fc a23e f941 02bd c30c b03f 0d79 063f
00000170: 7b48 3b3f eb4b d43e 9c40 9f3d ecea 29bf
00000180: 4508 a43e 804e 00be b2ab f1bd 5e45 f3be
00000190: c9ad 963f f38b a9bf 7d4a d23e 8cdb 2dbe
000001a0: 9dac 67be d311 553f 3c06 393f eb19 af3e
000001b0: e5d0 113f 4cf2 683f abe8 74be 3b3c 0e3f
000001c0: 456a eabd 361b 843f 89c2 d53e c73e 943f
000001d0: 5645 583e c45b cd3e c97b c63e d87e adbd
000001e0: d2e2 aa3e 9110 1d3f 55b0 fa3e 636f 513f
000001f0: aa14 4e3f 1000 583f 01f5 933f bf15 a43e

model/activation_10/Relu;model/batch_normalization_10/FusedBatchNormV3;model/conv2d_5/BiasAdd/ReadVariableOp/resource;model/conv2d_5/BiasAdd;model/depthwise_conv2d_5/depthwise;model/conv2d_5/Conv2D f4 [64]
0.077016465 -1.5408573 0.31116626 0.14593443 0.5488446 -0.16784446 0.06995881 -0.32349035
1.2880174 -0.94820225 -0.7700157 0.4098732 0.34680575 -0.2588378 -1.229934 0.031662166
0.3785132 -0.07015109 0.18836576 0.18532655 -0.6357652 -0.29407638 -0.4471115 -0.9668923
0.3515396 -0.5060604 -0.8131584 0.005786253 0.012113757 -0.05046319 -0.8442327 0.98031366
0.6229781 0.745416 -0.45714307 0.5878953 0.03254684 -1.2662904 0.52162594 -0.11143698
-0.32410038 -1.128537 -0.15134317 -0.4945923 1.7488571 0.70400286 0.05252283 -0.38389957
0.52700853 -0.41619262 0.82119834 0.2549034 -0.19339114 0.12588553 -0.039347768 -0.38900396
-0.20430873 0.7125161 -0.46130803 0.76520765 -0.10340155 0.12711766 0.18173198 -0.012315275
00000000: cfba 9d3d d03a c5bf 2f51 9f3e d66f 153e
00000010: 1481 0c3f 6bdf 2bbe 9146 8f3d 87a0 a5be
00000020: c1dd a43f 62bd 72bf c01f 45bf e6da d13e
00000030: 8690 b13e 6386 84be 7a6e 9dbf 30b0 013d
00000040: 7bcc c13e 60ab 8fbd f4e2 403e 3ec6 3d3e
00000050: 82c1 22bf 2e91 96be cceb e4be 4186 77bf
00000060: 00fd b33e 2d8d 01bf 262b 50bf 9c9a bd3b
00000070: c878 463c 7db2 4ebd a21f 58bf d6f5 7a3f
00000080: 7e7b 1f3f 95d3 3e3f a80e eabe 4e80 163f
00000090: d64f 053d ce15 a2bf 4789 053f 1239 e4bd
000000a0: 7cf0 a5be e773 90bf b4f9 1abe 343b fdbe
000000b0: 8dda df3f 8839 343f 2e22 573d 7c8e c4be
000000c0: 08ea 063f 3317 d5be 0e3a 523f b382 823e
000000d0: 5408 46be 23e8 003e 202b 21bd 872b c7be
000000e0: 4f36 51be 7567 363f 9130 ecbe a6e4 433f
000000f0: 31c4 d3bd 222b 023e f317 3a3e 02c6 49bc

model/activation_8/Relu;model/batch_normalization_8/FusedBatchNormV3;model/conv2d_4/BiasAdd/ReadVariableOp/resource;model/conv2d_4/BiasAdd;model/depthwise_conv2d_5/depthwise;model/conv2d_4/Conv2D f4 [64]
0.8860923 0.08750969 0.7711891 -0.017004933 -0.8149309 0.3619338 1.0201976 -0.36118445
0.21394308 0.5901561 0.2917382 1.1598814 0.5792278 0.84573716 0.79270416 0.08523295
-0.7616323 -2.0734882 -0.26009467 -1.6360204 0.3500322 -0.6020754 1.0322763 1.6504687
1.1831089 0.20056093 0.31173468 0.64600515 1.3052591 0.29595813 -0.16774264 1.5211802
-2.0856433 1.5147607 -1.9315487 0.8868489 0.62136173 0.43999046 1.5232497 0.79393524
0.7888869 0.22331001 0.6514498 0.70117044 -0.57860667 1.3157159 0.8298106 2.2239382
-0.42664456 1.0605786 1.0161828 -0.3671116 1.1583183 1.1433226 -0.5748742 1.9692162
2.3059814 0.9228006 0.25262395 1.3763161 -0.13288493 0.8470812 -0.38485378 -0.034865517
00000000: f2d6 623f 4838 b33d a66c 453f ee4d 8bbc
00000010: 509f 50bf 634f b93e d695 823f 2bed b8be
00000020: e513 5b3e 7814 173f b65e 953e fe76 943f
00000030: 4648 143f 3b82 583f a9ee 4a3f 9d8e ae3d
00000040: 56fa 42bf 08b4 04c0 212b 85be 1e69 d1bf
00000050: 6c37 b33e 9d21 1abf a121 843f 8f42 d33f
00000060: 1d70 973f d85f 4d3e b09b 9f3e 9860 253f
00000070: bb12 a73f d387 973e bac4 2bbe 08b6 c23f
00000080: 2e7b 05c0 aee3 c13f fd3c f7bf 8808 633f
00000090: 9011 1f3f 6e46 e13e d9f9 c23f 573f 4b3f
000000a0: 7ef4 493f 61ab 643e 6ac5 263f e87f 333f
000000b0: 911f 14bf 6169 a83f 786e 543f 0155 0e40
000000c0: 2871 dabe 0ac1 873f 4712 823f 0df6 bbbe
000000d0: c643 943f 6558 923f f52a 13bf 470f fc3f
000000e0: 3395 1340 a93c 6c3f ed57 813e 202b b03f
000000f0: fd12 08be 50da 583f 8e0b c5be 25cf 0ebd

model/activation_6/Relu;model/batch_normalization_6/FusedBatchNormV3;model/conv2d_3/BiasAdd/ReadVariableOp/resource;model/conv2d_3/BiasAdd;model/depthwise_conv2d_3/depthwise;model/conv2d_3/Conv2D f4 [32]
-0.6537808 1.0790702 0.54075074 0.36816388 0.3943941 0.17973062 -0.09229065 -0.773977
0.50408393 0.37837002 0.7080302 0.5300163 0.462936 -0.35066527 -0.07912409 0.3630904
0.6402548 0.8722669 1.121163 -0.22496437 0.2997939 0.78600544 -0.5684942 0.31944194
0.20253983 0.94098234 0.5492177 -0.4470794 -0.08702973 -1.0119599 1.6402038 0.55522263
00000000: 2e5e 27bf f91e 8a3f a46e 0a3f fa7f bc3e
00000010: 06ee c93e 4e0b 383e e102 bdbd 5b23 46bf
00000020: a50b 013f b7b9 c13e 7841 353f 26af 073f
00000030: f305 ed3e 668a b3be d00b a2bd fce6 b93e
00000040: bde7 233f e24c 5f3f 4582 8f3f 0f5d 66be
00000050: 967e 993e a737 493f d688 11bf e58d a33e
00000060: 9a66 4f3e 38e4 703f 8899 0c3f 97e7 e4be
00000070: a53c b2bd e787 81bf 33f2 d13f 1223 0e3f

model/activation_23/Relu;model/batch_normalization_23/FusedBatchNormV3;model/depthwise_conv2d_11/depthwise;model/depthwise_conv2d_11/BiasAdd;model/depthwise_conv2d_11/BiasAdd/ReadVariableOp/resource f4 [128]
-0.3041625 0.13934633 -0.21176629 -0.2701994 -0.28659803 -0.31112355 0.37250772 -0.20134237
-0.24864079 0.23478095 0.5841665 -0.34451163 -0.014887968 -0.25017732 -0.2852947 -0.5878319
-0.36801046 -0.51883423 -0.06702141 -0.27654606 -0.27764314 -0.27736232 0.040255647 -0.3209241
-0.34636304 -0.34627306 -0.5050855 -0.23922999 -0.18648276 -0.37445623 -0.26519036 -0.15275532
-0.12567051 -0.32941917 -0.31714892 -0.13356504 0.49931157 -0.245697 -0.22380596 -0.069916226
-0.31740046 -0.2702496 -0.3059478 -0.9795984 -0.27278954 -0.2279036 -0.2976814 -0.35613567
-0.0396111 0.23460867 -0.29617813 -0.15858062 -0.9118331 -0.16147077 -0.01816 -0.35802433
-0.27065372 -0.31264982 -0.33410192 0.10726866 -0.33046827 -0.8240616 0.41080454 -0.3318684
-0.26093638 -0.019484714 -0.34213507 -0.29902375 -0.01250406 -0.47506678 -0.2533306 -0.29013258
-0.18263945 -0.28947726 -1.2995073 -0.33726847 -0.6551469 -0.07308168 0.010880932 -0.2639034
-0.28328347 -0.2425732 -0.44941542 -0.22414696 -0.42787442 -0.08903424 -0.29623362 -0.107638754
-0.23461947 0.5448363 -0.2981297 -0.680787 -0.109662905 -0.31600732 -0.03504757 -0.34353912
-0.3176108 0.28526032 -0.31875563 -0.26089352 -0.31801254 -0.084560804 -0.2367709 -0.33740005
-0.34271464 -0.38876006 0.35114762 -0.2442485 0.46688235 0.2898516 -0.08916277 0.38212317
0.4081064 -0.36195707 -0.3310139 0.104719095 -0.26385236 -0.26998192 -0.08885996 -0.25674978
-0.099114046 0.2285246 -0.0047304714 0.49544322 -0.031248862 -0.39947763 0.06020876 -0.7867919
00000000: 30bb 9bbe ceb0 0e3e 43d9 58be 9357 8abe
00000010: fabc 92be 964b 9fbe 55b9 be3e b22c 4ebe
00000020: b19b 7ebe 6b6a 703e f08b 153f d463 b0be
00000030: aaec 73bc 3e17 80be 2612 92be 277c 16bf
00000040: de6b bcbe 52d2 04bf 8542 89bd 7297 8dbe
00000050: 3e27 8ebe 6f02 8ebe 1be3 243d 2a50 a4be
00000060: 7f56 b1be b44a b1be 494d 01bf b5f8 74be
00000070: 56f5 3ebe bab8 bfbe 08c7 87be e46b 1cbe
00000080: c5af 00be a1a9 a8be 5861 a2be 46c5 08be
00000090: c4a5 ff3e ff97 7bbe 642d 65be 3d30 8fbd
000000a0: 5082 a2be 285e 8abe 31a5 9cbe f6c6 7abf
000000b0: 12ab 8bbe 905f 69be b269 98be 6a57 b6be
000000c0: 403f 22bd 413d 703e a9a4 97be f562 22be
000000d0: e56d 69bf 9858 25be 48c4 94bc f74e b7be
000000e0: 2093 8abe a313 a0be 680f abbe acaf db3d
000000f0: 2333 a9be b3f5 52bf f954 d23e a8ea a9be
00000100: 7499 85be 689e 9fbc 542c afbe a419 99be
00000110: d4dd 4cbc f43b f3be 8cb4 81be 428c 94be
00000120: d605 3bbe 5d36 94be 4156 a6bf 74ae acbe
00000130: b5b7 27bf d9ab 95bd f045 323c 591e 87be
00000140: 880a 91be 1c65 78be c719 e6be c886 65be
00000150: 5b12 dbbe 9557 b6bd efab 97be b571 dcbd
00000160: 1640 70be 647a 0b3f 75a4 98be 0f48 2ebf
00000170: f296 e0bd b6cb a1be 0a8e 0fbd 5ce4 afbe
00000180: e29d a2be a40d 923e f033 a3be d693 85be
00000190: 8ad2 a2be 372e adbd 1274 72be b3bf acbe
000001a0: 4b78 afbe 8f0b c7be 9fc9 b33e 471c 7abe
000001b0: 340b ef3e 6e67 943e f89a b6bd a6a5 c33e
000001c0: 52f3 d03e 7052 b9be a77a a9be f776 d63d
000001d0: a817 87be 123b 8abe 36fc b5bd b574 83be
000001e0: 4efc cabd 5a02 6a3e 1202 9bbb bcaa fd3e
000001f0: 9dfd ffbc 5588 ccbe 769d 763d 326b 49bf

model/conv2d/Conv2D f4 [8, 3, 3, 3]
0.6209057 0.55579996 -0.0132960295 0.04314132 -0.23021378 0.33632478 0.47930637 1.1491472
0.77363986 -1.5228945 -2.012031 -2.079728 -1.5274957 -0.67976683 0.010103798 -0.32357028
-1.5814416 -1.4380425 1.1697695 1.6673918 1.4178659 1.429328 0.21290651 0.6750693
-0.085438676 0.4469011 0.018045647 -0.6636093 -1.1174624 -1.0717323 0.093451254 -1.1752204
-0.590747 0.54725754 0.67554057 0.31131038 -0.35980558 -0.021786518 -0.24510108 -0.49340603
0.05301065 0.5247434 -0.17453814 -0.48383588 -0.1787946 1.4760957 0.49234408 1.3967384
0.20163521 0.8095772 0.18836738 -0.36915103 0.34140638 -0.12705992 -0.9047883 -0.39831406
0.13160779 0.11755614 -0.12523396 0.26526684 -0.14041097 0.5030471 1.4366771 -1.0899835
-0.90800387 0.014039239 -0.9092368 -0.6035397 0.2510837 0.10620005 0.1325887 0.25768766
-0.8563535 -0.7765292 -0.40230155 -0.15448731 0.25409576 0.12407106 0.28073585 0.11995047
0.41783506 1.1596879 -0.50456977 1.2484751 0.6878679 -1.2793133 0.658691 0.72681093
-1.2854232 -0.07528798 0.52906317 -1.3966213 0.38123298 0.3613141 -0.9813414 -0.038549908
-0.45585895 -0.073906936 0.61360675 -0.27713418 -1.04958 -0.11257925 0.49474612 -1.7331458
0.049397632 0.38538364 0.5221432 0.36062583 -0.23558752 -0.49337992 -0.62459904 0.20105723
-0.3491425 -0.8828571 0.10701479 0.10612383 -0.4335371 0.32534814 0.17072624 -0.19188717
0.48926318 -0.36363977 -0.28215268 0.21394214 0.5356148 -0.6161778 0.12031535 0.2465398
0.17339715 -0.47192746 -0.25709713 -0.3689314 0.23173194 -0.48569688 -0.50398165 -0.0718173
-0.23550726 -0.15308094 0.19963366 0.054038227 -0.15212765 0.15039521 0.32933447 -0.007663989
0.18945785 -0.20102872 -0.021854745 0.27464673 -0.096083015 -0.23092051 0.22427385 0.15149112
-0.049847353 -0.11344578 -0.19170777 0.02343471 0.12134466 0.15159759 -0.2978965 -0.056809343
0.029336266 0.037032828 0.6445808 0.7798536 0.25104472 0.45277655 -0.05020482 0.38133946
0.2613636 0.8536024 0.7364537 -0.35934243 -0.46103546 -0.5060206 -0.5307605 -0.6010968
-0.5630899 -0.6731027 -1.184501 -1.125636 -0.16787356 -0.46670938 0.30980012 -0.042522468
0.5012726 0.31092203 0.34778458 0.6635772 -0.1386252 0.0989505 -0.2721287 -0.48032683
0.06687298 0.06355446 -0.3623519 0.06932528 -0.10954356 -0.19642642 -0.009960186 0.14995766
-0.008361295 0.11661444 -0.06738716 -0.12601344 -0.06520844 0.21740332 0.16736422 -0.1446573
0.2750776 -0.04873833 0.041164413 -0.13421516 -0.27251095 0.17853388 -0.16772486 -0.26174003
00000000: adf3 1e3f e848 0e3f 97d7 59bc f4b4 303d
00000010: 29bd 6bbe c332 ac3e a567 f53e 4117 933f
00000020: 430d 463f 35ee c2bf 1ec5 00c0 431a 05c0
00000030: fb84 c3bf 3305 2ebf 668a 253c 01ab a5be
00000040: ae6c cabf c711 b8bf 02bb 953f 186d d53f
00000050: a17c b53f 38f4 b63f 2a04 5a3e 57d1 2c3f
00000060: 79fa aebd 39d0 e43e 77d4 933c 4de2 29bf
00000070: 0209 8fbf 862e 89bf 5f63 bf3d 9f6d 96bf
00000080: 323b 17bf 1219 0c3f 3af0 2c3f 1364 9f3e
00000090: 7038 b8be a479 b2bc c7fb 7abe b79f fcbe
000000a0: b221 593d 9555 063f 20ba 32be 56b9 f7be
000000b0: ee15 37be b4f0 bc3f 8614 fc3e 53c8 b23f
000000c0: 7679 4e3e 7440 4f3f 61e3 403e 5d01 bdbe
000000d0: d1cc ae3e ff1b 02be 35a0 67bf d2ef cbbe
000000e0: 31c4 063e 46c1 f03d 553d 00be 0ed1 873e
000000f0: e5c7 0fbe b2c7 003f 09e5 b73f 9484 8bbf
00000100: f172 68bf d604 663c bec3 68bf 9481 1abf
00000110: 0b8e 803e 697f d93d 55c5 073e a3ef 833e
00000120: fc39 5bbf 9eca 46bf 78fa cdbe ec31 1ebe
00000130: d718 823e f818 fe3d 9cbc 8f3e 98a8 f53d
00000140: 7aee d53e a770 943f 7c2b 01bf 08ce 9f3f
00000150: 1c18 303f 8ac0 a3bf f99f 283f 4810 3a3f
00000160: bf88 a4bf 9630 9abd af70 073f 7dc4 b2bf
00000170: f830 c33e 29fe b83e 3139 7bbf 82e6 1dbd
00000180: 5866 e9be 855c 97bd 5515 1d3f 88e4 8dbe
00000190: a358 86bf f38f e6bd 5d4f fd3e b9d7 ddbf
000001a0: 2c55 4a3d 0151 c53e 2dab 053f f3a3 b83e
000001b0: db3d 71be 4b9c fcbe b9e5 1fbf f2e1 4d3e
000001c0: cec2 b2be ec02 62bf 922a db3d 7357 d93d
000001d0: 93f8 ddbe 0894 a63e dcd2 2e3e 127e 44be
000001e0: b480 fa3e fe2e babe 5176 90be a613 5b3e
000001f0: 0d1e 093f d4bd 1dbf e567 f63d ee74 7c3e
00000200: 068f 313e 7aa0 f1be 3ca2 83be 94e4 bcbe
00000210: 234b 6d3e 43ad f8be f104 01bf f314 93bd
00000220: d128 71be 40c1 1cbe c46c 4c3e 3057 5d3d
00000230: 5ac7 1bbe 3401 1a3e 879e a83e 3322 fbbb
00000240: 3d01 423e 79da 4dbe b908 b3bc 7f9e 8c3e
00000250: 2cc7 c4bd 6d76 6cbe 0ba8 653e 7d20 1b3e
00000260: bd2c 4cbd 4356 e8bd 0b4f 44be 26fa bf3c
00000270: 8d83 f83d 663c 1b3e e485 98be eab0 68bd
00000280: 9c52 f03c bcaf 173d 3f03 253f 7ca4 473f
00000290: ef88 803e 54d2 e73e 92a3 4dbd ed3e c33e
000002a0: 73d1 853e b085 5a3f 3b88 3c3f bbfb b7be
000002b0: d70c ecbe 918a 01bf ecdf 07bf 7be1 19bf
000002c0: a926 10bf 7550 2cbf bb9d 97bf d714 90bf
000002d0: 0ce7 2bbe 88f4 eebe 1f9e 9e3e 0a2c 2ebd
000002e0: 6753 003f 2c31 9f3e d210 b23e 32e0 293f
000002f0: c4f3 0dbe 8fa6 ca3d 7454 8bbe 66ed f5be
00000300: b3f4 883d d728 823d 3086 b9be 6afa 8d3d
00000310: 6058 e0bd 0224 49be 0c30 23bc 808e 193e
00000320: d0fd 08bc 8dd3 ee3d 4802 8abd ab09 01be
00000330: 018c 85bd fa9e 5e3e 8761 2b3e 0b21 14be
00000340: f9d6 8c3e d8a1 47bd 049c 283d b36f 09be
00000350: 8e86 8bbe 96d1 363e 11c0 2bbe ca02 86be

model/conv2d_1/Conv2D f4 [16, 8, 1, 1]
1.134484 -0.1994989 0.5334882 -0.35104284 0.7664758 0.020275299 0.15842737 -0.030931005
-0.045972146 0.23862904 -0.5432612 -1.0097847 0.56594115 -0.57244676 0.99148303 -0.35014704
0.4834844 0.6674324 -0.035533097 -0.10817687 -0.26573843 -0.008668593 0.29409665 -0.006539765
0.043930598 -0.14405528 0.25966716 0.13904786 0.33696026 0.042433344 -0.07520688 -0.2637453
-0.06294452 0.06762179 0.19355153 -0.014590194 0.14099123 -0.0070437565 0.23490563 -0.25610438
-0.038268685 0.041313138 0.049982037 0.13412185 0.104417816 0.43688086 -0.024177136 0.04536388
-0.033192948 0.04524085 -0.11755882 0.92827946 0.3094921 -0.05025291 0.22515994 0.04273987
-0.06637583 -0.070408985 0.29974353 -1.1923833 -0.16316551 0.15130596 -0.17303795 0.221196
0.00013441654 -0.122070104 -0.2043049 0.059051108 0.108004145 -0.019999593 -0.061893724 -0.3377449
-0.08975361 0.39694506 0.040630918 0.07856032 0.19944496 0.09115239 0.3169283 -0.05016103
0.08397502 -0.07747738 -0.09602548 -0.15758577 -0.053971097 -0.4876029 -0.034516264 -0.10237519
-0.4661402 -0.11643266 -0.039814394 -0.03152017 -0.039907455 -0.061581735 0.3574001 -0.13919261
0.260967 -0.2304471 0.29408816 1.149075 -0.23965798 -0.4866679 0.4572831 0.6805367
-0.103836566 0.113624945 0.41472146 0.0551479 0.053415284 0.23426884 0.11395342 0.14336827
-0.8009686 -0.43024498 0.6232772 0.25949726 -0.7265174 -0.28738216 -0.9148393 -0.5080322
-0.08801028 0.17824101 -0.10978929 -0.28633592 -0.39107522 -0.12862964 1.0843521 -0.09640808
00000000: c636 913f 7149 4cbe af92 083f e3bb b3be
00000010: c237 443f 6218 a63c c93a 223e 0563 fdbc
00000020: 4a4d 3cbd 2c5b 743e 2a13 0bbf a040 81bf
00000030: 85e1 103f df8b 12bf d5d1 7d3f 7946 b3be
00000040: 448b f73e dadc 2a3f 278b 11bd d68b ddbd
00000050: de0e 88be b706 0ebc d693 963e 864b d6bb
00000060: 92f0 333d 3a83 13be 18f3 843e 9062 0e3e
00000070: 0e86 ac3e 96ce 2d3d 1106 9abd a009 87be
00000080: 0ee9 80bd 4b7d 8a3d 5f32 463e b60b 6fbc
00000090: 0160 103e 50cf e6bb 1a8b 703e 1d20 83be
000000a0: a0bf 1cbd f737 293d f7b9 4c3d 3d57 093e
000000b0: 02d9 d53d d9ae df3e 210f c6bc 7acf 393d
000000c0: 54f5 07bd 784e 393d aec2 f0bd b9a3 6d3f
000000d0: c075 9e3e ffd5 4dbd 5490 663e 0010 2f3d
000000e0: 0df0 87bd 9632 90bd fc77 993e 04a0 98bf
000000f0: dc14 27be f3ef 1a3e dc30 31be 3481 623e
00000100: 2af2 0c39 e4ff f9bd 4e35 51be 93df 713d
00000110: 4731 dd3d 30d6 a3bc 4684 7dbd e6ec acbe
00000120: bed0 b7bd 623c cb3e 9b6c 263d 3ce4 a03d
00000130: 4d3b 4c3e 1bae ba3d 6d44 a23e a775 4dbd
00000140: 18fb ab3d 76ac 9ebd 02a9 c4bd 2a5e 21be
00000150: cc10 5dbd 16a7 f9be ed60 0dbd 15aa d1bd
00000160: eea9 eebe 3f74 eebd 6b14 23bd 4b1b 01bd
00000170: 0076 23bd 213d 7cbd 25fd b63e 8288 0ebe
00000180: 779d 853e 53fa 6bbe b992 963e e414 933f
00000190: e768 75be 892c f9be 0321 ea3e a737 2e3f
000001a0: 44a8 d4bd 32b4 e83d 5f56 d43e c4e2 613d
000001b0: fcc9 5a3d 2ce4 6f3e 6960 e93d 22cf 123e
000001c0: 470c 4dbf 1249 dcbe 188f 1f3f d3dc 843e
000001d0: 0bfd 39bf c123 93be e932 6abf 660e 02bf
000001e0: bc3e b4bd d084 363e 35d9 e0bd 9f9a 92be
000001f0: 033b c8be 7db7 03be 0dcc 8a3f 9971 c5bd

model/activation_4/Relu;model/batch_normalization_4/FusedBatchNormV3;model/conv2d_2/BiasAdd/ReadVariableOp/resource;model/conv2d_2/BiasAdd;model/depthwise_conv2d_3/depthwise;model/conv2d_2/Conv2D f4 [32]
-0.26465228 0.77675056 -0.86733526 -0.85365856 0.55082464 0.27508768 -0.08674215 -1.6588585
1.5623859 0.24709418 -0.3927939 -0.021245465 -2.8421092 -0.03946756 -0.5002663 0.3614066
-0.8665537 -0.06995062 -1.2566017 -0.15599564 0.36460358 0.93136704 0.025526267 0.7407818
-1.6693192 0.347772 -2.7284741 0.62391263 -0.37373132 -0.99804026 0.104647614 -0.96577317
00000000: 8180 87be 20d9 463f af09 5ebf 5e89 5abf
00000010: d802 0d3f 4bd8 8c3e dea5 b1bd 7a55 d4bf
00000020: 43fc c73f 4206 7d3e 481c c9be f80a aebc
00000030: 1ee5 35c0 bca8 21bd 7411 00bf 490a b93e
00000040: 77d6 5dbf 4542 8fbd 53d8 a0bf 52bd 1fbe
00000050: 52ad ba3e 126e 6e3f 761c d13c e0a3 3d3f
00000060: 40ac d5bf 2c0f b23e 529f 2ec0 bdb8 1f3f
00000070: b659 bfbe 917f 7fbf 7d51 d63d e93c 77bf

model/activation/Relu;model/batch_normalization/FusedBatchNormV3;model/conv2d/BiasAdd/ReadVariableOp/resource;model/conv2d/BiasAdd;model/depthwise_conv2d/depthwise;model/conv2d/Conv2D f4 [8]
0.7962068 0.56675136 1.5040845 1.0148499 1.3683342 0.7852963 0.5565313 1.3207343
00000000: 35d4 4b3f 9e16 113f d785 c03f 9ae6 813f
00000010: 9325 af3f 2e09 493f d678 0e3f d20d a93f

model/activation_2/Relu;model/batch_normalization_2/FusedBatchNormV3;model/conv2d_1/BiasAdd/ReadVariableOp/resource;model/conv2d_1/BiasAdd;model/depthwise_conv2d_1/depthwise;model/conv2d_1/Conv2D f4 [16]
-0.79188716 0.9686425 -0.23106934 0.4033405 0.5587362 0.08204004 -0.9798577 1.7273548
1.0800121 -0.021836583 1.4389303 0.697417 -1.602405 -0.03496703 1.7994988 -0.13520357
00000000: 1eb9 4abf f4f8 773f 719d 6cbe a582 ce3e
00000010: 5609 0f3f 9c04 a83d f4d7 7abf f619 dd3f
00000020: d63d 8a3f a2e2 b2bc de2e b83f ec89 323f
00000030: 9b1b cdbf 9739 0fbd fa55 e63f ce72 0abe

model/activation_19/Relu;model/batch_normalization_19/FusedBatchNormV3;model/depthwise_conv2d_9/depthwise;model/depthwise_conv2d_9/BiasAdd;model/depthwise_conv2d_11/depthwise;model/depthwise_conv2d_9/BiasAdd/ReadVariableOp/resource f4 [128]
-0.4087689 -0.373157 -1.0112695 -0.3291915 -0.32102147 -0.12551998 -0.1667714 -0.39374542
-0.44420838 -0.41187358 -0.43413863 -0.41032284 -0.080481075 -0.32575846 -0.37441498 -0.27767447
-0.6768784 -0.43197083 -0.07485753 -0.076412305 -0.3956529 -0.20359506 -0.37242347 0.5070902
-0.3845619 -0.34830844 -0.32515764 0.0673458 -0.35390928 -0.33928737 -0.32304853 -0.3436768
-0.30597597 -0.35672492 -0.47416633 -0.41066056 -0.31843734 -0.3635715 -0.30673012 -0.3911295
-0.30206704 -0.41306594 -0.24695955 -0.27070683 -0.36176175 -0.39469498 -0.31438228 -0.29098526
-0.39651817 -0.06223503 -0.3087872 -0.35093373 -0.39809108 -1.4525781 -0.51286644 -0.67762136
-0.37306997 -0.3474344 -0.29889208 -0.42710966 -0.33165213 -0.33742332 -0.38448286 -0.4238784
-0.4588955 -0.41572917 -0.29988974 -0.35680097 -0.2803055 -0.4121742 -0.8151369 -0.37486088
-0.41461322 -0.048266962 -0.080267206 -1.0614307 0.55905193 -0.37882456 -0.36543846 -0.32128197
-0.3735631 -0.30135944 0.053468287 -0.32671693 -1.1705954 -0.45473582 -0.54376 -0.29258716
-0.36219826 -0.3605556 -0.3394037 -0.2734748 -0.4311316 -0.30818617 -0.361746 -0.085522644
-0.3692805 -0.3281776 -1.2687027 -1.392842 -0.34480336 -0.4077823 -1.1645701 -0.022892196
-0.43031153 -0.17758629 -0.47857785 -0.4204228 -0.3497236 -0.33562428 -0.3930038 -0.40089846
-0.38944814 -0.49564666 -0.4829407 -0.31275874 -0.35238945 -0.3949511 -0.35543603 -0.66936755
-0.3599978 -0.29552412 -0.53700614 -0.29574487 -0.39073732 -0.20075166 -0.1902221 -0.13343129
00000000: 284a d1be 6f0e bfbe 4771 81bf ca8b a8be
00000010: ed5c a4be 4f88 00be 1fc6 2abe 0099 c9be
00000020: 486f e3be 18e1 d2be 6b47 debe d615 d2be
00000030: 43d3 a4bd d0c9 a6be 52b3 bfbe 592b 8ebe
00000040: e747 2dbf 482b ddbe e84e 99bd 0e7e 9cbd
00000050: 0493 cabe 397b 50be 4aae bebe aad0 013f
00000060: 4ce5 c4be 7c55 b2be 107b a6be 98ec 893d
00000070: 9933 b5be 13b7 adbe 9e66 a5be 68f6 afbe
00000080: e2a8 9cbe a6a4 b6be eec5 f2be 1a42 d2be
00000090: 380a a3be 0b26 babe bb0b 9dbe 2042 c8be
000000a0: 88a8 9abe 617d d3be f7e2 7cbe 169a 8abe
000000b0: d638 b9be 7615 cabe b7f6 a0be 05fc 94be
000000c0: 6e04 cbbe 29ea 7ebd 5b19 9ebe 96ad b3be
000000d0: 98d2 cbbe 14ee b9bf 374b 03bf 9878 2dbf
000000e0: 0703 bfbe ece2 b1be 6208 99be 1eae dabe
000000f0: 4fce a9be c0c2 acbe f0da c4be 9706 d9be
00000100: 5af4 eabe 74da d4be 268b 99be 9eae b6be
00000110: 3484 8fbe 7f08 d3be d0ac 50bf c4ed bfbe
00000120: 2f48 d4be 94b3 45bd 2263 a4bd f6dc 87bf
00000130: 071e 0f3f 4bf5 c1be c01a bbbe 127f a4be
00000140: aa43 bfbe c94b 9abe 9001 5b3d 7147 a7be
00000150: 12d6 95bf 22d3 e8be db33 0bbf fccd 95be
00000160: 0d72 b9be be9a b8be 52c6 adbe e404 8cbe
00000170: 48bd dcbe 94ca 9dbe c636 b9be 7f26 afbd
00000180: 5512 bdbe e506 a8be da64 a2bf a648 b2bf
00000190: 118a b0be d7c8 d0be a210 95bf 6a88 bbbc
000001a0: cb51 dcbe 2ed9 35be 2808 f5be a841 d7be
000001b0: f90e b3be f2d6 abbe cb37 c9be 9042 cdbe
000001c0: bf65 c7be 66c5 fdbe 0144 f7be ea21 a0be
000001d0: 646c b4be 0837 cabe b6fb b5be ac5b 2bbf
000001e0: a251 b8be f04e 97be 3c79 09bf df6b 97be
000001f0: b90e c8be d891 4dbe 95c9 42be 36a2 08be

model/activation_21/Relu;model/batch_normalization_21/FusedBatchNormV3;model/depthwise_conv2d_10/depthwise;model/depthwise_conv2d_10/BiasAdd;model/depthwise_conv2d_11/depthwise;model/depthwise_conv2d_10/BiasAdd/ReadVariableOp/resource f4 [128]
-0.29222316 -0.35914168 -0.40174693 -0.33354005 -0.3205446 -0.4586908 0.7011568 -0.3362839
-0.24694687 -0.39122677 -0.19336806 -0.35160357 -0.3762284 -0.30191663 -0.1918582 -0.35916686
-1.0900208 -0.2680891 -0.37612468 -0.26727915 -0.35803244 -0.04961874 0.09524275 -0.2983785
-0.30013603 -0.04951687 0.060400136 0.053755805 -0.33400998 -0.32854483 -0.36275393 -0.40764195
-0.27934963 -0.32882524 -0.30860648 -0.3219592 -0.29875132 -0.3149354 -0.3582338 -0.3593886
-0.356208 0.0060698343 -0.37660596 -0.40078676 -0.28592253 -0.3003288 -0.3031975 -0.30713314
-0.2510307 -0.35511106 -0.3638686 -0.3793263 -0.30371553 -0.7620553 -0.4129327 -0.012547471
-0.36046216 -0.32229283 -0.3550143 -0.454317 0.50080264 -0.35899782 -0.26933748 0.19651878
-1.1461121 -1.2837267 -0.016430378 -0.3635481 -0.28381786 0.29084754 -0.20116374 -0.22559263
-0.39601773 -0.05876515 -0.2758425 -0.3435978 -0.36658394 -0.3133406 -0.004157774 -0.3276661
-0.27216187 -0.5288894 -0.2461928 -0.32555756 -0.2739885 -0.27922022 -0.34955734 0.35620627
0.77931273 -0.3427202 -0.2293112 -0.2908 0.20367639 -0.39761254 -0.42677554 -0.3607697
-0.26854804 -0.30943975 -0.288952 -0.37057608 -0.14420906 -0.19269644 -0.20685528 -0.3629465
-0.28163403 -0.33896795 -0.9931977 -0.253775 -0.4487429 -0.14500521 -0.33453277 -0.28946245
-0.36668217 -0.19117399 -0.07326222 -0.37550792 -0.33672446 -0.40996385 -0.4232559 -0.37369296
-0.31263158 -0.33846924 -0.30662018 -0.2725885 -0.08860294 -0.33793715 -0.32327938 -0.26257807
00000000: 469e 95be 6be1 b7be c6b1 cdbe c3c5 aabe
00000010: 6c1e a4be 85d9 eabe 037f 333f 672d acbe
00000020: a4df 7cbe e04e c8be 4702 46be 6205 b4be
00000030: 02a1 c0be d194 9abe 7a76 44be b8e4 b7be
00000040: cd85 8bbf f942 89be 6a93 c0be d0d8 88be
00000050: 0750 b7be 053d 4bbd a20e c33d 11c5 98be
00000060: 6eab 99be 34d2 4abd 2266 773d 0c2f 5c3d
00000070: 5b03 abbe 0737 a8be e2ba b9be 72b6 d0be
00000080: ea06 8fbe c85b a8be ab01 9ebe d6d7 a4be
00000090: eff5 98be 363f a1be 6c6a b7be c801 b8be
000000a0: e560 b6be 76e5 c63b 7fd2 c0be ec33 cdbe
000000b0: 7064 92be b2c4 99be b43c 9bbe 8e40 9dbe
000000c0: 1987 80be 1ed1 b5be fc4c babe 0f37 c2be
000000d0: 9a80 9bbe 0e16 43bf ea6b d3be e893 4dbc
000000e0: 7f8e b8be 9103 a5be 6fc4 b5be 3d9c e8be
000000f0: 9a34 003f 90ce b7be 9ae6 89be 383c 493e
00000100: cdb3 92bf 2851 a4bf 0099 86bc fa22 babe
00000110: 9350 91be f8e9 943e defd 4dbe c101 67be
00000120: d6c2 cabe bab3 70bd 3a3b 8dbe 0dec afbe
00000130: e4b0 bbbe 2e6e a0be f03d 88bb dac3 a7be
00000140: cd58 8bbe 4c65 07bf f719 7cbe 7baf a6be
00000150: 3848 8cbe f4f5 8ebe 2ef9 b2be ab60 b63e
00000160: 0a81 473f 0679 afbe 8ed0 6abe bde3 94be
00000170: 8b90 503e df93 cbbe 5382 dabe ceb6 b8be
00000180: 217f 89be e36e 9ebe 84f1 93be 26bc bdbe
00000190: 8aab 13be 3752 45be dfd1 53be 20d4 b9be
000001a0: 5632 90be 358d adbe 3442 7ebf ccee 81be
000001b0: a1c1 e5be 3f7c 14be e147 abbe 6c34 94be
000001c0: c4bd bbbe 1dc3 43be 810a 96bd 9342 c0be
000001d0: 2667 acbe c8e6 d1be ffb4 d8be af54 bfbe
000001e0: 3f11 a0be d74b adbe 52fd 9cbe b890 8bbe
000001f0: 7575 b5bd 1906 adbe e084 a5be a270 86be

model/activation_17/Relu;model/batch_normalization_17/FusedBatchNormV3;model/depthwise_conv2d_8/depthwise;model/depthwise_conv2d_8/BiasAdd;model/depthwise_conv2d_11/depthwise;model/depthwise_conv2d_8/BiasAdd/ReadVariableOp/resource f4 [128]
0.031471714 -0.43057275 -0.390889 -0.2133989 -0.46936762 -0.4428363 -0.40328652 -0.528582
-0.33120748 -0.34171864 -0.57673806 -0.40454277 -0.41933757 -0.009426594 -0.93819356 0.3449109
-0.5194539 -0.3801133 -0.40624467 -0.35472673 -0.3780226 -0.44921792 -0.3166292 -0.30653733
-0.45137763 -0.36309454 -0.32358968 -0.21294482 -0.4740098 -0.3874524 -0.5121301 -1.0804359
-0.42444408 -0.37803474 -0.10424669 -0.30568612 -0.41120696 -0.40385973 -0.33601946 -0.39520153
-0.6692326 -0.23890963 -0.45365435 -0.4031199 -0.37062824 -0.3915627 -0.39987037 -0.13561249
-1.1529366 -0.00955319 0.9990905 -0.3556283 -0.35265422 -0.42037684 -0.49247545 -0.45482314
-0.19736451 -0.3984766 -0.45706847 -0.43763226 -0.11308214 -0.33625096 -0.4136786 -0.383357
-0.37211046 -0.36098424 -0.5310064 -0.80243176 -0.38573545 -0.3280098 -0.34439856 -1.0548806
-0.33527154 -0.31139326 -0.29818773 -0.3840648 -0.32209232 -0.35669073 0.98919636 -0.4859429
-0.327148 -1.1881458 -0.42961347 -0.8274139 -0.41933638 -0.011416155 0.10354402 -0.953217
-0.3253653 -0.4093678 -1.3314363 -0.32110086 -0.9659103 -0.38020673 -0.3103633 0.0032898113
-0.3664304 -0.16394126 -0.61532974 -0.4554703 -0.3984021 0.7536415 0.12419785 -0.18736365
-0.36224428 -0.38149294 -0.43039492 0.5495623 -0.5006436 -0.8279754 -0.4501532 -0.37112206
-0.45053947 -0.32502443 -1.4345242 0.07601704 -0.15753525 -0.365587 -0.39615414 -0.3518503
-0.48290437 -0.3506825 -0.40151668 -0.4474059 -0.40428993 -0.31072634 -1.3861607 -0.989378
00000000: 7ce8 003d 0874 dcbe 9a22 c8be 3e85 5abe
00000010: f450 f0be 71bb e2be 927b cebe 2651 07bf
00000020: 0794 a9be bff5 aebe 1ba5 13bf 3b20 cfbe
00000030: 6ab3 d6be 0072 1abc 742d 70bf 2998 b03e
00000040: eefa 04bf 369e c2be 4dff cfbe be9e b5be
00000050: 2e8c c1be e4ff e5be 391d a2be 76f2 9cbe
00000060: f81a e7be 87e7 b9be 8cad a5be 350e 5abe
00000070: 6ab1 f2be 2960 c6be f51a 03bf b94b 8abf
00000080: bc50 d9be c58d c1be 4a7f d5bd e482 9cbe
00000090: b889 d2be b4c6 cebe be0a acbe db57 cabe
000000a0: d452 2bbf baa4 74be 6245 e8be bb65 cebe
000000b0: fcc2 bdbe e87a c8be cfbb ccbe 00de 0abe
000000c0: 6d93 93bf fc84 1cbc 65c4 7f3f ea14 b6be
000000d0: 188f b4be a23b d7be be25 fcbe 94de e8be
000000e0: ec19 4abe 2005 ccbe e104 eabe 5611 e0be
000000f0: 9c97 e7bd 1629 acbe aecd d3be 5e47 c4be
00000100: 4385 bebe edd2 b8be 09f0 07bf 2b6c 4dbf
00000110: 1e7f c5be e7f0 a7be 0255 b0be 5406 87bf
00000120: b6a8 abbe f06e 9fbe 10ac 98be 24a4 c4be
00000130: 49e9 a4be 2ba0 b6be f93b 7d3f 82cd f8be
00000140: f17f a7be 2915 98bf 4cf6 dbbe 66d1 53bf
00000150: 42b3 d6be d30a 3bbc e30e d43d 0806 74bf
00000160: 4896 a6be a898 d1be 816c aabf 5567 a4be
00000170: e645 77bf 75aa c2be f0e7 9ebe e099 573b
00000180: c49c bbbe 38e0 27be 4086 1dbf 6733 e9be
00000190: 5cfb cbbe a6ee 403f 715b fe3d 42dc 3fbe
000001a0: 1578 b9be 0b53 c3be b95c dcbe 1db0 0c3f
000001b0: 2e2a 00bf 32f6 53bf 7b7a e6be b603 bebe
000001c0: 1cad e6be 9a69 a6be 7d9e b7bf d2ae 9b3d
000001d0: ec50 21be 382e bbbe b7d4 cabe b925 b4be
000001e0: 3e3f f7be a88c b3be 9893 cdbe 6312 e5be
000001f0: 17ff cebe 8617 9fbe b76d b1bf e047 7dbf

model/dense/BiasAdd/ReadVariableOp/resource f4 [2]
0.108105496 -0.10810563
00000000: 6a66 dd3d 7c66 ddbd
